<?xml version="1.0"?>
<net name="Model0" version="11">
	<layers>
		<layer id="0" name="x" type="Parameter" version="opset1">
			<data shape="?,3,?,?" element_type="f32" />
			<output>
				<port id="0" precision="FP32" names="x">
					<dim>-1</dim>
					<dim>3</dim>
					<dim>-1</dim>
					<dim>-1</dim>
				</port>
			</output>
		</layer>
		<layer id="1" name="__module._model.model/aten::arange/Constant" type="Const" version="opset1">
			<data element_type="i32" shape="" offset="0" size="4" />
			<output>
				<port id="0" precision="I32" />
			</output>
		</layer>
		<layer id="2" name="Multiply_79284_compressed" type="Const" version="opset1">
			<data element_type="f16" shape="32, 3, 3, 3" offset="4" size="1728" />
			<output>
				<port id="0" precision="FP16">
					<dim>32</dim>
					<dim>3</dim>
					<dim>3</dim>
					<dim>3</dim>
				</port>
			</output>
		</layer>
		<layer id="3" name="Multiply_79284" type="Convert" version="opset1">
			<data destination_type="f32" />
			<rt_info>
				<attribute name="decompression" version="0" />
			</rt_info>
			<input>
				<port id="0" precision="FP16">
					<dim>32</dim>
					<dim>3</dim>
					<dim>3</dim>
					<dim>3</dim>
				</port>
			</input>
			<output>
				<port id="1" precision="FP32">
					<dim>32</dim>
					<dim>3</dim>
					<dim>3</dim>
					<dim>3</dim>
				</port>
			</output>
		</layer>
		<layer id="4" name="__module._model.model.backbone.model.embedder.embedder.0.normalization/aten::mul/Multiply_1" type="Convolution" version="opset1">
			<data strides="2, 2" dilations="1, 1" pads_begin="1, 1" pads_end="1, 1" auto_pad="explicit" />
			<input>
				<port id="0" precision="FP32">
					<dim>-1</dim>
					<dim>3</dim>
					<dim>-1</dim>
					<dim>-1</dim>
				</port>
				<port id="1" precision="FP32">
					<dim>32</dim>
					<dim>3</dim>
					<dim>3</dim>
					<dim>3</dim>
				</port>
			</input>
			<output>
				<port id="2" precision="FP32" names="128">
					<dim>-1</dim>
					<dim>32</dim>
					<dim>-1</dim>
					<dim>-1</dim>
				</port>
			</output>
		</layer>
		<layer id="5" name="__module._model.model.backbone.model.embedder.embedder.0.normalization/aten::add/Multiply_1_compressed" type="Const" version="opset1">
			<data element_type="f16" shape="1, 32, 1, 1" offset="1732" size="64" />
			<output>
				<port id="0" precision="FP16">
					<dim>1</dim>
					<dim>32</dim>
					<dim>1</dim>
					<dim>1</dim>
				</port>
			</output>
		</layer>
		<layer id="6" name="__module._model.model.backbone.model.embedder.embedder.0.normalization/aten::add/Multiply_1" type="Convert" version="opset1">
			<data destination_type="f32" />
			<rt_info>
				<attribute name="decompression" version="0" />
			</rt_info>
			<input>
				<port id="0" precision="FP16">
					<dim>1</dim>
					<dim>32</dim>
					<dim>1</dim>
					<dim>1</dim>
				</port>
			</input>
			<output>
				<port id="1" precision="FP32">
					<dim>1</dim>
					<dim>32</dim>
					<dim>1</dim>
					<dim>1</dim>
				</port>
			</output>
		</layer>
		<layer id="7" name="__module._model.model.backbone.model.embedder.embedder.0.normalization/aten::add/Add_1" type="Add" version="opset1">
			<data auto_broadcast="numpy" />
			<input>
				<port id="0" precision="FP32">
					<dim>-1</dim>
					<dim>32</dim>
					<dim>-1</dim>
					<dim>-1</dim>
				</port>
				<port id="1" precision="FP32">
					<dim>1</dim>
					<dim>32</dim>
					<dim>1</dim>
					<dim>1</dim>
				</port>
			</input>
			<output>
				<port id="2" precision="FP32" names="129,input.1">
					<dim>-1</dim>
					<dim>32</dim>
					<dim>-1</dim>
					<dim>-1</dim>
				</port>
			</output>
		</layer>
		<layer id="8" name="__module._model.model.backbone.model.embedder.embedder.0.activation/aten::relu/Relu" type="ReLU" version="opset1">
			<input>
				<port id="0" precision="FP32">
					<dim>-1</dim>
					<dim>32</dim>
					<dim>-1</dim>
					<dim>-1</dim>
				</port>
			</input>
			<output>
				<port id="1" precision="FP32" names="130,input.3">
					<dim>-1</dim>
					<dim>32</dim>
					<dim>-1</dim>
					<dim>-1</dim>
				</port>
			</output>
		</layer>
		<layer id="9" name="Multiply_79288_compressed" type="Const" version="opset1">
			<data element_type="f16" shape="32, 32, 3, 3" offset="1796" size="18432" />
			<output>
				<port id="0" precision="FP16">
					<dim>32</dim>
					<dim>32</dim>
					<dim>3</dim>
					<dim>3</dim>
				</port>
			</output>
		</layer>
		<layer id="10" name="Multiply_79288" type="Convert" version="opset1">
			<data destination_type="f32" />
			<rt_info>
				<attribute name="decompression" version="0" />
			</rt_info>
			<input>
				<port id="0" precision="FP16">
					<dim>32</dim>
					<dim>32</dim>
					<dim>3</dim>
					<dim>3</dim>
				</port>
			</input>
			<output>
				<port id="1" precision="FP32">
					<dim>32</dim>
					<dim>32</dim>
					<dim>3</dim>
					<dim>3</dim>
				</port>
			</output>
		</layer>
		<layer id="11" name="__module._model.model.backbone.model.embedder.embedder.1.normalization/aten::mul/Multiply_1" type="Convolution" version="opset1">
			<data strides="1, 1" dilations="1, 1" pads_begin="1, 1" pads_end="1, 1" auto_pad="explicit" />
			<input>
				<port id="0" precision="FP32">
					<dim>-1</dim>
					<dim>32</dim>
					<dim>-1</dim>
					<dim>-1</dim>
				</port>
				<port id="1" precision="FP32">
					<dim>32</dim>
					<dim>32</dim>
					<dim>3</dim>
					<dim>3</dim>
				</port>
			</input>
			<output>
				<port id="2" precision="FP32" names="156">
					<dim>-1</dim>
					<dim>32</dim>
					<dim>-1</dim>
					<dim>-1</dim>
				</port>
			</output>
		</layer>
		<layer id="12" name="__module._model.model.backbone.model.embedder.embedder.1.normalization/aten::add/Multiply_1_compressed" type="Const" version="opset1">
			<data element_type="f16" shape="1, 32, 1, 1" offset="20228" size="64" />
			<output>
				<port id="0" precision="FP16">
					<dim>1</dim>
					<dim>32</dim>
					<dim>1</dim>
					<dim>1</dim>
				</port>
			</output>
		</layer>
		<layer id="13" name="__module._model.model.backbone.model.embedder.embedder.1.normalization/aten::add/Multiply_1" type="Convert" version="opset1">
			<data destination_type="f32" />
			<rt_info>
				<attribute name="decompression" version="0" />
			</rt_info>
			<input>
				<port id="0" precision="FP16">
					<dim>1</dim>
					<dim>32</dim>
					<dim>1</dim>
					<dim>1</dim>
				</port>
			</input>
			<output>
				<port id="1" precision="FP32">
					<dim>1</dim>
					<dim>32</dim>
					<dim>1</dim>
					<dim>1</dim>
				</port>
			</output>
		</layer>
		<layer id="14" name="__module._model.model.backbone.model.embedder.embedder.1.normalization/aten::add/Add_1" type="Add" version="opset1">
			<data auto_broadcast="numpy" />
			<input>
				<port id="0" precision="FP32">
					<dim>-1</dim>
					<dim>32</dim>
					<dim>-1</dim>
					<dim>-1</dim>
				</port>
				<port id="1" precision="FP32">
					<dim>1</dim>
					<dim>32</dim>
					<dim>1</dim>
					<dim>1</dim>
				</port>
			</input>
			<output>
				<port id="2" precision="FP32" names="157,input.5">
					<dim>-1</dim>
					<dim>32</dim>
					<dim>-1</dim>
					<dim>-1</dim>
				</port>
			</output>
		</layer>
		<layer id="15" name="__module._model.model.backbone.model.embedder.embedder.1.activation/aten::relu/Relu" type="ReLU" version="opset1">
			<input>
				<port id="0" precision="FP32">
					<dim>-1</dim>
					<dim>32</dim>
					<dim>-1</dim>
					<dim>-1</dim>
				</port>
			</input>
			<output>
				<port id="1" precision="FP32" names="158,input.7">
					<dim>-1</dim>
					<dim>32</dim>
					<dim>-1</dim>
					<dim>-1</dim>
				</port>
			</output>
		</layer>
		<layer id="16" name="Multiply_79292_compressed" type="Const" version="opset1">
			<data element_type="f16" shape="64, 32, 3, 3" offset="20292" size="36864" />
			<output>
				<port id="0" precision="FP16">
					<dim>64</dim>
					<dim>32</dim>
					<dim>3</dim>
					<dim>3</dim>
				</port>
			</output>
		</layer>
		<layer id="17" name="Multiply_79292" type="Convert" version="opset1">
			<data destination_type="f32" />
			<rt_info>
				<attribute name="decompression" version="0" />
			</rt_info>
			<input>
				<port id="0" precision="FP16">
					<dim>64</dim>
					<dim>32</dim>
					<dim>3</dim>
					<dim>3</dim>
				</port>
			</input>
			<output>
				<port id="1" precision="FP32">
					<dim>64</dim>
					<dim>32</dim>
					<dim>3</dim>
					<dim>3</dim>
				</port>
			</output>
		</layer>
		<layer id="18" name="__module._model.model.backbone.model.embedder.embedder.2.normalization/aten::mul/Multiply_1" type="Convolution" version="opset1">
			<data strides="1, 1" dilations="1, 1" pads_begin="1, 1" pads_end="1, 1" auto_pad="explicit" />
			<input>
				<port id="0" precision="FP32">
					<dim>-1</dim>
					<dim>32</dim>
					<dim>-1</dim>
					<dim>-1</dim>
				</port>
				<port id="1" precision="FP32">
					<dim>64</dim>
					<dim>32</dim>
					<dim>3</dim>
					<dim>3</dim>
				</port>
			</input>
			<output>
				<port id="2" precision="FP32" names="184">
					<dim>-1</dim>
					<dim>64</dim>
					<dim>-1</dim>
					<dim>-1</dim>
				</port>
			</output>
		</layer>
		<layer id="19" name="__module._model.model.backbone.model.embedder.embedder.2.normalization/aten::add/Multiply_1_compressed" type="Const" version="opset1">
			<data element_type="f16" shape="1, 64, 1, 1" offset="57156" size="128" />
			<output>
				<port id="0" precision="FP16">
					<dim>1</dim>
					<dim>64</dim>
					<dim>1</dim>
					<dim>1</dim>
				</port>
			</output>
		</layer>
		<layer id="20" name="__module._model.model.backbone.model.embedder.embedder.2.normalization/aten::add/Multiply_1" type="Convert" version="opset1">
			<data destination_type="f32" />
			<rt_info>
				<attribute name="decompression" version="0" />
			</rt_info>
			<input>
				<port id="0" precision="FP16">
					<dim>1</dim>
					<dim>64</dim>
					<dim>1</dim>
					<dim>1</dim>
				</port>
			</input>
			<output>
				<port id="1" precision="FP32">
					<dim>1</dim>
					<dim>64</dim>
					<dim>1</dim>
					<dim>1</dim>
				</port>
			</output>
		</layer>
		<layer id="21" name="__module._model.model.backbone.model.embedder.embedder.2.normalization/aten::add/Add_1" type="Add" version="opset1">
			<data auto_broadcast="numpy" />
			<input>
				<port id="0" precision="FP32">
					<dim>-1</dim>
					<dim>64</dim>
					<dim>-1</dim>
					<dim>-1</dim>
				</port>
				<port id="1" precision="FP32">
					<dim>1</dim>
					<dim>64</dim>
					<dim>1</dim>
					<dim>1</dim>
				</port>
			</input>
			<output>
				<port id="2" precision="FP32" names="185,input.9">
					<dim>-1</dim>
					<dim>64</dim>
					<dim>-1</dim>
					<dim>-1</dim>
				</port>
			</output>
		</layer>
		<layer id="22" name="__module._model.model.backbone.model.embedder.embedder.2.activation/aten::relu/Relu" type="ReLU" version="opset1">
			<input>
				<port id="0" precision="FP32">
					<dim>-1</dim>
					<dim>64</dim>
					<dim>-1</dim>
					<dim>-1</dim>
				</port>
			</input>
			<output>
				<port id="1" precision="FP32" names="186,input.11">
					<dim>-1</dim>
					<dim>64</dim>
					<dim>-1</dim>
					<dim>-1</dim>
				</port>
			</output>
		</layer>
		<layer id="23" name="__module._model.model.backbone.model.embedder.pooler/aten::max_pool2d/MaxPool" type="MaxPool" version="opset14">
			<data strides="2, 2" dilations="1, 1" pads_begin="1, 1" pads_end="1, 1" kernel="3, 3" rounding_type="floor" auto_pad="explicit" index_element_type="i64" axis="2" />
			<input>
				<port id="0" precision="FP32">
					<dim>-1</dim>
					<dim>64</dim>
					<dim>-1</dim>
					<dim>-1</dim>
				</port>
			</input>
			<output>
				<port id="1" precision="FP32" names="191,input.13">
					<dim>-1</dim>
					<dim>64</dim>
					<dim>-1</dim>
					<dim>-1</dim>
				</port>
				<port id="2" precision="I64">
					<dim>-1</dim>
					<dim>64</dim>
					<dim>-1</dim>
					<dim>-1</dim>
				</port>
			</output>
		</layer>
		<layer id="24" name="Multiply_79296_compressed" type="Const" version="opset1">
			<data element_type="f16" shape="64, 64, 1, 1" offset="57284" size="8192" />
			<output>
				<port id="0" precision="FP16">
					<dim>64</dim>
					<dim>64</dim>
					<dim>1</dim>
					<dim>1</dim>
				</port>
			</output>
		</layer>
		<layer id="25" name="Multiply_79296" type="Convert" version="opset1">
			<data destination_type="f32" />
			<rt_info>
				<attribute name="decompression" version="0" />
			</rt_info>
			<input>
				<port id="0" precision="FP16">
					<dim>64</dim>
					<dim>64</dim>
					<dim>1</dim>
					<dim>1</dim>
				</port>
			</input>
			<output>
				<port id="1" precision="FP32">
					<dim>64</dim>
					<dim>64</dim>
					<dim>1</dim>
					<dim>1</dim>
				</port>
			</output>
		</layer>
		<layer id="26" name="__module._model.model.backbone.model.encoder.stages.0.layers.0.layer.0.normalization/aten::mul/Multiply_1" type="Convolution" version="opset1">
			<data strides="1, 1" dilations="1, 1" pads_begin="0, 0" pads_end="0, 0" auto_pad="explicit" />
			<input>
				<port id="0" precision="FP32">
					<dim>-1</dim>
					<dim>64</dim>
					<dim>-1</dim>
					<dim>-1</dim>
				</port>
				<port id="1" precision="FP32">
					<dim>64</dim>
					<dim>64</dim>
					<dim>1</dim>
					<dim>1</dim>
				</port>
			</input>
			<output>
				<port id="2" precision="FP32" names="236">
					<dim>-1</dim>
					<dim>64</dim>
					<dim>-1</dim>
					<dim>-1</dim>
				</port>
			</output>
		</layer>
		<layer id="27" name="__module._model.model.backbone.model.encoder.stages.0.layers.0.layer.0.normalization/aten::add/Multiply_1_compressed" type="Const" version="opset1">
			<data element_type="f16" shape="1, 64, 1, 1" offset="65476" size="128" />
			<output>
				<port id="0" precision="FP16">
					<dim>1</dim>
					<dim>64</dim>
					<dim>1</dim>
					<dim>1</dim>
				</port>
			</output>
		</layer>
		<layer id="28" name="__module._model.model.backbone.model.encoder.stages.0.layers.0.layer.0.normalization/aten::add/Multiply_1" type="Convert" version="opset1">
			<data destination_type="f32" />
			<rt_info>
				<attribute name="decompression" version="0" />
			</rt_info>
			<input>
				<port id="0" precision="FP16">
					<dim>1</dim>
					<dim>64</dim>
					<dim>1</dim>
					<dim>1</dim>
				</port>
			</input>
			<output>
				<port id="1" precision="FP32">
					<dim>1</dim>
					<dim>64</dim>
					<dim>1</dim>
					<dim>1</dim>
				</port>
			</output>
		</layer>
		<layer id="29" name="__module._model.model.backbone.model.encoder.stages.0.layers.0.layer.0.normalization/aten::add/Add_1" type="Add" version="opset1">
			<data auto_broadcast="numpy" />
			<input>
				<port id="0" precision="FP32">
					<dim>-1</dim>
					<dim>64</dim>
					<dim>-1</dim>
					<dim>-1</dim>
				</port>
				<port id="1" precision="FP32">
					<dim>1</dim>
					<dim>64</dim>
					<dim>1</dim>
					<dim>1</dim>
				</port>
			</input>
			<output>
				<port id="2" precision="FP32" names="237,input.15">
					<dim>-1</dim>
					<dim>64</dim>
					<dim>-1</dim>
					<dim>-1</dim>
				</port>
			</output>
		</layer>
		<layer id="30" name="__module._model.model.backbone.model.encoder.stages.0.layers.0.layer.0.activation/aten::relu/Relu" type="ReLU" version="opset1">
			<input>
				<port id="0" precision="FP32">
					<dim>-1</dim>
					<dim>64</dim>
					<dim>-1</dim>
					<dim>-1</dim>
				</port>
			</input>
			<output>
				<port id="1" precision="FP32" names="238,input.17">
					<dim>-1</dim>
					<dim>64</dim>
					<dim>-1</dim>
					<dim>-1</dim>
				</port>
			</output>
		</layer>
		<layer id="31" name="Multiply_79300_compressed" type="Const" version="opset1">
			<data element_type="f16" shape="64, 64, 3, 3" offset="65604" size="73728" />
			<output>
				<port id="0" precision="FP16">
					<dim>64</dim>
					<dim>64</dim>
					<dim>3</dim>
					<dim>3</dim>
				</port>
			</output>
		</layer>
		<layer id="32" name="Multiply_79300" type="Convert" version="opset1">
			<data destination_type="f32" />
			<rt_info>
				<attribute name="decompression" version="0" />
			</rt_info>
			<input>
				<port id="0" precision="FP16">
					<dim>64</dim>
					<dim>64</dim>
					<dim>3</dim>
					<dim>3</dim>
				</port>
			</input>
			<output>
				<port id="1" precision="FP32">
					<dim>64</dim>
					<dim>64</dim>
					<dim>3</dim>
					<dim>3</dim>
				</port>
			</output>
		</layer>
		<layer id="33" name="__module._model.model.backbone.model.encoder.stages.0.layers.0.layer.1.normalization/aten::mul/Multiply_1" type="Convolution" version="opset1">
			<data strides="1, 1" dilations="1, 1" pads_begin="1, 1" pads_end="1, 1" auto_pad="explicit" />
			<input>
				<port id="0" precision="FP32">
					<dim>-1</dim>
					<dim>64</dim>
					<dim>-1</dim>
					<dim>-1</dim>
				</port>
				<port id="1" precision="FP32">
					<dim>64</dim>
					<dim>64</dim>
					<dim>3</dim>
					<dim>3</dim>
				</port>
			</input>
			<output>
				<port id="2" precision="FP32" names="264">
					<dim>-1</dim>
					<dim>64</dim>
					<dim>-1</dim>
					<dim>-1</dim>
				</port>
			</output>
		</layer>
		<layer id="34" name="__module._model.model.backbone.model.encoder.stages.0.layers.0.layer.1.normalization/aten::add/Multiply_1_compressed" type="Const" version="opset1">
			<data element_type="f16" shape="1, 64, 1, 1" offset="139332" size="128" />
			<output>
				<port id="0" precision="FP16">
					<dim>1</dim>
					<dim>64</dim>
					<dim>1</dim>
					<dim>1</dim>
				</port>
			</output>
		</layer>
		<layer id="35" name="__module._model.model.backbone.model.encoder.stages.0.layers.0.layer.1.normalization/aten::add/Multiply_1" type="Convert" version="opset1">
			<data destination_type="f32" />
			<rt_info>
				<attribute name="decompression" version="0" />
			</rt_info>
			<input>
				<port id="0" precision="FP16">
					<dim>1</dim>
					<dim>64</dim>
					<dim>1</dim>
					<dim>1</dim>
				</port>
			</input>
			<output>
				<port id="1" precision="FP32">
					<dim>1</dim>
					<dim>64</dim>
					<dim>1</dim>
					<dim>1</dim>
				</port>
			</output>
		</layer>
		<layer id="36" name="__module._model.model.backbone.model.encoder.stages.0.layers.0.layer.1.normalization/aten::add/Add_1" type="Add" version="opset1">
			<data auto_broadcast="numpy" />
			<input>
				<port id="0" precision="FP32">
					<dim>-1</dim>
					<dim>64</dim>
					<dim>-1</dim>
					<dim>-1</dim>
				</port>
				<port id="1" precision="FP32">
					<dim>1</dim>
					<dim>64</dim>
					<dim>1</dim>
					<dim>1</dim>
				</port>
			</input>
			<output>
				<port id="2" precision="FP32" names="265,input.19">
					<dim>-1</dim>
					<dim>64</dim>
					<dim>-1</dim>
					<dim>-1</dim>
				</port>
			</output>
		</layer>
		<layer id="37" name="__module._model.model.backbone.model.encoder.stages.0.layers.0.layer.1.activation/aten::relu/Relu" type="ReLU" version="opset1">
			<input>
				<port id="0" precision="FP32">
					<dim>-1</dim>
					<dim>64</dim>
					<dim>-1</dim>
					<dim>-1</dim>
				</port>
			</input>
			<output>
				<port id="1" precision="FP32" names="266,input.21">
					<dim>-1</dim>
					<dim>64</dim>
					<dim>-1</dim>
					<dim>-1</dim>
				</port>
			</output>
		</layer>
		<layer id="38" name="Multiply_79304_compressed" type="Const" version="opset1">
			<data element_type="f16" shape="256, 64, 1, 1" offset="139460" size="32768" />
			<output>
				<port id="0" precision="FP16">
					<dim>256</dim>
					<dim>64</dim>
					<dim>1</dim>
					<dim>1</dim>
				</port>
			</output>
		</layer>
		<layer id="39" name="Multiply_79304" type="Convert" version="opset1">
			<data destination_type="f32" />
			<rt_info>
				<attribute name="decompression" version="0" />
			</rt_info>
			<input>
				<port id="0" precision="FP16">
					<dim>256</dim>
					<dim>64</dim>
					<dim>1</dim>
					<dim>1</dim>
				</port>
			</input>
			<output>
				<port id="1" precision="FP32">
					<dim>256</dim>
					<dim>64</dim>
					<dim>1</dim>
					<dim>1</dim>
				</port>
			</output>
		</layer>
		<layer id="40" name="__module._model.model.backbone.model.encoder.stages.0.layers.0.layer.2.normalization/aten::mul/Multiply_1" type="Convolution" version="opset1">
			<data strides="1, 1" dilations="1, 1" pads_begin="0, 0" pads_end="0, 0" auto_pad="explicit" />
			<input>
				<port id="0" precision="FP32">
					<dim>-1</dim>
					<dim>64</dim>
					<dim>-1</dim>
					<dim>-1</dim>
				</port>
				<port id="1" precision="FP32">
					<dim>256</dim>
					<dim>64</dim>
					<dim>1</dim>
					<dim>1</dim>
				</port>
			</input>
			<output>
				<port id="2" precision="FP32" names="292">
					<dim>-1</dim>
					<dim>256</dim>
					<dim>-1</dim>
					<dim>-1</dim>
				</port>
			</output>
		</layer>
		<layer id="41" name="__module._model.model.backbone.model.encoder.stages.0.layers.0.layer.2.normalization/aten::add/Multiply_1_compressed" type="Const" version="opset1">
			<data element_type="f16" shape="1, 256, 1, 1" offset="172228" size="512" />
			<output>
				<port id="0" precision="FP16">
					<dim>1</dim>
					<dim>256</dim>
					<dim>1</dim>
					<dim>1</dim>
				</port>
			</output>
		</layer>
		<layer id="42" name="__module._model.model.backbone.model.encoder.stages.0.layers.0.layer.2.normalization/aten::add/Multiply_1" type="Convert" version="opset1">
			<data destination_type="f32" />
			<rt_info>
				<attribute name="decompression" version="0" />
			</rt_info>
			<input>
				<port id="0" precision="FP16">
					<dim>1</dim>
					<dim>256</dim>
					<dim>1</dim>
					<dim>1</dim>
				</port>
			</input>
			<output>
				<port id="1" precision="FP32">
					<dim>1</dim>
					<dim>256</dim>
					<dim>1</dim>
					<dim>1</dim>
				</port>
			</output>
		</layer>
		<layer id="43" name="__module._model.model.backbone.model.encoder.stages.0.layers.0.layer.2.normalization/aten::add/Add_1" type="Add" version="opset1">
			<data auto_broadcast="numpy" />
			<input>
				<port id="0" precision="FP32">
					<dim>-1</dim>
					<dim>256</dim>
					<dim>-1</dim>
					<dim>-1</dim>
				</port>
				<port id="1" precision="FP32">
					<dim>1</dim>
					<dim>256</dim>
					<dim>1</dim>
					<dim>1</dim>
				</port>
			</input>
			<output>
				<port id="2" precision="FP32" names="293_1">
					<dim>-1</dim>
					<dim>256</dim>
					<dim>-1</dim>
					<dim>-1</dim>
				</port>
			</output>
		</layer>
		<layer id="44" name="Multiply_79308_compressed" type="Const" version="opset1">
			<data element_type="f16" shape="256, 64, 1, 1" offset="172740" size="32768" />
			<output>
				<port id="0" precision="FP16">
					<dim>256</dim>
					<dim>64</dim>
					<dim>1</dim>
					<dim>1</dim>
				</port>
			</output>
		</layer>
		<layer id="45" name="Multiply_79308" type="Convert" version="opset1">
			<data destination_type="f32" />
			<rt_info>
				<attribute name="decompression" version="0" />
			</rt_info>
			<input>
				<port id="0" precision="FP16">
					<dim>256</dim>
					<dim>64</dim>
					<dim>1</dim>
					<dim>1</dim>
				</port>
			</input>
			<output>
				<port id="1" precision="FP32">
					<dim>256</dim>
					<dim>64</dim>
					<dim>1</dim>
					<dim>1</dim>
				</port>
			</output>
		</layer>
		<layer id="46" name="__module._model.model.backbone.model.encoder.stages.0.layers.0.shortcut.normalization/aten::mul/Multiply_1" type="Convolution" version="opset1">
			<data strides="1, 1" dilations="1, 1" pads_begin="0, 0" pads_end="0, 0" auto_pad="explicit" />
			<input>
				<port id="0" precision="FP32">
					<dim>-1</dim>
					<dim>64</dim>
					<dim>-1</dim>
					<dim>-1</dim>
				</port>
				<port id="1" precision="FP32">
					<dim>256</dim>
					<dim>64</dim>
					<dim>1</dim>
					<dim>1</dim>
				</port>
			</input>
			<output>
				<port id="2" precision="FP32" names="319">
					<dim>-1</dim>
					<dim>256</dim>
					<dim>-1</dim>
					<dim>-1</dim>
				</port>
			</output>
		</layer>
		<layer id="47" name="__module._model.model.backbone.model.encoder.stages.0.layers.0.shortcut.normalization/aten::add/Multiply_1_compressed" type="Const" version="opset1">
			<data element_type="f16" shape="1, 256, 1, 1" offset="205508" size="512" />
			<output>
				<port id="0" precision="FP16">
					<dim>1</dim>
					<dim>256</dim>
					<dim>1</dim>
					<dim>1</dim>
				</port>
			</output>
		</layer>
		<layer id="48" name="__module._model.model.backbone.model.encoder.stages.0.layers.0.shortcut.normalization/aten::add/Multiply_1" type="Convert" version="opset1">
			<data destination_type="f32" />
			<rt_info>
				<attribute name="decompression" version="0" />
			</rt_info>
			<input>
				<port id="0" precision="FP16">
					<dim>1</dim>
					<dim>256</dim>
					<dim>1</dim>
					<dim>1</dim>
				</port>
			</input>
			<output>
				<port id="1" precision="FP32">
					<dim>1</dim>
					<dim>256</dim>
					<dim>1</dim>
					<dim>1</dim>
				</port>
			</output>
		</layer>
		<layer id="49" name="__module._model.model.backbone.model.encoder.stages.0.layers.0.shortcut.normalization/aten::add/Add_1" type="Add" version="opset1">
			<data auto_broadcast="numpy" />
			<input>
				<port id="0" precision="FP32">
					<dim>-1</dim>
					<dim>256</dim>
					<dim>-1</dim>
					<dim>-1</dim>
				</port>
				<port id="1" precision="FP32">
					<dim>1</dim>
					<dim>256</dim>
					<dim>1</dim>
					<dim>1</dim>
				</port>
			</input>
			<output>
				<port id="2" precision="FP32" names="320,residual.1">
					<dim>-1</dim>
					<dim>256</dim>
					<dim>-1</dim>
					<dim>-1</dim>
				</port>
			</output>
		</layer>
		<layer id="50" name="__module._model.model.backbone.model.encoder.stages.0.layers.0/aten::add_/Add" type="Add" version="opset1">
			<data auto_broadcast="numpy" />
			<input>
				<port id="0" precision="FP32">
					<dim>-1</dim>
					<dim>256</dim>
					<dim>-1</dim>
					<dim>-1</dim>
				</port>
				<port id="1" precision="FP32">
					<dim>-1</dim>
					<dim>256</dim>
					<dim>-1</dim>
					<dim>-1</dim>
				</port>
			</input>
			<output>
				<port id="2" precision="FP32" names="293,hidden_state.1">
					<dim>-1</dim>
					<dim>256</dim>
					<dim>-1</dim>
					<dim>-1</dim>
				</port>
			</output>
		</layer>
		<layer id="51" name="__module._model.model.backbone.model.encoder.stages.0.layers.0.activation/aten::relu/Relu" type="ReLU" version="opset1">
			<input>
				<port id="0" precision="FP32">
					<dim>-1</dim>
					<dim>256</dim>
					<dim>-1</dim>
					<dim>-1</dim>
				</port>
			</input>
			<output>
				<port id="1" precision="FP32" names="322,input.25">
					<dim>-1</dim>
					<dim>256</dim>
					<dim>-1</dim>
					<dim>-1</dim>
				</port>
			</output>
		</layer>
		<layer id="52" name="Multiply_79312_compressed" type="Const" version="opset1">
			<data element_type="f16" shape="64, 256, 1, 1" offset="206020" size="32768" />
			<output>
				<port id="0" precision="FP16">
					<dim>64</dim>
					<dim>256</dim>
					<dim>1</dim>
					<dim>1</dim>
				</port>
			</output>
		</layer>
		<layer id="53" name="Multiply_79312" type="Convert" version="opset1">
			<data destination_type="f32" />
			<rt_info>
				<attribute name="decompression" version="0" />
			</rt_info>
			<input>
				<port id="0" precision="FP16">
					<dim>64</dim>
					<dim>256</dim>
					<dim>1</dim>
					<dim>1</dim>
				</port>
			</input>
			<output>
				<port id="1" precision="FP32">
					<dim>64</dim>
					<dim>256</dim>
					<dim>1</dim>
					<dim>1</dim>
				</port>
			</output>
		</layer>
		<layer id="54" name="__module._model.model.backbone.model.encoder.stages.0.layers.1.layer.0.normalization/aten::mul/Multiply_1" type="Convolution" version="opset1">
			<data strides="1, 1" dilations="1, 1" pads_begin="0, 0" pads_end="0, 0" auto_pad="explicit" />
			<input>
				<port id="0" precision="FP32">
					<dim>-1</dim>
					<dim>256</dim>
					<dim>-1</dim>
					<dim>-1</dim>
				</port>
				<port id="1" precision="FP32">
					<dim>64</dim>
					<dim>256</dim>
					<dim>1</dim>
					<dim>1</dim>
				</port>
			</input>
			<output>
				<port id="2" precision="FP32" names="352">
					<dim>-1</dim>
					<dim>64</dim>
					<dim>-1</dim>
					<dim>-1</dim>
				</port>
			</output>
		</layer>
		<layer id="55" name="__module._model.model.backbone.model.encoder.stages.0.layers.1.layer.0.normalization/aten::add/Multiply_1_compressed" type="Const" version="opset1">
			<data element_type="f16" shape="1, 64, 1, 1" offset="238788" size="128" />
			<output>
				<port id="0" precision="FP16">
					<dim>1</dim>
					<dim>64</dim>
					<dim>1</dim>
					<dim>1</dim>
				</port>
			</output>
		</layer>
		<layer id="56" name="__module._model.model.backbone.model.encoder.stages.0.layers.1.layer.0.normalization/aten::add/Multiply_1" type="Convert" version="opset1">
			<data destination_type="f32" />
			<rt_info>
				<attribute name="decompression" version="0" />
			</rt_info>
			<input>
				<port id="0" precision="FP16">
					<dim>1</dim>
					<dim>64</dim>
					<dim>1</dim>
					<dim>1</dim>
				</port>
			</input>
			<output>
				<port id="1" precision="FP32">
					<dim>1</dim>
					<dim>64</dim>
					<dim>1</dim>
					<dim>1</dim>
				</port>
			</output>
		</layer>
		<layer id="57" name="__module._model.model.backbone.model.encoder.stages.0.layers.1.layer.0.normalization/aten::add/Add_1" type="Add" version="opset1">
			<data auto_broadcast="numpy" />
			<input>
				<port id="0" precision="FP32">
					<dim>-1</dim>
					<dim>64</dim>
					<dim>-1</dim>
					<dim>-1</dim>
				</port>
				<port id="1" precision="FP32">
					<dim>1</dim>
					<dim>64</dim>
					<dim>1</dim>
					<dim>1</dim>
				</port>
			</input>
			<output>
				<port id="2" precision="FP32" names="353,input.27">
					<dim>-1</dim>
					<dim>64</dim>
					<dim>-1</dim>
					<dim>-1</dim>
				</port>
			</output>
		</layer>
		<layer id="58" name="__module._model.model.backbone.model.encoder.stages.0.layers.1.layer.0.activation/aten::relu/Relu" type="ReLU" version="opset1">
			<input>
				<port id="0" precision="FP32">
					<dim>-1</dim>
					<dim>64</dim>
					<dim>-1</dim>
					<dim>-1</dim>
				</port>
			</input>
			<output>
				<port id="1" precision="FP32" names="354,input.29">
					<dim>-1</dim>
					<dim>64</dim>
					<dim>-1</dim>
					<dim>-1</dim>
				</port>
			</output>
		</layer>
		<layer id="59" name="Multiply_79316_compressed" type="Const" version="opset1">
			<data element_type="f16" shape="64, 64, 3, 3" offset="238916" size="73728" />
			<output>
				<port id="0" precision="FP16">
					<dim>64</dim>
					<dim>64</dim>
					<dim>3</dim>
					<dim>3</dim>
				</port>
			</output>
		</layer>
		<layer id="60" name="Multiply_79316" type="Convert" version="opset1">
			<data destination_type="f32" />
			<rt_info>
				<attribute name="decompression" version="0" />
			</rt_info>
			<input>
				<port id="0" precision="FP16">
					<dim>64</dim>
					<dim>64</dim>
					<dim>3</dim>
					<dim>3</dim>
				</port>
			</input>
			<output>
				<port id="1" precision="FP32">
					<dim>64</dim>
					<dim>64</dim>
					<dim>3</dim>
					<dim>3</dim>
				</port>
			</output>
		</layer>
		<layer id="61" name="__module._model.model.backbone.model.encoder.stages.0.layers.1.layer.1.normalization/aten::mul/Multiply_1" type="Convolution" version="opset1">
			<data strides="1, 1" dilations="1, 1" pads_begin="1, 1" pads_end="1, 1" auto_pad="explicit" />
			<input>
				<port id="0" precision="FP32">
					<dim>-1</dim>
					<dim>64</dim>
					<dim>-1</dim>
					<dim>-1</dim>
				</port>
				<port id="1" precision="FP32">
					<dim>64</dim>
					<dim>64</dim>
					<dim>3</dim>
					<dim>3</dim>
				</port>
			</input>
			<output>
				<port id="2" precision="FP32" names="380">
					<dim>-1</dim>
					<dim>64</dim>
					<dim>-1</dim>
					<dim>-1</dim>
				</port>
			</output>
		</layer>
		<layer id="62" name="__module._model.model.backbone.model.encoder.stages.0.layers.1.layer.1.normalization/aten::add/Multiply_1_compressed" type="Const" version="opset1">
			<data element_type="f16" shape="1, 64, 1, 1" offset="312644" size="128" />
			<output>
				<port id="0" precision="FP16">
					<dim>1</dim>
					<dim>64</dim>
					<dim>1</dim>
					<dim>1</dim>
				</port>
			</output>
		</layer>
		<layer id="63" name="__module._model.model.backbone.model.encoder.stages.0.layers.1.layer.1.normalization/aten::add/Multiply_1" type="Convert" version="opset1">
			<data destination_type="f32" />
			<rt_info>
				<attribute name="decompression" version="0" />
			</rt_info>
			<input>
				<port id="0" precision="FP16">
					<dim>1</dim>
					<dim>64</dim>
					<dim>1</dim>
					<dim>1</dim>
				</port>
			</input>
			<output>
				<port id="1" precision="FP32">
					<dim>1</dim>
					<dim>64</dim>
					<dim>1</dim>
					<dim>1</dim>
				</port>
			</output>
		</layer>
		<layer id="64" name="__module._model.model.backbone.model.encoder.stages.0.layers.1.layer.1.normalization/aten::add/Add_1" type="Add" version="opset1">
			<data auto_broadcast="numpy" />
			<input>
				<port id="0" precision="FP32">
					<dim>-1</dim>
					<dim>64</dim>
					<dim>-1</dim>
					<dim>-1</dim>
				</port>
				<port id="1" precision="FP32">
					<dim>1</dim>
					<dim>64</dim>
					<dim>1</dim>
					<dim>1</dim>
				</port>
			</input>
			<output>
				<port id="2" precision="FP32" names="381,input.31">
					<dim>-1</dim>
					<dim>64</dim>
					<dim>-1</dim>
					<dim>-1</dim>
				</port>
			</output>
		</layer>
		<layer id="65" name="__module._model.model.backbone.model.encoder.stages.0.layers.1.layer.1.activation/aten::relu/Relu" type="ReLU" version="opset1">
			<input>
				<port id="0" precision="FP32">
					<dim>-1</dim>
					<dim>64</dim>
					<dim>-1</dim>
					<dim>-1</dim>
				</port>
			</input>
			<output>
				<port id="1" precision="FP32" names="382,input.33">
					<dim>-1</dim>
					<dim>64</dim>
					<dim>-1</dim>
					<dim>-1</dim>
				</port>
			</output>
		</layer>
		<layer id="66" name="Multiply_79320_compressed" type="Const" version="opset1">
			<data element_type="f16" shape="256, 64, 1, 1" offset="312772" size="32768" />
			<output>
				<port id="0" precision="FP16">
					<dim>256</dim>
					<dim>64</dim>
					<dim>1</dim>
					<dim>1</dim>
				</port>
			</output>
		</layer>
		<layer id="67" name="Multiply_79320" type="Convert" version="opset1">
			<data destination_type="f32" />
			<rt_info>
				<attribute name="decompression" version="0" />
			</rt_info>
			<input>
				<port id="0" precision="FP16">
					<dim>256</dim>
					<dim>64</dim>
					<dim>1</dim>
					<dim>1</dim>
				</port>
			</input>
			<output>
				<port id="1" precision="FP32">
					<dim>256</dim>
					<dim>64</dim>
					<dim>1</dim>
					<dim>1</dim>
				</port>
			</output>
		</layer>
		<layer id="68" name="__module._model.model.backbone.model.encoder.stages.0.layers.1.layer.2.normalization/aten::mul/Multiply_1" type="Convolution" version="opset1">
			<data strides="1, 1" dilations="1, 1" pads_begin="0, 0" pads_end="0, 0" auto_pad="explicit" />
			<input>
				<port id="0" precision="FP32">
					<dim>-1</dim>
					<dim>64</dim>
					<dim>-1</dim>
					<dim>-1</dim>
				</port>
				<port id="1" precision="FP32">
					<dim>256</dim>
					<dim>64</dim>
					<dim>1</dim>
					<dim>1</dim>
				</port>
			</input>
			<output>
				<port id="2" precision="FP32" names="408">
					<dim>-1</dim>
					<dim>256</dim>
					<dim>-1</dim>
					<dim>-1</dim>
				</port>
			</output>
		</layer>
		<layer id="69" name="__module._model.model.backbone.model.encoder.stages.0.layers.1.layer.2.normalization/aten::add/Multiply_1_compressed" type="Const" version="opset1">
			<data element_type="f16" shape="1, 256, 1, 1" offset="345540" size="512" />
			<output>
				<port id="0" precision="FP16">
					<dim>1</dim>
					<dim>256</dim>
					<dim>1</dim>
					<dim>1</dim>
				</port>
			</output>
		</layer>
		<layer id="70" name="__module._model.model.backbone.model.encoder.stages.0.layers.1.layer.2.normalization/aten::add/Multiply_1" type="Convert" version="opset1">
			<data destination_type="f32" />
			<rt_info>
				<attribute name="decompression" version="0" />
			</rt_info>
			<input>
				<port id="0" precision="FP16">
					<dim>1</dim>
					<dim>256</dim>
					<dim>1</dim>
					<dim>1</dim>
				</port>
			</input>
			<output>
				<port id="1" precision="FP32">
					<dim>1</dim>
					<dim>256</dim>
					<dim>1</dim>
					<dim>1</dim>
				</port>
			</output>
		</layer>
		<layer id="71" name="__module._model.model.backbone.model.encoder.stages.0.layers.1.layer.2.normalization/aten::add/Add_1" type="Add" version="opset1">
			<data auto_broadcast="numpy" />
			<input>
				<port id="0" precision="FP32">
					<dim>-1</dim>
					<dim>256</dim>
					<dim>-1</dim>
					<dim>-1</dim>
				</port>
				<port id="1" precision="FP32">
					<dim>1</dim>
					<dim>256</dim>
					<dim>1</dim>
					<dim>1</dim>
				</port>
			</input>
			<output>
				<port id="2" precision="FP32" names="409_1">
					<dim>-1</dim>
					<dim>256</dim>
					<dim>-1</dim>
					<dim>-1</dim>
				</port>
			</output>
		</layer>
		<layer id="72" name="__module._model.model.backbone.model.encoder.stages.0.layers.1/aten::add_/Add" type="Add" version="opset1">
			<data auto_broadcast="numpy" />
			<input>
				<port id="0" precision="FP32">
					<dim>-1</dim>
					<dim>256</dim>
					<dim>-1</dim>
					<dim>-1</dim>
				</port>
				<port id="1" precision="FP32">
					<dim>-1</dim>
					<dim>256</dim>
					<dim>-1</dim>
					<dim>-1</dim>
				</port>
			</input>
			<output>
				<port id="2" precision="FP32" names="409,hidden_state.3">
					<dim>-1</dim>
					<dim>256</dim>
					<dim>-1</dim>
					<dim>-1</dim>
				</port>
			</output>
		</layer>
		<layer id="73" name="__module._model.model.backbone.model.encoder.stages.0.layers.1.activation/aten::relu/Relu" type="ReLU" version="opset1">
			<input>
				<port id="0" precision="FP32">
					<dim>-1</dim>
					<dim>256</dim>
					<dim>-1</dim>
					<dim>-1</dim>
				</port>
			</input>
			<output>
				<port id="1" precision="FP32" names="411,input.37">
					<dim>-1</dim>
					<dim>256</dim>
					<dim>-1</dim>
					<dim>-1</dim>
				</port>
			</output>
		</layer>
		<layer id="74" name="Multiply_79324_compressed" type="Const" version="opset1">
			<data element_type="f16" shape="64, 256, 1, 1" offset="346052" size="32768" />
			<output>
				<port id="0" precision="FP16">
					<dim>64</dim>
					<dim>256</dim>
					<dim>1</dim>
					<dim>1</dim>
				</port>
			</output>
		</layer>
		<layer id="75" name="Multiply_79324" type="Convert" version="opset1">
			<data destination_type="f32" />
			<rt_info>
				<attribute name="decompression" version="0" />
			</rt_info>
			<input>
				<port id="0" precision="FP16">
					<dim>64</dim>
					<dim>256</dim>
					<dim>1</dim>
					<dim>1</dim>
				</port>
			</input>
			<output>
				<port id="1" precision="FP32">
					<dim>64</dim>
					<dim>256</dim>
					<dim>1</dim>
					<dim>1</dim>
				</port>
			</output>
		</layer>
		<layer id="76" name="__module._model.model.backbone.model.encoder.stages.0.layers.2.layer.0.normalization/aten::mul/Multiply_1" type="Convolution" version="opset1">
			<data strides="1, 1" dilations="1, 1" pads_begin="0, 0" pads_end="0, 0" auto_pad="explicit" />
			<input>
				<port id="0" precision="FP32">
					<dim>-1</dim>
					<dim>256</dim>
					<dim>-1</dim>
					<dim>-1</dim>
				</port>
				<port id="1" precision="FP32">
					<dim>64</dim>
					<dim>256</dim>
					<dim>1</dim>
					<dim>1</dim>
				</port>
			</input>
			<output>
				<port id="2" precision="FP32" names="441">
					<dim>-1</dim>
					<dim>64</dim>
					<dim>-1</dim>
					<dim>-1</dim>
				</port>
			</output>
		</layer>
		<layer id="77" name="__module._model.model.backbone.model.encoder.stages.0.layers.2.layer.0.normalization/aten::add/Multiply_1_compressed" type="Const" version="opset1">
			<data element_type="f16" shape="1, 64, 1, 1" offset="378820" size="128" />
			<output>
				<port id="0" precision="FP16">
					<dim>1</dim>
					<dim>64</dim>
					<dim>1</dim>
					<dim>1</dim>
				</port>
			</output>
		</layer>
		<layer id="78" name="__module._model.model.backbone.model.encoder.stages.0.layers.2.layer.0.normalization/aten::add/Multiply_1" type="Convert" version="opset1">
			<data destination_type="f32" />
			<rt_info>
				<attribute name="decompression" version="0" />
			</rt_info>
			<input>
				<port id="0" precision="FP16">
					<dim>1</dim>
					<dim>64</dim>
					<dim>1</dim>
					<dim>1</dim>
				</port>
			</input>
			<output>
				<port id="1" precision="FP32">
					<dim>1</dim>
					<dim>64</dim>
					<dim>1</dim>
					<dim>1</dim>
				</port>
			</output>
		</layer>
		<layer id="79" name="__module._model.model.backbone.model.encoder.stages.0.layers.2.layer.0.normalization/aten::add/Add_1" type="Add" version="opset1">
			<data auto_broadcast="numpy" />
			<input>
				<port id="0" precision="FP32">
					<dim>-1</dim>
					<dim>64</dim>
					<dim>-1</dim>
					<dim>-1</dim>
				</port>
				<port id="1" precision="FP32">
					<dim>1</dim>
					<dim>64</dim>
					<dim>1</dim>
					<dim>1</dim>
				</port>
			</input>
			<output>
				<port id="2" precision="FP32" names="442,input.39">
					<dim>-1</dim>
					<dim>64</dim>
					<dim>-1</dim>
					<dim>-1</dim>
				</port>
			</output>
		</layer>
		<layer id="80" name="__module._model.model.backbone.model.encoder.stages.0.layers.2.layer.0.activation/aten::relu/Relu" type="ReLU" version="opset1">
			<input>
				<port id="0" precision="FP32">
					<dim>-1</dim>
					<dim>64</dim>
					<dim>-1</dim>
					<dim>-1</dim>
				</port>
			</input>
			<output>
				<port id="1" precision="FP32" names="443,input.41">
					<dim>-1</dim>
					<dim>64</dim>
					<dim>-1</dim>
					<dim>-1</dim>
				</port>
			</output>
		</layer>
		<layer id="81" name="Multiply_79328_compressed" type="Const" version="opset1">
			<data element_type="f16" shape="64, 64, 3, 3" offset="378948" size="73728" />
			<output>
				<port id="0" precision="FP16">
					<dim>64</dim>
					<dim>64</dim>
					<dim>3</dim>
					<dim>3</dim>
				</port>
			</output>
		</layer>
		<layer id="82" name="Multiply_79328" type="Convert" version="opset1">
			<data destination_type="f32" />
			<rt_info>
				<attribute name="decompression" version="0" />
			</rt_info>
			<input>
				<port id="0" precision="FP16">
					<dim>64</dim>
					<dim>64</dim>
					<dim>3</dim>
					<dim>3</dim>
				</port>
			</input>
			<output>
				<port id="1" precision="FP32">
					<dim>64</dim>
					<dim>64</dim>
					<dim>3</dim>
					<dim>3</dim>
				</port>
			</output>
		</layer>
		<layer id="83" name="__module._model.model.backbone.model.encoder.stages.0.layers.2.layer.1.normalization/aten::mul/Multiply_1" type="Convolution" version="opset1">
			<data strides="1, 1" dilations="1, 1" pads_begin="1, 1" pads_end="1, 1" auto_pad="explicit" />
			<input>
				<port id="0" precision="FP32">
					<dim>-1</dim>
					<dim>64</dim>
					<dim>-1</dim>
					<dim>-1</dim>
				</port>
				<port id="1" precision="FP32">
					<dim>64</dim>
					<dim>64</dim>
					<dim>3</dim>
					<dim>3</dim>
				</port>
			</input>
			<output>
				<port id="2" precision="FP32" names="469">
					<dim>-1</dim>
					<dim>64</dim>
					<dim>-1</dim>
					<dim>-1</dim>
				</port>
			</output>
		</layer>
		<layer id="84" name="__module._model.model.backbone.model.encoder.stages.0.layers.2.layer.1.normalization/aten::add/Multiply_1_compressed" type="Const" version="opset1">
			<data element_type="f16" shape="1, 64, 1, 1" offset="452676" size="128" />
			<output>
				<port id="0" precision="FP16">
					<dim>1</dim>
					<dim>64</dim>
					<dim>1</dim>
					<dim>1</dim>
				</port>
			</output>
		</layer>
		<layer id="85" name="__module._model.model.backbone.model.encoder.stages.0.layers.2.layer.1.normalization/aten::add/Multiply_1" type="Convert" version="opset1">
			<data destination_type="f32" />
			<rt_info>
				<attribute name="decompression" version="0" />
			</rt_info>
			<input>
				<port id="0" precision="FP16">
					<dim>1</dim>
					<dim>64</dim>
					<dim>1</dim>
					<dim>1</dim>
				</port>
			</input>
			<output>
				<port id="1" precision="FP32">
					<dim>1</dim>
					<dim>64</dim>
					<dim>1</dim>
					<dim>1</dim>
				</port>
			</output>
		</layer>
		<layer id="86" name="__module._model.model.backbone.model.encoder.stages.0.layers.2.layer.1.normalization/aten::add/Add_1" type="Add" version="opset1">
			<data auto_broadcast="numpy" />
			<input>
				<port id="0" precision="FP32">
					<dim>-1</dim>
					<dim>64</dim>
					<dim>-1</dim>
					<dim>-1</dim>
				</port>
				<port id="1" precision="FP32">
					<dim>1</dim>
					<dim>64</dim>
					<dim>1</dim>
					<dim>1</dim>
				</port>
			</input>
			<output>
				<port id="2" precision="FP32" names="470,input.43">
					<dim>-1</dim>
					<dim>64</dim>
					<dim>-1</dim>
					<dim>-1</dim>
				</port>
			</output>
		</layer>
		<layer id="87" name="__module._model.model.backbone.model.encoder.stages.0.layers.2.layer.1.activation/aten::relu/Relu" type="ReLU" version="opset1">
			<input>
				<port id="0" precision="FP32">
					<dim>-1</dim>
					<dim>64</dim>
					<dim>-1</dim>
					<dim>-1</dim>
				</port>
			</input>
			<output>
				<port id="1" precision="FP32" names="471,input.45">
					<dim>-1</dim>
					<dim>64</dim>
					<dim>-1</dim>
					<dim>-1</dim>
				</port>
			</output>
		</layer>
		<layer id="88" name="Multiply_79332_compressed" type="Const" version="opset1">
			<data element_type="f16" shape="256, 64, 1, 1" offset="452804" size="32768" />
			<output>
				<port id="0" precision="FP16">
					<dim>256</dim>
					<dim>64</dim>
					<dim>1</dim>
					<dim>1</dim>
				</port>
			</output>
		</layer>
		<layer id="89" name="Multiply_79332" type="Convert" version="opset1">
			<data destination_type="f32" />
			<rt_info>
				<attribute name="decompression" version="0" />
			</rt_info>
			<input>
				<port id="0" precision="FP16">
					<dim>256</dim>
					<dim>64</dim>
					<dim>1</dim>
					<dim>1</dim>
				</port>
			</input>
			<output>
				<port id="1" precision="FP32">
					<dim>256</dim>
					<dim>64</dim>
					<dim>1</dim>
					<dim>1</dim>
				</port>
			</output>
		</layer>
		<layer id="90" name="__module._model.model.backbone.model.encoder.stages.0.layers.2.layer.2.normalization/aten::mul/Multiply_1" type="Convolution" version="opset1">
			<data strides="1, 1" dilations="1, 1" pads_begin="0, 0" pads_end="0, 0" auto_pad="explicit" />
			<input>
				<port id="0" precision="FP32">
					<dim>-1</dim>
					<dim>64</dim>
					<dim>-1</dim>
					<dim>-1</dim>
				</port>
				<port id="1" precision="FP32">
					<dim>256</dim>
					<dim>64</dim>
					<dim>1</dim>
					<dim>1</dim>
				</port>
			</input>
			<output>
				<port id="2" precision="FP32" names="497">
					<dim>-1</dim>
					<dim>256</dim>
					<dim>-1</dim>
					<dim>-1</dim>
				</port>
			</output>
		</layer>
		<layer id="91" name="__module._model.model.backbone.model.encoder.stages.0.layers.2.layer.2.normalization/aten::add/Multiply_1_compressed" type="Const" version="opset1">
			<data element_type="f16" shape="1, 256, 1, 1" offset="485572" size="512" />
			<output>
				<port id="0" precision="FP16">
					<dim>1</dim>
					<dim>256</dim>
					<dim>1</dim>
					<dim>1</dim>
				</port>
			</output>
		</layer>
		<layer id="92" name="__module._model.model.backbone.model.encoder.stages.0.layers.2.layer.2.normalization/aten::add/Multiply_1" type="Convert" version="opset1">
			<data destination_type="f32" />
			<rt_info>
				<attribute name="decompression" version="0" />
			</rt_info>
			<input>
				<port id="0" precision="FP16">
					<dim>1</dim>
					<dim>256</dim>
					<dim>1</dim>
					<dim>1</dim>
				</port>
			</input>
			<output>
				<port id="1" precision="FP32">
					<dim>1</dim>
					<dim>256</dim>
					<dim>1</dim>
					<dim>1</dim>
				</port>
			</output>
		</layer>
		<layer id="93" name="__module._model.model.backbone.model.encoder.stages.0.layers.2.layer.2.normalization/aten::add/Add_1" type="Add" version="opset1">
			<data auto_broadcast="numpy" />
			<input>
				<port id="0" precision="FP32">
					<dim>-1</dim>
					<dim>256</dim>
					<dim>-1</dim>
					<dim>-1</dim>
				</port>
				<port id="1" precision="FP32">
					<dim>1</dim>
					<dim>256</dim>
					<dim>1</dim>
					<dim>1</dim>
				</port>
			</input>
			<output>
				<port id="2" precision="FP32" names="498_1">
					<dim>-1</dim>
					<dim>256</dim>
					<dim>-1</dim>
					<dim>-1</dim>
				</port>
			</output>
		</layer>
		<layer id="94" name="__module._model.model.backbone.model.encoder.stages.0.layers.2/aten::add_/Add" type="Add" version="opset1">
			<data auto_broadcast="numpy" />
			<input>
				<port id="0" precision="FP32">
					<dim>-1</dim>
					<dim>256</dim>
					<dim>-1</dim>
					<dim>-1</dim>
				</port>
				<port id="1" precision="FP32">
					<dim>-1</dim>
					<dim>256</dim>
					<dim>-1</dim>
					<dim>-1</dim>
				</port>
			</input>
			<output>
				<port id="2" precision="FP32" names="498,hidden_state.5">
					<dim>-1</dim>
					<dim>256</dim>
					<dim>-1</dim>
					<dim>-1</dim>
				</port>
			</output>
		</layer>
		<layer id="95" name="__module._model.model.backbone.model.encoder.stages.0.layers.2.activation/aten::relu/Relu" type="ReLU" version="opset1">
			<input>
				<port id="0" precision="FP32">
					<dim>-1</dim>
					<dim>256</dim>
					<dim>-1</dim>
					<dim>-1</dim>
				</port>
			</input>
			<output>
				<port id="1" precision="FP32" names="500,input.49">
					<dim>-1</dim>
					<dim>256</dim>
					<dim>-1</dim>
					<dim>-1</dim>
				</port>
			</output>
		</layer>
		<layer id="96" name="Multiply_79336_compressed" type="Const" version="opset1">
			<data element_type="f16" shape="128, 256, 1, 1" offset="486084" size="65536" />
			<output>
				<port id="0" precision="FP16">
					<dim>128</dim>
					<dim>256</dim>
					<dim>1</dim>
					<dim>1</dim>
				</port>
			</output>
		</layer>
		<layer id="97" name="Multiply_79336" type="Convert" version="opset1">
			<data destination_type="f32" />
			<rt_info>
				<attribute name="decompression" version="0" />
			</rt_info>
			<input>
				<port id="0" precision="FP16">
					<dim>128</dim>
					<dim>256</dim>
					<dim>1</dim>
					<dim>1</dim>
				</port>
			</input>
			<output>
				<port id="1" precision="FP32">
					<dim>128</dim>
					<dim>256</dim>
					<dim>1</dim>
					<dim>1</dim>
				</port>
			</output>
		</layer>
		<layer id="98" name="__module._model.model.backbone.model.encoder.stages.1.layers.0.layer.0.normalization/aten::mul/Multiply_1" type="Convolution" version="opset1">
			<data strides="1, 1" dilations="1, 1" pads_begin="0, 0" pads_end="0, 0" auto_pad="explicit" />
			<input>
				<port id="0" precision="FP32">
					<dim>-1</dim>
					<dim>256</dim>
					<dim>-1</dim>
					<dim>-1</dim>
				</port>
				<port id="1" precision="FP32">
					<dim>128</dim>
					<dim>256</dim>
					<dim>1</dim>
					<dim>1</dim>
				</port>
			</input>
			<output>
				<port id="2" precision="FP32" names="539">
					<dim>-1</dim>
					<dim>128</dim>
					<dim>-1</dim>
					<dim>-1</dim>
				</port>
			</output>
		</layer>
		<layer id="99" name="__module._model.model.backbone.model.encoder.stages.1.layers.0.layer.0.normalization/aten::add/Multiply_1_compressed" type="Const" version="opset1">
			<data element_type="f16" shape="1, 128, 1, 1" offset="551620" size="256" />
			<output>
				<port id="0" precision="FP16">
					<dim>1</dim>
					<dim>128</dim>
					<dim>1</dim>
					<dim>1</dim>
				</port>
			</output>
		</layer>
		<layer id="100" name="__module._model.model.backbone.model.encoder.stages.1.layers.0.layer.0.normalization/aten::add/Multiply_1" type="Convert" version="opset1">
			<data destination_type="f32" />
			<rt_info>
				<attribute name="decompression" version="0" />
			</rt_info>
			<input>
				<port id="0" precision="FP16">
					<dim>1</dim>
					<dim>128</dim>
					<dim>1</dim>
					<dim>1</dim>
				</port>
			</input>
			<output>
				<port id="1" precision="FP32">
					<dim>1</dim>
					<dim>128</dim>
					<dim>1</dim>
					<dim>1</dim>
				</port>
			</output>
		</layer>
		<layer id="101" name="__module._model.model.backbone.model.encoder.stages.1.layers.0.layer.0.normalization/aten::add/Add_1" type="Add" version="opset1">
			<data auto_broadcast="numpy" />
			<input>
				<port id="0" precision="FP32">
					<dim>-1</dim>
					<dim>128</dim>
					<dim>-1</dim>
					<dim>-1</dim>
				</port>
				<port id="1" precision="FP32">
					<dim>1</dim>
					<dim>128</dim>
					<dim>1</dim>
					<dim>1</dim>
				</port>
			</input>
			<output>
				<port id="2" precision="FP32" names="540,input.51">
					<dim>-1</dim>
					<dim>128</dim>
					<dim>-1</dim>
					<dim>-1</dim>
				</port>
			</output>
		</layer>
		<layer id="102" name="__module._model.model.backbone.model.encoder.stages.1.layers.0.layer.0.activation/aten::relu/Relu" type="ReLU" version="opset1">
			<input>
				<port id="0" precision="FP32">
					<dim>-1</dim>
					<dim>128</dim>
					<dim>-1</dim>
					<dim>-1</dim>
				</port>
			</input>
			<output>
				<port id="1" precision="FP32" names="541,input.53">
					<dim>-1</dim>
					<dim>128</dim>
					<dim>-1</dim>
					<dim>-1</dim>
				</port>
			</output>
		</layer>
		<layer id="103" name="Multiply_79340_compressed" type="Const" version="opset1">
			<data element_type="f16" shape="128, 128, 3, 3" offset="551876" size="294912" />
			<output>
				<port id="0" precision="FP16">
					<dim>128</dim>
					<dim>128</dim>
					<dim>3</dim>
					<dim>3</dim>
				</port>
			</output>
		</layer>
		<layer id="104" name="Multiply_79340" type="Convert" version="opset1">
			<data destination_type="f32" />
			<rt_info>
				<attribute name="decompression" version="0" />
			</rt_info>
			<input>
				<port id="0" precision="FP16">
					<dim>128</dim>
					<dim>128</dim>
					<dim>3</dim>
					<dim>3</dim>
				</port>
			</input>
			<output>
				<port id="1" precision="FP32">
					<dim>128</dim>
					<dim>128</dim>
					<dim>3</dim>
					<dim>3</dim>
				</port>
			</output>
		</layer>
		<layer id="105" name="__module._model.model.backbone.model.encoder.stages.1.layers.0.layer.1.normalization/aten::mul/Multiply_1" type="Convolution" version="opset1">
			<data strides="2, 2" dilations="1, 1" pads_begin="1, 1" pads_end="1, 1" auto_pad="explicit" />
			<input>
				<port id="0" precision="FP32">
					<dim>-1</dim>
					<dim>128</dim>
					<dim>-1</dim>
					<dim>-1</dim>
				</port>
				<port id="1" precision="FP32">
					<dim>128</dim>
					<dim>128</dim>
					<dim>3</dim>
					<dim>3</dim>
				</port>
			</input>
			<output>
				<port id="2" precision="FP32" names="567">
					<dim>-1</dim>
					<dim>128</dim>
					<dim>-1</dim>
					<dim>-1</dim>
				</port>
			</output>
		</layer>
		<layer id="106" name="__module._model.model.backbone.model.encoder.stages.1.layers.0.layer.1.normalization/aten::add/Multiply_1_compressed" type="Const" version="opset1">
			<data element_type="f16" shape="1, 128, 1, 1" offset="846788" size="256" />
			<output>
				<port id="0" precision="FP16">
					<dim>1</dim>
					<dim>128</dim>
					<dim>1</dim>
					<dim>1</dim>
				</port>
			</output>
		</layer>
		<layer id="107" name="__module._model.model.backbone.model.encoder.stages.1.layers.0.layer.1.normalization/aten::add/Multiply_1" type="Convert" version="opset1">
			<data destination_type="f32" />
			<rt_info>
				<attribute name="decompression" version="0" />
			</rt_info>
			<input>
				<port id="0" precision="FP16">
					<dim>1</dim>
					<dim>128</dim>
					<dim>1</dim>
					<dim>1</dim>
				</port>
			</input>
			<output>
				<port id="1" precision="FP32">
					<dim>1</dim>
					<dim>128</dim>
					<dim>1</dim>
					<dim>1</dim>
				</port>
			</output>
		</layer>
		<layer id="108" name="__module._model.model.backbone.model.encoder.stages.1.layers.0.layer.1.normalization/aten::add/Add_1" type="Add" version="opset1">
			<data auto_broadcast="numpy" />
			<input>
				<port id="0" precision="FP32">
					<dim>-1</dim>
					<dim>128</dim>
					<dim>-1</dim>
					<dim>-1</dim>
				</port>
				<port id="1" precision="FP32">
					<dim>1</dim>
					<dim>128</dim>
					<dim>1</dim>
					<dim>1</dim>
				</port>
			</input>
			<output>
				<port id="2" precision="FP32" names="568,input.55">
					<dim>-1</dim>
					<dim>128</dim>
					<dim>-1</dim>
					<dim>-1</dim>
				</port>
			</output>
		</layer>
		<layer id="109" name="__module._model.model.backbone.model.encoder.stages.1.layers.0.layer.1.activation/aten::relu/Relu" type="ReLU" version="opset1">
			<input>
				<port id="0" precision="FP32">
					<dim>-1</dim>
					<dim>128</dim>
					<dim>-1</dim>
					<dim>-1</dim>
				</port>
			</input>
			<output>
				<port id="1" precision="FP32" names="569,input.57">
					<dim>-1</dim>
					<dim>128</dim>
					<dim>-1</dim>
					<dim>-1</dim>
				</port>
			</output>
		</layer>
		<layer id="110" name="Multiply_79344_compressed" type="Const" version="opset1">
			<data element_type="f16" shape="512, 128, 1, 1" offset="847044" size="131072" />
			<output>
				<port id="0" precision="FP16">
					<dim>512</dim>
					<dim>128</dim>
					<dim>1</dim>
					<dim>1</dim>
				</port>
			</output>
		</layer>
		<layer id="111" name="Multiply_79344" type="Convert" version="opset1">
			<data destination_type="f32" />
			<rt_info>
				<attribute name="decompression" version="0" />
			</rt_info>
			<input>
				<port id="0" precision="FP16">
					<dim>512</dim>
					<dim>128</dim>
					<dim>1</dim>
					<dim>1</dim>
				</port>
			</input>
			<output>
				<port id="1" precision="FP32">
					<dim>512</dim>
					<dim>128</dim>
					<dim>1</dim>
					<dim>1</dim>
				</port>
			</output>
		</layer>
		<layer id="112" name="__module._model.model.backbone.model.encoder.stages.1.layers.0.layer.2.normalization/aten::mul/Multiply_1" type="Convolution" version="opset1">
			<data strides="1, 1" dilations="1, 1" pads_begin="0, 0" pads_end="0, 0" auto_pad="explicit" />
			<input>
				<port id="0" precision="FP32">
					<dim>-1</dim>
					<dim>128</dim>
					<dim>-1</dim>
					<dim>-1</dim>
				</port>
				<port id="1" precision="FP32">
					<dim>512</dim>
					<dim>128</dim>
					<dim>1</dim>
					<dim>1</dim>
				</port>
			</input>
			<output>
				<port id="2" precision="FP32" names="595">
					<dim>-1</dim>
					<dim>512</dim>
					<dim>-1</dim>
					<dim>-1</dim>
				</port>
			</output>
		</layer>
		<layer id="113" name="__module._model.model.backbone.model.encoder.stages.1.layers.0.layer.2.normalization/aten::add/Multiply_1_compressed" type="Const" version="opset1">
			<data element_type="f16" shape="1, 512, 1, 1" offset="978116" size="1024" />
			<output>
				<port id="0" precision="FP16">
					<dim>1</dim>
					<dim>512</dim>
					<dim>1</dim>
					<dim>1</dim>
				</port>
			</output>
		</layer>
		<layer id="114" name="__module._model.model.backbone.model.encoder.stages.1.layers.0.layer.2.normalization/aten::add/Multiply_1" type="Convert" version="opset1">
			<data destination_type="f32" />
			<rt_info>
				<attribute name="decompression" version="0" />
			</rt_info>
			<input>
				<port id="0" precision="FP16">
					<dim>1</dim>
					<dim>512</dim>
					<dim>1</dim>
					<dim>1</dim>
				</port>
			</input>
			<output>
				<port id="1" precision="FP32">
					<dim>1</dim>
					<dim>512</dim>
					<dim>1</dim>
					<dim>1</dim>
				</port>
			</output>
		</layer>
		<layer id="115" name="__module._model.model.backbone.model.encoder.stages.1.layers.0.layer.2.normalization/aten::add/Add_1" type="Add" version="opset1">
			<data auto_broadcast="numpy" />
			<input>
				<port id="0" precision="FP32">
					<dim>-1</dim>
					<dim>512</dim>
					<dim>-1</dim>
					<dim>-1</dim>
				</port>
				<port id="1" precision="FP32">
					<dim>1</dim>
					<dim>512</dim>
					<dim>1</dim>
					<dim>1</dim>
				</port>
			</input>
			<output>
				<port id="2" precision="FP32" names="596_1">
					<dim>-1</dim>
					<dim>512</dim>
					<dim>-1</dim>
					<dim>-1</dim>
				</port>
			</output>
		</layer>
		<layer id="116" name="__module._model.model.backbone.model.encoder.stages.1.layers.0.shortcut.0/aten::avg_pool2d/AvgPool" type="AvgPool" version="opset14">
			<data kernel="2, 2" strides="2, 2" pads_begin="0, 0" pads_end="0, 0" exclude-pad="false" auto_pad="explicit" rounding_type="ceil_torch" />
			<input>
				<port id="0" precision="FP32">
					<dim>-1</dim>
					<dim>256</dim>
					<dim>-1</dim>
					<dim>-1</dim>
				</port>
			</input>
			<output>
				<port id="1" precision="FP32" names="601,input.59">
					<dim>-1</dim>
					<dim>256</dim>
					<dim>-1</dim>
					<dim>-1</dim>
				</port>
			</output>
		</layer>
		<layer id="117" name="Multiply_79348_compressed" type="Const" version="opset1">
			<data element_type="f16" shape="512, 256, 1, 1" offset="979140" size="262144" />
			<output>
				<port id="0" precision="FP16">
					<dim>512</dim>
					<dim>256</dim>
					<dim>1</dim>
					<dim>1</dim>
				</port>
			</output>
		</layer>
		<layer id="118" name="Multiply_79348" type="Convert" version="opset1">
			<data destination_type="f32" />
			<rt_info>
				<attribute name="decompression" version="0" />
			</rt_info>
			<input>
				<port id="0" precision="FP16">
					<dim>512</dim>
					<dim>256</dim>
					<dim>1</dim>
					<dim>1</dim>
				</port>
			</input>
			<output>
				<port id="1" precision="FP32">
					<dim>512</dim>
					<dim>256</dim>
					<dim>1</dim>
					<dim>1</dim>
				</port>
			</output>
		</layer>
		<layer id="119" name="__module._model.model.backbone.model.encoder.stages.1.layers.0.shortcut.1.normalization/aten::mul/Multiply_1" type="Convolution" version="opset1">
			<data strides="1, 1" dilations="1, 1" pads_begin="0, 0" pads_end="0, 0" auto_pad="explicit" />
			<input>
				<port id="0" precision="FP32">
					<dim>-1</dim>
					<dim>256</dim>
					<dim>-1</dim>
					<dim>-1</dim>
				</port>
				<port id="1" precision="FP32">
					<dim>512</dim>
					<dim>256</dim>
					<dim>1</dim>
					<dim>1</dim>
				</port>
			</input>
			<output>
				<port id="2" precision="FP32" names="627">
					<dim>-1</dim>
					<dim>512</dim>
					<dim>-1</dim>
					<dim>-1</dim>
				</port>
			</output>
		</layer>
		<layer id="120" name="__module._model.model.backbone.model.encoder.stages.1.layers.0.shortcut.1.normalization/aten::add/Multiply_1_compressed" type="Const" version="opset1">
			<data element_type="f16" shape="1, 512, 1, 1" offset="1241284" size="1024" />
			<output>
				<port id="0" precision="FP16">
					<dim>1</dim>
					<dim>512</dim>
					<dim>1</dim>
					<dim>1</dim>
				</port>
			</output>
		</layer>
		<layer id="121" name="__module._model.model.backbone.model.encoder.stages.1.layers.0.shortcut.1.normalization/aten::add/Multiply_1" type="Convert" version="opset1">
			<data destination_type="f32" />
			<rt_info>
				<attribute name="decompression" version="0" />
			</rt_info>
			<input>
				<port id="0" precision="FP16">
					<dim>1</dim>
					<dim>512</dim>
					<dim>1</dim>
					<dim>1</dim>
				</port>
			</input>
			<output>
				<port id="1" precision="FP32">
					<dim>1</dim>
					<dim>512</dim>
					<dim>1</dim>
					<dim>1</dim>
				</port>
			</output>
		</layer>
		<layer id="122" name="__module._model.model.backbone.model.encoder.stages.1.layers.0.shortcut.1.normalization/aten::add/Add_1" type="Add" version="opset1">
			<data auto_broadcast="numpy" />
			<input>
				<port id="0" precision="FP32">
					<dim>-1</dim>
					<dim>512</dim>
					<dim>-1</dim>
					<dim>-1</dim>
				</port>
				<port id="1" precision="FP32">
					<dim>1</dim>
					<dim>512</dim>
					<dim>1</dim>
					<dim>1</dim>
				</port>
			</input>
			<output>
				<port id="2" precision="FP32" names="628,residual.3">
					<dim>-1</dim>
					<dim>512</dim>
					<dim>-1</dim>
					<dim>-1</dim>
				</port>
			</output>
		</layer>
		<layer id="123" name="__module._model.model.backbone.model.encoder.stages.1.layers.0/aten::add_/Add" type="Add" version="opset1">
			<data auto_broadcast="numpy" />
			<input>
				<port id="0" precision="FP32">
					<dim>-1</dim>
					<dim>512</dim>
					<dim>-1</dim>
					<dim>-1</dim>
				</port>
				<port id="1" precision="FP32">
					<dim>-1</dim>
					<dim>512</dim>
					<dim>-1</dim>
					<dim>-1</dim>
				</port>
			</input>
			<output>
				<port id="2" precision="FP32" names="596,hidden_state.7">
					<dim>-1</dim>
					<dim>512</dim>
					<dim>-1</dim>
					<dim>-1</dim>
				</port>
			</output>
		</layer>
		<layer id="124" name="__module._model.model.backbone.model.encoder.stages.1.layers.0.activation/aten::relu/Relu" type="ReLU" version="opset1">
			<input>
				<port id="0" precision="FP32">
					<dim>-1</dim>
					<dim>512</dim>
					<dim>-1</dim>
					<dim>-1</dim>
				</port>
			</input>
			<output>
				<port id="1" precision="FP32" names="630,input.63">
					<dim>-1</dim>
					<dim>512</dim>
					<dim>-1</dim>
					<dim>-1</dim>
				</port>
			</output>
		</layer>
		<layer id="125" name="Multiply_79352_compressed" type="Const" version="opset1">
			<data element_type="f16" shape="128, 512, 1, 1" offset="1242308" size="131072" />
			<output>
				<port id="0" precision="FP16">
					<dim>128</dim>
					<dim>512</dim>
					<dim>1</dim>
					<dim>1</dim>
				</port>
			</output>
		</layer>
		<layer id="126" name="Multiply_79352" type="Convert" version="opset1">
			<data destination_type="f32" />
			<rt_info>
				<attribute name="decompression" version="0" />
			</rt_info>
			<input>
				<port id="0" precision="FP16">
					<dim>128</dim>
					<dim>512</dim>
					<dim>1</dim>
					<dim>1</dim>
				</port>
			</input>
			<output>
				<port id="1" precision="FP32">
					<dim>128</dim>
					<dim>512</dim>
					<dim>1</dim>
					<dim>1</dim>
				</port>
			</output>
		</layer>
		<layer id="127" name="__module._model.model.backbone.model.encoder.stages.1.layers.1.layer.0.normalization/aten::mul/Multiply_1" type="Convolution" version="opset1">
			<data strides="1, 1" dilations="1, 1" pads_begin="0, 0" pads_end="0, 0" auto_pad="explicit" />
			<input>
				<port id="0" precision="FP32">
					<dim>-1</dim>
					<dim>512</dim>
					<dim>-1</dim>
					<dim>-1</dim>
				</port>
				<port id="1" precision="FP32">
					<dim>128</dim>
					<dim>512</dim>
					<dim>1</dim>
					<dim>1</dim>
				</port>
			</input>
			<output>
				<port id="2" precision="FP32" names="660">
					<dim>-1</dim>
					<dim>128</dim>
					<dim>-1</dim>
					<dim>-1</dim>
				</port>
			</output>
		</layer>
		<layer id="128" name="__module._model.model.backbone.model.encoder.stages.1.layers.1.layer.0.normalization/aten::add/Multiply_1_compressed" type="Const" version="opset1">
			<data element_type="f16" shape="1, 128, 1, 1" offset="1373380" size="256" />
			<output>
				<port id="0" precision="FP16">
					<dim>1</dim>
					<dim>128</dim>
					<dim>1</dim>
					<dim>1</dim>
				</port>
			</output>
		</layer>
		<layer id="129" name="__module._model.model.backbone.model.encoder.stages.1.layers.1.layer.0.normalization/aten::add/Multiply_1" type="Convert" version="opset1">
			<data destination_type="f32" />
			<rt_info>
				<attribute name="decompression" version="0" />
			</rt_info>
			<input>
				<port id="0" precision="FP16">
					<dim>1</dim>
					<dim>128</dim>
					<dim>1</dim>
					<dim>1</dim>
				</port>
			</input>
			<output>
				<port id="1" precision="FP32">
					<dim>1</dim>
					<dim>128</dim>
					<dim>1</dim>
					<dim>1</dim>
				</port>
			</output>
		</layer>
		<layer id="130" name="__module._model.model.backbone.model.encoder.stages.1.layers.1.layer.0.normalization/aten::add/Add_1" type="Add" version="opset1">
			<data auto_broadcast="numpy" />
			<input>
				<port id="0" precision="FP32">
					<dim>-1</dim>
					<dim>128</dim>
					<dim>-1</dim>
					<dim>-1</dim>
				</port>
				<port id="1" precision="FP32">
					<dim>1</dim>
					<dim>128</dim>
					<dim>1</dim>
					<dim>1</dim>
				</port>
			</input>
			<output>
				<port id="2" precision="FP32" names="661,input.65">
					<dim>-1</dim>
					<dim>128</dim>
					<dim>-1</dim>
					<dim>-1</dim>
				</port>
			</output>
		</layer>
		<layer id="131" name="__module._model.model.backbone.model.encoder.stages.1.layers.1.layer.0.activation/aten::relu/Relu" type="ReLU" version="opset1">
			<input>
				<port id="0" precision="FP32">
					<dim>-1</dim>
					<dim>128</dim>
					<dim>-1</dim>
					<dim>-1</dim>
				</port>
			</input>
			<output>
				<port id="1" precision="FP32" names="662,input.67">
					<dim>-1</dim>
					<dim>128</dim>
					<dim>-1</dim>
					<dim>-1</dim>
				</port>
			</output>
		</layer>
		<layer id="132" name="Multiply_79356_compressed" type="Const" version="opset1">
			<data element_type="f16" shape="128, 128, 3, 3" offset="1373636" size="294912" />
			<output>
				<port id="0" precision="FP16">
					<dim>128</dim>
					<dim>128</dim>
					<dim>3</dim>
					<dim>3</dim>
				</port>
			</output>
		</layer>
		<layer id="133" name="Multiply_79356" type="Convert" version="opset1">
			<data destination_type="f32" />
			<rt_info>
				<attribute name="decompression" version="0" />
			</rt_info>
			<input>
				<port id="0" precision="FP16">
					<dim>128</dim>
					<dim>128</dim>
					<dim>3</dim>
					<dim>3</dim>
				</port>
			</input>
			<output>
				<port id="1" precision="FP32">
					<dim>128</dim>
					<dim>128</dim>
					<dim>3</dim>
					<dim>3</dim>
				</port>
			</output>
		</layer>
		<layer id="134" name="__module._model.model.backbone.model.encoder.stages.1.layers.1.layer.1.normalization/aten::mul/Multiply_1" type="Convolution" version="opset1">
			<data strides="1, 1" dilations="1, 1" pads_begin="1, 1" pads_end="1, 1" auto_pad="explicit" />
			<input>
				<port id="0" precision="FP32">
					<dim>-1</dim>
					<dim>128</dim>
					<dim>-1</dim>
					<dim>-1</dim>
				</port>
				<port id="1" precision="FP32">
					<dim>128</dim>
					<dim>128</dim>
					<dim>3</dim>
					<dim>3</dim>
				</port>
			</input>
			<output>
				<port id="2" precision="FP32" names="688">
					<dim>-1</dim>
					<dim>128</dim>
					<dim>-1</dim>
					<dim>-1</dim>
				</port>
			</output>
		</layer>
		<layer id="135" name="__module._model.model.backbone.model.encoder.stages.1.layers.1.layer.1.normalization/aten::add/Multiply_1_compressed" type="Const" version="opset1">
			<data element_type="f16" shape="1, 128, 1, 1" offset="1668548" size="256" />
			<output>
				<port id="0" precision="FP16">
					<dim>1</dim>
					<dim>128</dim>
					<dim>1</dim>
					<dim>1</dim>
				</port>
			</output>
		</layer>
		<layer id="136" name="__module._model.model.backbone.model.encoder.stages.1.layers.1.layer.1.normalization/aten::add/Multiply_1" type="Convert" version="opset1">
			<data destination_type="f32" />
			<rt_info>
				<attribute name="decompression" version="0" />
			</rt_info>
			<input>
				<port id="0" precision="FP16">
					<dim>1</dim>
					<dim>128</dim>
					<dim>1</dim>
					<dim>1</dim>
				</port>
			</input>
			<output>
				<port id="1" precision="FP32">
					<dim>1</dim>
					<dim>128</dim>
					<dim>1</dim>
					<dim>1</dim>
				</port>
			</output>
		</layer>
		<layer id="137" name="__module._model.model.backbone.model.encoder.stages.1.layers.1.layer.1.normalization/aten::add/Add_1" type="Add" version="opset1">
			<data auto_broadcast="numpy" />
			<input>
				<port id="0" precision="FP32">
					<dim>-1</dim>
					<dim>128</dim>
					<dim>-1</dim>
					<dim>-1</dim>
				</port>
				<port id="1" precision="FP32">
					<dim>1</dim>
					<dim>128</dim>
					<dim>1</dim>
					<dim>1</dim>
				</port>
			</input>
			<output>
				<port id="2" precision="FP32" names="689,input.69">
					<dim>-1</dim>
					<dim>128</dim>
					<dim>-1</dim>
					<dim>-1</dim>
				</port>
			</output>
		</layer>
		<layer id="138" name="__module._model.model.backbone.model.encoder.stages.1.layers.1.layer.1.activation/aten::relu/Relu" type="ReLU" version="opset1">
			<input>
				<port id="0" precision="FP32">
					<dim>-1</dim>
					<dim>128</dim>
					<dim>-1</dim>
					<dim>-1</dim>
				</port>
			</input>
			<output>
				<port id="1" precision="FP32" names="690,input.71">
					<dim>-1</dim>
					<dim>128</dim>
					<dim>-1</dim>
					<dim>-1</dim>
				</port>
			</output>
		</layer>
		<layer id="139" name="Multiply_79360_compressed" type="Const" version="opset1">
			<data element_type="f16" shape="512, 128, 1, 1" offset="1668804" size="131072" />
			<output>
				<port id="0" precision="FP16">
					<dim>512</dim>
					<dim>128</dim>
					<dim>1</dim>
					<dim>1</dim>
				</port>
			</output>
		</layer>
		<layer id="140" name="Multiply_79360" type="Convert" version="opset1">
			<data destination_type="f32" />
			<rt_info>
				<attribute name="decompression" version="0" />
			</rt_info>
			<input>
				<port id="0" precision="FP16">
					<dim>512</dim>
					<dim>128</dim>
					<dim>1</dim>
					<dim>1</dim>
				</port>
			</input>
			<output>
				<port id="1" precision="FP32">
					<dim>512</dim>
					<dim>128</dim>
					<dim>1</dim>
					<dim>1</dim>
				</port>
			</output>
		</layer>
		<layer id="141" name="__module._model.model.backbone.model.encoder.stages.1.layers.1.layer.2.normalization/aten::mul/Multiply_1" type="Convolution" version="opset1">
			<data strides="1, 1" dilations="1, 1" pads_begin="0, 0" pads_end="0, 0" auto_pad="explicit" />
			<input>
				<port id="0" precision="FP32">
					<dim>-1</dim>
					<dim>128</dim>
					<dim>-1</dim>
					<dim>-1</dim>
				</port>
				<port id="1" precision="FP32">
					<dim>512</dim>
					<dim>128</dim>
					<dim>1</dim>
					<dim>1</dim>
				</port>
			</input>
			<output>
				<port id="2" precision="FP32" names="716">
					<dim>-1</dim>
					<dim>512</dim>
					<dim>-1</dim>
					<dim>-1</dim>
				</port>
			</output>
		</layer>
		<layer id="142" name="__module._model.model.backbone.model.encoder.stages.1.layers.1.layer.2.normalization/aten::add/Multiply_1_compressed" type="Const" version="opset1">
			<data element_type="f16" shape="1, 512, 1, 1" offset="1799876" size="1024" />
			<output>
				<port id="0" precision="FP16">
					<dim>1</dim>
					<dim>512</dim>
					<dim>1</dim>
					<dim>1</dim>
				</port>
			</output>
		</layer>
		<layer id="143" name="__module._model.model.backbone.model.encoder.stages.1.layers.1.layer.2.normalization/aten::add/Multiply_1" type="Convert" version="opset1">
			<data destination_type="f32" />
			<rt_info>
				<attribute name="decompression" version="0" />
			</rt_info>
			<input>
				<port id="0" precision="FP16">
					<dim>1</dim>
					<dim>512</dim>
					<dim>1</dim>
					<dim>1</dim>
				</port>
			</input>
			<output>
				<port id="1" precision="FP32">
					<dim>1</dim>
					<dim>512</dim>
					<dim>1</dim>
					<dim>1</dim>
				</port>
			</output>
		</layer>
		<layer id="144" name="__module._model.model.backbone.model.encoder.stages.1.layers.1.layer.2.normalization/aten::add/Add_1" type="Add" version="opset1">
			<data auto_broadcast="numpy" />
			<input>
				<port id="0" precision="FP32">
					<dim>-1</dim>
					<dim>512</dim>
					<dim>-1</dim>
					<dim>-1</dim>
				</port>
				<port id="1" precision="FP32">
					<dim>1</dim>
					<dim>512</dim>
					<dim>1</dim>
					<dim>1</dim>
				</port>
			</input>
			<output>
				<port id="2" precision="FP32" names="717_1">
					<dim>-1</dim>
					<dim>512</dim>
					<dim>-1</dim>
					<dim>-1</dim>
				</port>
			</output>
		</layer>
		<layer id="145" name="__module._model.model.backbone.model.encoder.stages.1.layers.1/aten::add_/Add" type="Add" version="opset1">
			<data auto_broadcast="numpy" />
			<input>
				<port id="0" precision="FP32">
					<dim>-1</dim>
					<dim>512</dim>
					<dim>-1</dim>
					<dim>-1</dim>
				</port>
				<port id="1" precision="FP32">
					<dim>-1</dim>
					<dim>512</dim>
					<dim>-1</dim>
					<dim>-1</dim>
				</port>
			</input>
			<output>
				<port id="2" precision="FP32" names="717,hidden_state.9">
					<dim>-1</dim>
					<dim>512</dim>
					<dim>-1</dim>
					<dim>-1</dim>
				</port>
			</output>
		</layer>
		<layer id="146" name="__module._model.model.backbone.model.encoder.stages.1.layers.1.activation/aten::relu/Relu" type="ReLU" version="opset1">
			<input>
				<port id="0" precision="FP32">
					<dim>-1</dim>
					<dim>512</dim>
					<dim>-1</dim>
					<dim>-1</dim>
				</port>
			</input>
			<output>
				<port id="1" precision="FP32" names="719,input.75">
					<dim>-1</dim>
					<dim>512</dim>
					<dim>-1</dim>
					<dim>-1</dim>
				</port>
			</output>
		</layer>
		<layer id="147" name="Multiply_79364_compressed" type="Const" version="opset1">
			<data element_type="f16" shape="128, 512, 1, 1" offset="1800900" size="131072" />
			<output>
				<port id="0" precision="FP16">
					<dim>128</dim>
					<dim>512</dim>
					<dim>1</dim>
					<dim>1</dim>
				</port>
			</output>
		</layer>
		<layer id="148" name="Multiply_79364" type="Convert" version="opset1">
			<data destination_type="f32" />
			<rt_info>
				<attribute name="decompression" version="0" />
			</rt_info>
			<input>
				<port id="0" precision="FP16">
					<dim>128</dim>
					<dim>512</dim>
					<dim>1</dim>
					<dim>1</dim>
				</port>
			</input>
			<output>
				<port id="1" precision="FP32">
					<dim>128</dim>
					<dim>512</dim>
					<dim>1</dim>
					<dim>1</dim>
				</port>
			</output>
		</layer>
		<layer id="149" name="__module._model.model.backbone.model.encoder.stages.1.layers.2.layer.0.normalization/aten::mul/Multiply_1" type="Convolution" version="opset1">
			<data strides="1, 1" dilations="1, 1" pads_begin="0, 0" pads_end="0, 0" auto_pad="explicit" />
			<input>
				<port id="0" precision="FP32">
					<dim>-1</dim>
					<dim>512</dim>
					<dim>-1</dim>
					<dim>-1</dim>
				</port>
				<port id="1" precision="FP32">
					<dim>128</dim>
					<dim>512</dim>
					<dim>1</dim>
					<dim>1</dim>
				</port>
			</input>
			<output>
				<port id="2" precision="FP32" names="749">
					<dim>-1</dim>
					<dim>128</dim>
					<dim>-1</dim>
					<dim>-1</dim>
				</port>
			</output>
		</layer>
		<layer id="150" name="__module._model.model.backbone.model.encoder.stages.1.layers.2.layer.0.normalization/aten::add/Multiply_1_compressed" type="Const" version="opset1">
			<data element_type="f16" shape="1, 128, 1, 1" offset="1931972" size="256" />
			<output>
				<port id="0" precision="FP16">
					<dim>1</dim>
					<dim>128</dim>
					<dim>1</dim>
					<dim>1</dim>
				</port>
			</output>
		</layer>
		<layer id="151" name="__module._model.model.backbone.model.encoder.stages.1.layers.2.layer.0.normalization/aten::add/Multiply_1" type="Convert" version="opset1">
			<data destination_type="f32" />
			<rt_info>
				<attribute name="decompression" version="0" />
			</rt_info>
			<input>
				<port id="0" precision="FP16">
					<dim>1</dim>
					<dim>128</dim>
					<dim>1</dim>
					<dim>1</dim>
				</port>
			</input>
			<output>
				<port id="1" precision="FP32">
					<dim>1</dim>
					<dim>128</dim>
					<dim>1</dim>
					<dim>1</dim>
				</port>
			</output>
		</layer>
		<layer id="152" name="__module._model.model.backbone.model.encoder.stages.1.layers.2.layer.0.normalization/aten::add/Add_1" type="Add" version="opset1">
			<data auto_broadcast="numpy" />
			<input>
				<port id="0" precision="FP32">
					<dim>-1</dim>
					<dim>128</dim>
					<dim>-1</dim>
					<dim>-1</dim>
				</port>
				<port id="1" precision="FP32">
					<dim>1</dim>
					<dim>128</dim>
					<dim>1</dim>
					<dim>1</dim>
				</port>
			</input>
			<output>
				<port id="2" precision="FP32" names="750,input.77">
					<dim>-1</dim>
					<dim>128</dim>
					<dim>-1</dim>
					<dim>-1</dim>
				</port>
			</output>
		</layer>
		<layer id="153" name="__module._model.model.backbone.model.encoder.stages.1.layers.2.layer.0.activation/aten::relu/Relu" type="ReLU" version="opset1">
			<input>
				<port id="0" precision="FP32">
					<dim>-1</dim>
					<dim>128</dim>
					<dim>-1</dim>
					<dim>-1</dim>
				</port>
			</input>
			<output>
				<port id="1" precision="FP32" names="751,input.79">
					<dim>-1</dim>
					<dim>128</dim>
					<dim>-1</dim>
					<dim>-1</dim>
				</port>
			</output>
		</layer>
		<layer id="154" name="Multiply_79368_compressed" type="Const" version="opset1">
			<data element_type="f16" shape="128, 128, 3, 3" offset="1932228" size="294912" />
			<output>
				<port id="0" precision="FP16">
					<dim>128</dim>
					<dim>128</dim>
					<dim>3</dim>
					<dim>3</dim>
				</port>
			</output>
		</layer>
		<layer id="155" name="Multiply_79368" type="Convert" version="opset1">
			<data destination_type="f32" />
			<rt_info>
				<attribute name="decompression" version="0" />
			</rt_info>
			<input>
				<port id="0" precision="FP16">
					<dim>128</dim>
					<dim>128</dim>
					<dim>3</dim>
					<dim>3</dim>
				</port>
			</input>
			<output>
				<port id="1" precision="FP32">
					<dim>128</dim>
					<dim>128</dim>
					<dim>3</dim>
					<dim>3</dim>
				</port>
			</output>
		</layer>
		<layer id="156" name="__module._model.model.backbone.model.encoder.stages.1.layers.2.layer.1.normalization/aten::mul/Multiply_1" type="Convolution" version="opset1">
			<data strides="1, 1" dilations="1, 1" pads_begin="1, 1" pads_end="1, 1" auto_pad="explicit" />
			<input>
				<port id="0" precision="FP32">
					<dim>-1</dim>
					<dim>128</dim>
					<dim>-1</dim>
					<dim>-1</dim>
				</port>
				<port id="1" precision="FP32">
					<dim>128</dim>
					<dim>128</dim>
					<dim>3</dim>
					<dim>3</dim>
				</port>
			</input>
			<output>
				<port id="2" precision="FP32" names="777">
					<dim>-1</dim>
					<dim>128</dim>
					<dim>-1</dim>
					<dim>-1</dim>
				</port>
			</output>
		</layer>
		<layer id="157" name="__module._model.model.backbone.model.encoder.stages.1.layers.2.layer.1.normalization/aten::add/Multiply_1_compressed" type="Const" version="opset1">
			<data element_type="f16" shape="1, 128, 1, 1" offset="2227140" size="256" />
			<output>
				<port id="0" precision="FP16">
					<dim>1</dim>
					<dim>128</dim>
					<dim>1</dim>
					<dim>1</dim>
				</port>
			</output>
		</layer>
		<layer id="158" name="__module._model.model.backbone.model.encoder.stages.1.layers.2.layer.1.normalization/aten::add/Multiply_1" type="Convert" version="opset1">
			<data destination_type="f32" />
			<rt_info>
				<attribute name="decompression" version="0" />
			</rt_info>
			<input>
				<port id="0" precision="FP16">
					<dim>1</dim>
					<dim>128</dim>
					<dim>1</dim>
					<dim>1</dim>
				</port>
			</input>
			<output>
				<port id="1" precision="FP32">
					<dim>1</dim>
					<dim>128</dim>
					<dim>1</dim>
					<dim>1</dim>
				</port>
			</output>
		</layer>
		<layer id="159" name="__module._model.model.backbone.model.encoder.stages.1.layers.2.layer.1.normalization/aten::add/Add_1" type="Add" version="opset1">
			<data auto_broadcast="numpy" />
			<input>
				<port id="0" precision="FP32">
					<dim>-1</dim>
					<dim>128</dim>
					<dim>-1</dim>
					<dim>-1</dim>
				</port>
				<port id="1" precision="FP32">
					<dim>1</dim>
					<dim>128</dim>
					<dim>1</dim>
					<dim>1</dim>
				</port>
			</input>
			<output>
				<port id="2" precision="FP32" names="778,input.81">
					<dim>-1</dim>
					<dim>128</dim>
					<dim>-1</dim>
					<dim>-1</dim>
				</port>
			</output>
		</layer>
		<layer id="160" name="__module._model.model.backbone.model.encoder.stages.1.layers.2.layer.1.activation/aten::relu/Relu" type="ReLU" version="opset1">
			<input>
				<port id="0" precision="FP32">
					<dim>-1</dim>
					<dim>128</dim>
					<dim>-1</dim>
					<dim>-1</dim>
				</port>
			</input>
			<output>
				<port id="1" precision="FP32" names="779,input.83">
					<dim>-1</dim>
					<dim>128</dim>
					<dim>-1</dim>
					<dim>-1</dim>
				</port>
			</output>
		</layer>
		<layer id="161" name="Multiply_79372_compressed" type="Const" version="opset1">
			<data element_type="f16" shape="512, 128, 1, 1" offset="2227396" size="131072" />
			<output>
				<port id="0" precision="FP16">
					<dim>512</dim>
					<dim>128</dim>
					<dim>1</dim>
					<dim>1</dim>
				</port>
			</output>
		</layer>
		<layer id="162" name="Multiply_79372" type="Convert" version="opset1">
			<data destination_type="f32" />
			<rt_info>
				<attribute name="decompression" version="0" />
			</rt_info>
			<input>
				<port id="0" precision="FP16">
					<dim>512</dim>
					<dim>128</dim>
					<dim>1</dim>
					<dim>1</dim>
				</port>
			</input>
			<output>
				<port id="1" precision="FP32">
					<dim>512</dim>
					<dim>128</dim>
					<dim>1</dim>
					<dim>1</dim>
				</port>
			</output>
		</layer>
		<layer id="163" name="__module._model.model.backbone.model.encoder.stages.1.layers.2.layer.2.normalization/aten::mul/Multiply_1" type="Convolution" version="opset1">
			<data strides="1, 1" dilations="1, 1" pads_begin="0, 0" pads_end="0, 0" auto_pad="explicit" />
			<input>
				<port id="0" precision="FP32">
					<dim>-1</dim>
					<dim>128</dim>
					<dim>-1</dim>
					<dim>-1</dim>
				</port>
				<port id="1" precision="FP32">
					<dim>512</dim>
					<dim>128</dim>
					<dim>1</dim>
					<dim>1</dim>
				</port>
			</input>
			<output>
				<port id="2" precision="FP32" names="805">
					<dim>-1</dim>
					<dim>512</dim>
					<dim>-1</dim>
					<dim>-1</dim>
				</port>
			</output>
		</layer>
		<layer id="164" name="__module._model.model.backbone.model.encoder.stages.1.layers.2.layer.2.normalization/aten::add/Multiply_1_compressed" type="Const" version="opset1">
			<data element_type="f16" shape="1, 512, 1, 1" offset="2358468" size="1024" />
			<output>
				<port id="0" precision="FP16">
					<dim>1</dim>
					<dim>512</dim>
					<dim>1</dim>
					<dim>1</dim>
				</port>
			</output>
		</layer>
		<layer id="165" name="__module._model.model.backbone.model.encoder.stages.1.layers.2.layer.2.normalization/aten::add/Multiply_1" type="Convert" version="opset1">
			<data destination_type="f32" />
			<rt_info>
				<attribute name="decompression" version="0" />
			</rt_info>
			<input>
				<port id="0" precision="FP16">
					<dim>1</dim>
					<dim>512</dim>
					<dim>1</dim>
					<dim>1</dim>
				</port>
			</input>
			<output>
				<port id="1" precision="FP32">
					<dim>1</dim>
					<dim>512</dim>
					<dim>1</dim>
					<dim>1</dim>
				</port>
			</output>
		</layer>
		<layer id="166" name="__module._model.model.backbone.model.encoder.stages.1.layers.2.layer.2.normalization/aten::add/Add_1" type="Add" version="opset1">
			<data auto_broadcast="numpy" />
			<input>
				<port id="0" precision="FP32">
					<dim>-1</dim>
					<dim>512</dim>
					<dim>-1</dim>
					<dim>-1</dim>
				</port>
				<port id="1" precision="FP32">
					<dim>1</dim>
					<dim>512</dim>
					<dim>1</dim>
					<dim>1</dim>
				</port>
			</input>
			<output>
				<port id="2" precision="FP32" names="806_1">
					<dim>-1</dim>
					<dim>512</dim>
					<dim>-1</dim>
					<dim>-1</dim>
				</port>
			</output>
		</layer>
		<layer id="167" name="__module._model.model.backbone.model.encoder.stages.1.layers.2/aten::add_/Add" type="Add" version="opset1">
			<data auto_broadcast="numpy" />
			<input>
				<port id="0" precision="FP32">
					<dim>-1</dim>
					<dim>512</dim>
					<dim>-1</dim>
					<dim>-1</dim>
				</port>
				<port id="1" precision="FP32">
					<dim>-1</dim>
					<dim>512</dim>
					<dim>-1</dim>
					<dim>-1</dim>
				</port>
			</input>
			<output>
				<port id="2" precision="FP32" names="806,hidden_state.11">
					<dim>-1</dim>
					<dim>512</dim>
					<dim>-1</dim>
					<dim>-1</dim>
				</port>
			</output>
		</layer>
		<layer id="168" name="__module._model.model.backbone.model.encoder.stages.1.layers.2.activation/aten::relu/Relu" type="ReLU" version="opset1">
			<input>
				<port id="0" precision="FP32">
					<dim>-1</dim>
					<dim>512</dim>
					<dim>-1</dim>
					<dim>-1</dim>
				</port>
			</input>
			<output>
				<port id="1" precision="FP32" names="808,input.87">
					<dim>-1</dim>
					<dim>512</dim>
					<dim>-1</dim>
					<dim>-1</dim>
				</port>
			</output>
		</layer>
		<layer id="169" name="Multiply_79376_compressed" type="Const" version="opset1">
			<data element_type="f16" shape="128, 512, 1, 1" offset="2359492" size="131072" />
			<output>
				<port id="0" precision="FP16">
					<dim>128</dim>
					<dim>512</dim>
					<dim>1</dim>
					<dim>1</dim>
				</port>
			</output>
		</layer>
		<layer id="170" name="Multiply_79376" type="Convert" version="opset1">
			<data destination_type="f32" />
			<rt_info>
				<attribute name="decompression" version="0" />
			</rt_info>
			<input>
				<port id="0" precision="FP16">
					<dim>128</dim>
					<dim>512</dim>
					<dim>1</dim>
					<dim>1</dim>
				</port>
			</input>
			<output>
				<port id="1" precision="FP32">
					<dim>128</dim>
					<dim>512</dim>
					<dim>1</dim>
					<dim>1</dim>
				</port>
			</output>
		</layer>
		<layer id="171" name="__module._model.model.backbone.model.encoder.stages.1.layers.3.layer.0.normalization/aten::mul/Multiply_1" type="Convolution" version="opset1">
			<data strides="1, 1" dilations="1, 1" pads_begin="0, 0" pads_end="0, 0" auto_pad="explicit" />
			<input>
				<port id="0" precision="FP32">
					<dim>-1</dim>
					<dim>512</dim>
					<dim>-1</dim>
					<dim>-1</dim>
				</port>
				<port id="1" precision="FP32">
					<dim>128</dim>
					<dim>512</dim>
					<dim>1</dim>
					<dim>1</dim>
				</port>
			</input>
			<output>
				<port id="2" precision="FP32" names="838">
					<dim>-1</dim>
					<dim>128</dim>
					<dim>-1</dim>
					<dim>-1</dim>
				</port>
			</output>
		</layer>
		<layer id="172" name="__module._model.model.backbone.model.encoder.stages.1.layers.3.layer.0.normalization/aten::add/Multiply_1_compressed" type="Const" version="opset1">
			<data element_type="f16" shape="1, 128, 1, 1" offset="2490564" size="256" />
			<output>
				<port id="0" precision="FP16">
					<dim>1</dim>
					<dim>128</dim>
					<dim>1</dim>
					<dim>1</dim>
				</port>
			</output>
		</layer>
		<layer id="173" name="__module._model.model.backbone.model.encoder.stages.1.layers.3.layer.0.normalization/aten::add/Multiply_1" type="Convert" version="opset1">
			<data destination_type="f32" />
			<rt_info>
				<attribute name="decompression" version="0" />
			</rt_info>
			<input>
				<port id="0" precision="FP16">
					<dim>1</dim>
					<dim>128</dim>
					<dim>1</dim>
					<dim>1</dim>
				</port>
			</input>
			<output>
				<port id="1" precision="FP32">
					<dim>1</dim>
					<dim>128</dim>
					<dim>1</dim>
					<dim>1</dim>
				</port>
			</output>
		</layer>
		<layer id="174" name="__module._model.model.backbone.model.encoder.stages.1.layers.3.layer.0.normalization/aten::add/Add_1" type="Add" version="opset1">
			<data auto_broadcast="numpy" />
			<input>
				<port id="0" precision="FP32">
					<dim>-1</dim>
					<dim>128</dim>
					<dim>-1</dim>
					<dim>-1</dim>
				</port>
				<port id="1" precision="FP32">
					<dim>1</dim>
					<dim>128</dim>
					<dim>1</dim>
					<dim>1</dim>
				</port>
			</input>
			<output>
				<port id="2" precision="FP32" names="839,input.89">
					<dim>-1</dim>
					<dim>128</dim>
					<dim>-1</dim>
					<dim>-1</dim>
				</port>
			</output>
		</layer>
		<layer id="175" name="__module._model.model.backbone.model.encoder.stages.1.layers.3.layer.0.activation/aten::relu/Relu" type="ReLU" version="opset1">
			<input>
				<port id="0" precision="FP32">
					<dim>-1</dim>
					<dim>128</dim>
					<dim>-1</dim>
					<dim>-1</dim>
				</port>
			</input>
			<output>
				<port id="1" precision="FP32" names="840,input.91">
					<dim>-1</dim>
					<dim>128</dim>
					<dim>-1</dim>
					<dim>-1</dim>
				</port>
			</output>
		</layer>
		<layer id="176" name="Multiply_79380_compressed" type="Const" version="opset1">
			<data element_type="f16" shape="128, 128, 3, 3" offset="2490820" size="294912" />
			<output>
				<port id="0" precision="FP16">
					<dim>128</dim>
					<dim>128</dim>
					<dim>3</dim>
					<dim>3</dim>
				</port>
			</output>
		</layer>
		<layer id="177" name="Multiply_79380" type="Convert" version="opset1">
			<data destination_type="f32" />
			<rt_info>
				<attribute name="decompression" version="0" />
			</rt_info>
			<input>
				<port id="0" precision="FP16">
					<dim>128</dim>
					<dim>128</dim>
					<dim>3</dim>
					<dim>3</dim>
				</port>
			</input>
			<output>
				<port id="1" precision="FP32">
					<dim>128</dim>
					<dim>128</dim>
					<dim>3</dim>
					<dim>3</dim>
				</port>
			</output>
		</layer>
		<layer id="178" name="__module._model.model.backbone.model.encoder.stages.1.layers.3.layer.1.normalization/aten::mul/Multiply_1" type="Convolution" version="opset1">
			<data strides="1, 1" dilations="1, 1" pads_begin="1, 1" pads_end="1, 1" auto_pad="explicit" />
			<input>
				<port id="0" precision="FP32">
					<dim>-1</dim>
					<dim>128</dim>
					<dim>-1</dim>
					<dim>-1</dim>
				</port>
				<port id="1" precision="FP32">
					<dim>128</dim>
					<dim>128</dim>
					<dim>3</dim>
					<dim>3</dim>
				</port>
			</input>
			<output>
				<port id="2" precision="FP32" names="866">
					<dim>-1</dim>
					<dim>128</dim>
					<dim>-1</dim>
					<dim>-1</dim>
				</port>
			</output>
		</layer>
		<layer id="179" name="__module._model.model.backbone.model.encoder.stages.1.layers.3.layer.1.normalization/aten::add/Multiply_1_compressed" type="Const" version="opset1">
			<data element_type="f16" shape="1, 128, 1, 1" offset="2785732" size="256" />
			<output>
				<port id="0" precision="FP16">
					<dim>1</dim>
					<dim>128</dim>
					<dim>1</dim>
					<dim>1</dim>
				</port>
			</output>
		</layer>
		<layer id="180" name="__module._model.model.backbone.model.encoder.stages.1.layers.3.layer.1.normalization/aten::add/Multiply_1" type="Convert" version="opset1">
			<data destination_type="f32" />
			<rt_info>
				<attribute name="decompression" version="0" />
			</rt_info>
			<input>
				<port id="0" precision="FP16">
					<dim>1</dim>
					<dim>128</dim>
					<dim>1</dim>
					<dim>1</dim>
				</port>
			</input>
			<output>
				<port id="1" precision="FP32">
					<dim>1</dim>
					<dim>128</dim>
					<dim>1</dim>
					<dim>1</dim>
				</port>
			</output>
		</layer>
		<layer id="181" name="__module._model.model.backbone.model.encoder.stages.1.layers.3.layer.1.normalization/aten::add/Add_1" type="Add" version="opset1">
			<data auto_broadcast="numpy" />
			<input>
				<port id="0" precision="FP32">
					<dim>-1</dim>
					<dim>128</dim>
					<dim>-1</dim>
					<dim>-1</dim>
				</port>
				<port id="1" precision="FP32">
					<dim>1</dim>
					<dim>128</dim>
					<dim>1</dim>
					<dim>1</dim>
				</port>
			</input>
			<output>
				<port id="2" precision="FP32" names="867,input.93">
					<dim>-1</dim>
					<dim>128</dim>
					<dim>-1</dim>
					<dim>-1</dim>
				</port>
			</output>
		</layer>
		<layer id="182" name="__module._model.model.backbone.model.encoder.stages.1.layers.3.layer.1.activation/aten::relu/Relu" type="ReLU" version="opset1">
			<input>
				<port id="0" precision="FP32">
					<dim>-1</dim>
					<dim>128</dim>
					<dim>-1</dim>
					<dim>-1</dim>
				</port>
			</input>
			<output>
				<port id="1" precision="FP32" names="868,input.95">
					<dim>-1</dim>
					<dim>128</dim>
					<dim>-1</dim>
					<dim>-1</dim>
				</port>
			</output>
		</layer>
		<layer id="183" name="Multiply_79384_compressed" type="Const" version="opset1">
			<data element_type="f16" shape="512, 128, 1, 1" offset="2785988" size="131072" />
			<output>
				<port id="0" precision="FP16">
					<dim>512</dim>
					<dim>128</dim>
					<dim>1</dim>
					<dim>1</dim>
				</port>
			</output>
		</layer>
		<layer id="184" name="Multiply_79384" type="Convert" version="opset1">
			<data destination_type="f32" />
			<rt_info>
				<attribute name="decompression" version="0" />
			</rt_info>
			<input>
				<port id="0" precision="FP16">
					<dim>512</dim>
					<dim>128</dim>
					<dim>1</dim>
					<dim>1</dim>
				</port>
			</input>
			<output>
				<port id="1" precision="FP32">
					<dim>512</dim>
					<dim>128</dim>
					<dim>1</dim>
					<dim>1</dim>
				</port>
			</output>
		</layer>
		<layer id="185" name="__module._model.model.backbone.model.encoder.stages.1.layers.3.layer.2.normalization/aten::mul/Multiply_1" type="Convolution" version="opset1">
			<data strides="1, 1" dilations="1, 1" pads_begin="0, 0" pads_end="0, 0" auto_pad="explicit" />
			<input>
				<port id="0" precision="FP32">
					<dim>-1</dim>
					<dim>128</dim>
					<dim>-1</dim>
					<dim>-1</dim>
				</port>
				<port id="1" precision="FP32">
					<dim>512</dim>
					<dim>128</dim>
					<dim>1</dim>
					<dim>1</dim>
				</port>
			</input>
			<output>
				<port id="2" precision="FP32" names="894">
					<dim>-1</dim>
					<dim>512</dim>
					<dim>-1</dim>
					<dim>-1</dim>
				</port>
			</output>
		</layer>
		<layer id="186" name="__module._model.model.backbone.model.encoder.stages.1.layers.3.layer.2.normalization/aten::add/Multiply_1_compressed" type="Const" version="opset1">
			<data element_type="f16" shape="1, 512, 1, 1" offset="2917060" size="1024" />
			<output>
				<port id="0" precision="FP16">
					<dim>1</dim>
					<dim>512</dim>
					<dim>1</dim>
					<dim>1</dim>
				</port>
			</output>
		</layer>
		<layer id="187" name="__module._model.model.backbone.model.encoder.stages.1.layers.3.layer.2.normalization/aten::add/Multiply_1" type="Convert" version="opset1">
			<data destination_type="f32" />
			<rt_info>
				<attribute name="decompression" version="0" />
			</rt_info>
			<input>
				<port id="0" precision="FP16">
					<dim>1</dim>
					<dim>512</dim>
					<dim>1</dim>
					<dim>1</dim>
				</port>
			</input>
			<output>
				<port id="1" precision="FP32">
					<dim>1</dim>
					<dim>512</dim>
					<dim>1</dim>
					<dim>1</dim>
				</port>
			</output>
		</layer>
		<layer id="188" name="__module._model.model.backbone.model.encoder.stages.1.layers.3.layer.2.normalization/aten::add/Add_1" type="Add" version="opset1">
			<data auto_broadcast="numpy" />
			<input>
				<port id="0" precision="FP32">
					<dim>-1</dim>
					<dim>512</dim>
					<dim>-1</dim>
					<dim>-1</dim>
				</port>
				<port id="1" precision="FP32">
					<dim>1</dim>
					<dim>512</dim>
					<dim>1</dim>
					<dim>1</dim>
				</port>
			</input>
			<output>
				<port id="2" precision="FP32" names="895_1">
					<dim>-1</dim>
					<dim>512</dim>
					<dim>-1</dim>
					<dim>-1</dim>
				</port>
			</output>
		</layer>
		<layer id="189" name="__module._model.model.backbone.model.encoder.stages.1.layers.3/aten::add_/Add" type="Add" version="opset1">
			<data auto_broadcast="numpy" />
			<input>
				<port id="0" precision="FP32">
					<dim>-1</dim>
					<dim>512</dim>
					<dim>-1</dim>
					<dim>-1</dim>
				</port>
				<port id="1" precision="FP32">
					<dim>-1</dim>
					<dim>512</dim>
					<dim>-1</dim>
					<dim>-1</dim>
				</port>
			</input>
			<output>
				<port id="2" precision="FP32" names="895,hidden_state.13">
					<dim>-1</dim>
					<dim>512</dim>
					<dim>-1</dim>
					<dim>-1</dim>
				</port>
			</output>
		</layer>
		<layer id="190" name="__module._model.model.backbone.model.encoder.stages.1.layers.3.activation/aten::relu/Relu" type="ReLU" version="opset1">
			<input>
				<port id="0" precision="FP32">
					<dim>-1</dim>
					<dim>512</dim>
					<dim>-1</dim>
					<dim>-1</dim>
				</port>
			</input>
			<output>
				<port id="1" precision="FP32" names="1784,1788,1792,897,input.99">
					<dim>-1</dim>
					<dim>512</dim>
					<dim>-1</dim>
					<dim>-1</dim>
				</port>
			</output>
		</layer>
		<layer id="191" name="Multiply_79388_compressed" type="Const" version="opset1">
			<data element_type="f16" shape="256, 512, 1, 1" offset="2918084" size="262144" />
			<output>
				<port id="0" precision="FP16">
					<dim>256</dim>
					<dim>512</dim>
					<dim>1</dim>
					<dim>1</dim>
				</port>
			</output>
		</layer>
		<layer id="192" name="Multiply_79388" type="Convert" version="opset1">
			<data destination_type="f32" />
			<rt_info>
				<attribute name="decompression" version="0" />
			</rt_info>
			<input>
				<port id="0" precision="FP16">
					<dim>256</dim>
					<dim>512</dim>
					<dim>1</dim>
					<dim>1</dim>
				</port>
			</input>
			<output>
				<port id="1" precision="FP32">
					<dim>256</dim>
					<dim>512</dim>
					<dim>1</dim>
					<dim>1</dim>
				</port>
			</output>
		</layer>
		<layer id="193" name="__module._model.model.backbone.model.encoder.stages.2.layers.0.layer.0.normalization/aten::mul/Multiply_1" type="Convolution" version="opset1">
			<data strides="1, 1" dilations="1, 1" pads_begin="0, 0" pads_end="0, 0" auto_pad="explicit" />
			<input>
				<port id="0" precision="FP32">
					<dim>-1</dim>
					<dim>512</dim>
					<dim>-1</dim>
					<dim>-1</dim>
				</port>
				<port id="1" precision="FP32">
					<dim>256</dim>
					<dim>512</dim>
					<dim>1</dim>
					<dim>1</dim>
				</port>
			</input>
			<output>
				<port id="2" precision="FP32" names="940">
					<dim>-1</dim>
					<dim>256</dim>
					<dim>-1</dim>
					<dim>-1</dim>
				</port>
			</output>
		</layer>
		<layer id="194" name="__module._model.model.backbone.model.encoder.stages.2.layers.0.layer.0.normalization/aten::add/Multiply_1_compressed" type="Const" version="opset1">
			<data element_type="f16" shape="1, 256, 1, 1" offset="3180228" size="512" />
			<output>
				<port id="0" precision="FP16">
					<dim>1</dim>
					<dim>256</dim>
					<dim>1</dim>
					<dim>1</dim>
				</port>
			</output>
		</layer>
		<layer id="195" name="__module._model.model.backbone.model.encoder.stages.2.layers.0.layer.0.normalization/aten::add/Multiply_1" type="Convert" version="opset1">
			<data destination_type="f32" />
			<rt_info>
				<attribute name="decompression" version="0" />
			</rt_info>
			<input>
				<port id="0" precision="FP16">
					<dim>1</dim>
					<dim>256</dim>
					<dim>1</dim>
					<dim>1</dim>
				</port>
			</input>
			<output>
				<port id="1" precision="FP32">
					<dim>1</dim>
					<dim>256</dim>
					<dim>1</dim>
					<dim>1</dim>
				</port>
			</output>
		</layer>
		<layer id="196" name="__module._model.model.backbone.model.encoder.stages.2.layers.0.layer.0.normalization/aten::add/Add_1" type="Add" version="opset1">
			<data auto_broadcast="numpy" />
			<input>
				<port id="0" precision="FP32">
					<dim>-1</dim>
					<dim>256</dim>
					<dim>-1</dim>
					<dim>-1</dim>
				</port>
				<port id="1" precision="FP32">
					<dim>1</dim>
					<dim>256</dim>
					<dim>1</dim>
					<dim>1</dim>
				</port>
			</input>
			<output>
				<port id="2" precision="FP32" names="941,input.101">
					<dim>-1</dim>
					<dim>256</dim>
					<dim>-1</dim>
					<dim>-1</dim>
				</port>
			</output>
		</layer>
		<layer id="197" name="__module._model.model.backbone.model.encoder.stages.2.layers.0.layer.0.activation/aten::relu/Relu" type="ReLU" version="opset1">
			<input>
				<port id="0" precision="FP32">
					<dim>-1</dim>
					<dim>256</dim>
					<dim>-1</dim>
					<dim>-1</dim>
				</port>
			</input>
			<output>
				<port id="1" precision="FP32" names="942,input.103">
					<dim>-1</dim>
					<dim>256</dim>
					<dim>-1</dim>
					<dim>-1</dim>
				</port>
			</output>
		</layer>
		<layer id="198" name="Multiply_79392_compressed" type="Const" version="opset1">
			<data element_type="f16" shape="256, 256, 3, 3" offset="3180740" size="1179648" />
			<output>
				<port id="0" precision="FP16">
					<dim>256</dim>
					<dim>256</dim>
					<dim>3</dim>
					<dim>3</dim>
				</port>
			</output>
		</layer>
		<layer id="199" name="Multiply_79392" type="Convert" version="opset1">
			<data destination_type="f32" />
			<rt_info>
				<attribute name="decompression" version="0" />
			</rt_info>
			<input>
				<port id="0" precision="FP16">
					<dim>256</dim>
					<dim>256</dim>
					<dim>3</dim>
					<dim>3</dim>
				</port>
			</input>
			<output>
				<port id="1" precision="FP32">
					<dim>256</dim>
					<dim>256</dim>
					<dim>3</dim>
					<dim>3</dim>
				</port>
			</output>
		</layer>
		<layer id="200" name="__module._model.model.backbone.model.encoder.stages.2.layers.0.layer.1.normalization/aten::mul/Multiply_1" type="Convolution" version="opset1">
			<data strides="2, 2" dilations="1, 1" pads_begin="1, 1" pads_end="1, 1" auto_pad="explicit" />
			<input>
				<port id="0" precision="FP32">
					<dim>-1</dim>
					<dim>256</dim>
					<dim>-1</dim>
					<dim>-1</dim>
				</port>
				<port id="1" precision="FP32">
					<dim>256</dim>
					<dim>256</dim>
					<dim>3</dim>
					<dim>3</dim>
				</port>
			</input>
			<output>
				<port id="2" precision="FP32" names="968">
					<dim>-1</dim>
					<dim>256</dim>
					<dim>-1</dim>
					<dim>-1</dim>
				</port>
			</output>
		</layer>
		<layer id="201" name="__module._model.model.backbone.model.encoder.stages.2.layers.0.layer.1.normalization/aten::add/Multiply_1_compressed" type="Const" version="opset1">
			<data element_type="f16" shape="1, 256, 1, 1" offset="4360388" size="512" />
			<output>
				<port id="0" precision="FP16">
					<dim>1</dim>
					<dim>256</dim>
					<dim>1</dim>
					<dim>1</dim>
				</port>
			</output>
		</layer>
		<layer id="202" name="__module._model.model.backbone.model.encoder.stages.2.layers.0.layer.1.normalization/aten::add/Multiply_1" type="Convert" version="opset1">
			<data destination_type="f32" />
			<rt_info>
				<attribute name="decompression" version="0" />
			</rt_info>
			<input>
				<port id="0" precision="FP16">
					<dim>1</dim>
					<dim>256</dim>
					<dim>1</dim>
					<dim>1</dim>
				</port>
			</input>
			<output>
				<port id="1" precision="FP32">
					<dim>1</dim>
					<dim>256</dim>
					<dim>1</dim>
					<dim>1</dim>
				</port>
			</output>
		</layer>
		<layer id="203" name="__module._model.model.backbone.model.encoder.stages.2.layers.0.layer.1.normalization/aten::add/Add_1" type="Add" version="opset1">
			<data auto_broadcast="numpy" />
			<input>
				<port id="0" precision="FP32">
					<dim>-1</dim>
					<dim>256</dim>
					<dim>-1</dim>
					<dim>-1</dim>
				</port>
				<port id="1" precision="FP32">
					<dim>1</dim>
					<dim>256</dim>
					<dim>1</dim>
					<dim>1</dim>
				</port>
			</input>
			<output>
				<port id="2" precision="FP32" names="969,input.105">
					<dim>-1</dim>
					<dim>256</dim>
					<dim>-1</dim>
					<dim>-1</dim>
				</port>
			</output>
		</layer>
		<layer id="204" name="__module._model.model.backbone.model.encoder.stages.2.layers.0.layer.1.activation/aten::relu/Relu" type="ReLU" version="opset1">
			<input>
				<port id="0" precision="FP32">
					<dim>-1</dim>
					<dim>256</dim>
					<dim>-1</dim>
					<dim>-1</dim>
				</port>
			</input>
			<output>
				<port id="1" precision="FP32" names="970,input.107">
					<dim>-1</dim>
					<dim>256</dim>
					<dim>-1</dim>
					<dim>-1</dim>
				</port>
			</output>
		</layer>
		<layer id="205" name="Multiply_79396_compressed" type="Const" version="opset1">
			<data element_type="f16" shape="1024, 256, 1, 1" offset="4360900" size="524288" />
			<output>
				<port id="0" precision="FP16">
					<dim>1024</dim>
					<dim>256</dim>
					<dim>1</dim>
					<dim>1</dim>
				</port>
			</output>
		</layer>
		<layer id="206" name="Multiply_79396" type="Convert" version="opset1">
			<data destination_type="f32" />
			<rt_info>
				<attribute name="decompression" version="0" />
			</rt_info>
			<input>
				<port id="0" precision="FP16">
					<dim>1024</dim>
					<dim>256</dim>
					<dim>1</dim>
					<dim>1</dim>
				</port>
			</input>
			<output>
				<port id="1" precision="FP32">
					<dim>1024</dim>
					<dim>256</dim>
					<dim>1</dim>
					<dim>1</dim>
				</port>
			</output>
		</layer>
		<layer id="207" name="__module._model.model.backbone.model.encoder.stages.2.layers.0.layer.2.normalization/aten::mul/Multiply_1" type="Convolution" version="opset1">
			<data strides="1, 1" dilations="1, 1" pads_begin="0, 0" pads_end="0, 0" auto_pad="explicit" />
			<input>
				<port id="0" precision="FP32">
					<dim>-1</dim>
					<dim>256</dim>
					<dim>-1</dim>
					<dim>-1</dim>
				</port>
				<port id="1" precision="FP32">
					<dim>1024</dim>
					<dim>256</dim>
					<dim>1</dim>
					<dim>1</dim>
				</port>
			</input>
			<output>
				<port id="2" precision="FP32" names="996">
					<dim>-1</dim>
					<dim>1024</dim>
					<dim>-1</dim>
					<dim>-1</dim>
				</port>
			</output>
		</layer>
		<layer id="208" name="__module._model.model.backbone.model.encoder.stages.2.layers.0.layer.2.normalization/aten::add/Multiply_1_compressed" type="Const" version="opset1">
			<data element_type="f16" shape="1, 1024, 1, 1" offset="4885188" size="2048" />
			<output>
				<port id="0" precision="FP16">
					<dim>1</dim>
					<dim>1024</dim>
					<dim>1</dim>
					<dim>1</dim>
				</port>
			</output>
		</layer>
		<layer id="209" name="__module._model.model.backbone.model.encoder.stages.2.layers.0.layer.2.normalization/aten::add/Multiply_1" type="Convert" version="opset1">
			<data destination_type="f32" />
			<rt_info>
				<attribute name="decompression" version="0" />
			</rt_info>
			<input>
				<port id="0" precision="FP16">
					<dim>1</dim>
					<dim>1024</dim>
					<dim>1</dim>
					<dim>1</dim>
				</port>
			</input>
			<output>
				<port id="1" precision="FP32">
					<dim>1</dim>
					<dim>1024</dim>
					<dim>1</dim>
					<dim>1</dim>
				</port>
			</output>
		</layer>
		<layer id="210" name="__module._model.model.backbone.model.encoder.stages.2.layers.0.layer.2.normalization/aten::add/Add_1" type="Add" version="opset1">
			<data auto_broadcast="numpy" />
			<input>
				<port id="0" precision="FP32">
					<dim>-1</dim>
					<dim>1024</dim>
					<dim>-1</dim>
					<dim>-1</dim>
				</port>
				<port id="1" precision="FP32">
					<dim>1</dim>
					<dim>1024</dim>
					<dim>1</dim>
					<dim>1</dim>
				</port>
			</input>
			<output>
				<port id="2" precision="FP32" names="997_1">
					<dim>-1</dim>
					<dim>1024</dim>
					<dim>-1</dim>
					<dim>-1</dim>
				</port>
			</output>
		</layer>
		<layer id="211" name="__module._model.model.backbone.model.encoder.stages.2.layers.0.shortcut.0/aten::avg_pool2d/AvgPool" type="AvgPool" version="opset14">
			<data kernel="2, 2" strides="2, 2" pads_begin="0, 0" pads_end="0, 0" exclude-pad="false" auto_pad="explicit" rounding_type="ceil_torch" />
			<input>
				<port id="0" precision="FP32">
					<dim>-1</dim>
					<dim>512</dim>
					<dim>-1</dim>
					<dim>-1</dim>
				</port>
			</input>
			<output>
				<port id="1" precision="FP32" names="1002,input.109">
					<dim>-1</dim>
					<dim>512</dim>
					<dim>-1</dim>
					<dim>-1</dim>
				</port>
			</output>
		</layer>
		<layer id="212" name="Multiply_79400_compressed" type="Const" version="opset1">
			<data element_type="f16" shape="1024, 512, 1, 1" offset="4887236" size="1048576" />
			<output>
				<port id="0" precision="FP16">
					<dim>1024</dim>
					<dim>512</dim>
					<dim>1</dim>
					<dim>1</dim>
				</port>
			</output>
		</layer>
		<layer id="213" name="Multiply_79400" type="Convert" version="opset1">
			<data destination_type="f32" />
			<rt_info>
				<attribute name="decompression" version="0" />
			</rt_info>
			<input>
				<port id="0" precision="FP16">
					<dim>1024</dim>
					<dim>512</dim>
					<dim>1</dim>
					<dim>1</dim>
				</port>
			</input>
			<output>
				<port id="1" precision="FP32">
					<dim>1024</dim>
					<dim>512</dim>
					<dim>1</dim>
					<dim>1</dim>
				</port>
			</output>
		</layer>
		<layer id="214" name="__module._model.model.backbone.model.encoder.stages.2.layers.0.shortcut.1.normalization/aten::mul/Multiply_1" type="Convolution" version="opset1">
			<data strides="1, 1" dilations="1, 1" pads_begin="0, 0" pads_end="0, 0" auto_pad="explicit" />
			<input>
				<port id="0" precision="FP32">
					<dim>-1</dim>
					<dim>512</dim>
					<dim>-1</dim>
					<dim>-1</dim>
				</port>
				<port id="1" precision="FP32">
					<dim>1024</dim>
					<dim>512</dim>
					<dim>1</dim>
					<dim>1</dim>
				</port>
			</input>
			<output>
				<port id="2" precision="FP32" names="1028">
					<dim>-1</dim>
					<dim>1024</dim>
					<dim>-1</dim>
					<dim>-1</dim>
				</port>
			</output>
		</layer>
		<layer id="215" name="__module._model.model.backbone.model.encoder.stages.2.layers.0.shortcut.1.normalization/aten::add/Multiply_1_compressed" type="Const" version="opset1">
			<data element_type="f16" shape="1, 1024, 1, 1" offset="5935812" size="2048" />
			<output>
				<port id="0" precision="FP16">
					<dim>1</dim>
					<dim>1024</dim>
					<dim>1</dim>
					<dim>1</dim>
				</port>
			</output>
		</layer>
		<layer id="216" name="__module._model.model.backbone.model.encoder.stages.2.layers.0.shortcut.1.normalization/aten::add/Multiply_1" type="Convert" version="opset1">
			<data destination_type="f32" />
			<rt_info>
				<attribute name="decompression" version="0" />
			</rt_info>
			<input>
				<port id="0" precision="FP16">
					<dim>1</dim>
					<dim>1024</dim>
					<dim>1</dim>
					<dim>1</dim>
				</port>
			</input>
			<output>
				<port id="1" precision="FP32">
					<dim>1</dim>
					<dim>1024</dim>
					<dim>1</dim>
					<dim>1</dim>
				</port>
			</output>
		</layer>
		<layer id="217" name="__module._model.model.backbone.model.encoder.stages.2.layers.0.shortcut.1.normalization/aten::add/Add_1" type="Add" version="opset1">
			<data auto_broadcast="numpy" />
			<input>
				<port id="0" precision="FP32">
					<dim>-1</dim>
					<dim>1024</dim>
					<dim>-1</dim>
					<dim>-1</dim>
				</port>
				<port id="1" precision="FP32">
					<dim>1</dim>
					<dim>1024</dim>
					<dim>1</dim>
					<dim>1</dim>
				</port>
			</input>
			<output>
				<port id="2" precision="FP32" names="1029,residual.5">
					<dim>-1</dim>
					<dim>1024</dim>
					<dim>-1</dim>
					<dim>-1</dim>
				</port>
			</output>
		</layer>
		<layer id="218" name="__module._model.model.backbone.model.encoder.stages.2.layers.0/aten::add_/Add" type="Add" version="opset1">
			<data auto_broadcast="numpy" />
			<input>
				<port id="0" precision="FP32">
					<dim>-1</dim>
					<dim>1024</dim>
					<dim>-1</dim>
					<dim>-1</dim>
				</port>
				<port id="1" precision="FP32">
					<dim>-1</dim>
					<dim>1024</dim>
					<dim>-1</dim>
					<dim>-1</dim>
				</port>
			</input>
			<output>
				<port id="2" precision="FP32" names="997,hidden_state.15">
					<dim>-1</dim>
					<dim>1024</dim>
					<dim>-1</dim>
					<dim>-1</dim>
				</port>
			</output>
		</layer>
		<layer id="219" name="__module._model.model.backbone.model.encoder.stages.2.layers.0.activation/aten::relu/Relu" type="ReLU" version="opset1">
			<input>
				<port id="0" precision="FP32">
					<dim>-1</dim>
					<dim>1024</dim>
					<dim>-1</dim>
					<dim>-1</dim>
				</port>
			</input>
			<output>
				<port id="1" precision="FP32" names="1031,input.113">
					<dim>-1</dim>
					<dim>1024</dim>
					<dim>-1</dim>
					<dim>-1</dim>
				</port>
			</output>
		</layer>
		<layer id="220" name="Multiply_79404_compressed" type="Const" version="opset1">
			<data element_type="f16" shape="256, 1024, 1, 1" offset="5937860" size="524288" />
			<output>
				<port id="0" precision="FP16">
					<dim>256</dim>
					<dim>1024</dim>
					<dim>1</dim>
					<dim>1</dim>
				</port>
			</output>
		</layer>
		<layer id="221" name="Multiply_79404" type="Convert" version="opset1">
			<data destination_type="f32" />
			<rt_info>
				<attribute name="decompression" version="0" />
			</rt_info>
			<input>
				<port id="0" precision="FP16">
					<dim>256</dim>
					<dim>1024</dim>
					<dim>1</dim>
					<dim>1</dim>
				</port>
			</input>
			<output>
				<port id="1" precision="FP32">
					<dim>256</dim>
					<dim>1024</dim>
					<dim>1</dim>
					<dim>1</dim>
				</port>
			</output>
		</layer>
		<layer id="222" name="__module._model.model.backbone.model.encoder.stages.2.layers.1.layer.0.normalization/aten::mul/Multiply_1" type="Convolution" version="opset1">
			<data strides="1, 1" dilations="1, 1" pads_begin="0, 0" pads_end="0, 0" auto_pad="explicit" />
			<input>
				<port id="0" precision="FP32">
					<dim>-1</dim>
					<dim>1024</dim>
					<dim>-1</dim>
					<dim>-1</dim>
				</port>
				<port id="1" precision="FP32">
					<dim>256</dim>
					<dim>1024</dim>
					<dim>1</dim>
					<dim>1</dim>
				</port>
			</input>
			<output>
				<port id="2" precision="FP32" names="1061">
					<dim>-1</dim>
					<dim>256</dim>
					<dim>-1</dim>
					<dim>-1</dim>
				</port>
			</output>
		</layer>
		<layer id="223" name="__module._model.model.backbone.model.encoder.stages.2.layers.1.layer.0.normalization/aten::add/Multiply_1_compressed" type="Const" version="opset1">
			<data element_type="f16" shape="1, 256, 1, 1" offset="6462148" size="512" />
			<output>
				<port id="0" precision="FP16">
					<dim>1</dim>
					<dim>256</dim>
					<dim>1</dim>
					<dim>1</dim>
				</port>
			</output>
		</layer>
		<layer id="224" name="__module._model.model.backbone.model.encoder.stages.2.layers.1.layer.0.normalization/aten::add/Multiply_1" type="Convert" version="opset1">
			<data destination_type="f32" />
			<rt_info>
				<attribute name="decompression" version="0" />
			</rt_info>
			<input>
				<port id="0" precision="FP16">
					<dim>1</dim>
					<dim>256</dim>
					<dim>1</dim>
					<dim>1</dim>
				</port>
			</input>
			<output>
				<port id="1" precision="FP32">
					<dim>1</dim>
					<dim>256</dim>
					<dim>1</dim>
					<dim>1</dim>
				</port>
			</output>
		</layer>
		<layer id="225" name="__module._model.model.backbone.model.encoder.stages.2.layers.1.layer.0.normalization/aten::add/Add_1" type="Add" version="opset1">
			<data auto_broadcast="numpy" />
			<input>
				<port id="0" precision="FP32">
					<dim>-1</dim>
					<dim>256</dim>
					<dim>-1</dim>
					<dim>-1</dim>
				</port>
				<port id="1" precision="FP32">
					<dim>1</dim>
					<dim>256</dim>
					<dim>1</dim>
					<dim>1</dim>
				</port>
			</input>
			<output>
				<port id="2" precision="FP32" names="1062,input.115">
					<dim>-1</dim>
					<dim>256</dim>
					<dim>-1</dim>
					<dim>-1</dim>
				</port>
			</output>
		</layer>
		<layer id="226" name="__module._model.model.backbone.model.encoder.stages.2.layers.1.layer.0.activation/aten::relu/Relu" type="ReLU" version="opset1">
			<input>
				<port id="0" precision="FP32">
					<dim>-1</dim>
					<dim>256</dim>
					<dim>-1</dim>
					<dim>-1</dim>
				</port>
			</input>
			<output>
				<port id="1" precision="FP32" names="1063,input.117">
					<dim>-1</dim>
					<dim>256</dim>
					<dim>-1</dim>
					<dim>-1</dim>
				</port>
			</output>
		</layer>
		<layer id="227" name="Multiply_79408_compressed" type="Const" version="opset1">
			<data element_type="f16" shape="256, 256, 3, 3" offset="6462660" size="1179648" />
			<output>
				<port id="0" precision="FP16">
					<dim>256</dim>
					<dim>256</dim>
					<dim>3</dim>
					<dim>3</dim>
				</port>
			</output>
		</layer>
		<layer id="228" name="Multiply_79408" type="Convert" version="opset1">
			<data destination_type="f32" />
			<rt_info>
				<attribute name="decompression" version="0" />
			</rt_info>
			<input>
				<port id="0" precision="FP16">
					<dim>256</dim>
					<dim>256</dim>
					<dim>3</dim>
					<dim>3</dim>
				</port>
			</input>
			<output>
				<port id="1" precision="FP32">
					<dim>256</dim>
					<dim>256</dim>
					<dim>3</dim>
					<dim>3</dim>
				</port>
			</output>
		</layer>
		<layer id="229" name="__module._model.model.backbone.model.encoder.stages.2.layers.1.layer.1.normalization/aten::mul/Multiply_1" type="Convolution" version="opset1">
			<data strides="1, 1" dilations="1, 1" pads_begin="1, 1" pads_end="1, 1" auto_pad="explicit" />
			<input>
				<port id="0" precision="FP32">
					<dim>-1</dim>
					<dim>256</dim>
					<dim>-1</dim>
					<dim>-1</dim>
				</port>
				<port id="1" precision="FP32">
					<dim>256</dim>
					<dim>256</dim>
					<dim>3</dim>
					<dim>3</dim>
				</port>
			</input>
			<output>
				<port id="2" precision="FP32" names="1089">
					<dim>-1</dim>
					<dim>256</dim>
					<dim>-1</dim>
					<dim>-1</dim>
				</port>
			</output>
		</layer>
		<layer id="230" name="__module._model.model.backbone.model.encoder.stages.2.layers.1.layer.1.normalization/aten::add/Multiply_1_compressed" type="Const" version="opset1">
			<data element_type="f16" shape="1, 256, 1, 1" offset="7642308" size="512" />
			<output>
				<port id="0" precision="FP16">
					<dim>1</dim>
					<dim>256</dim>
					<dim>1</dim>
					<dim>1</dim>
				</port>
			</output>
		</layer>
		<layer id="231" name="__module._model.model.backbone.model.encoder.stages.2.layers.1.layer.1.normalization/aten::add/Multiply_1" type="Convert" version="opset1">
			<data destination_type="f32" />
			<rt_info>
				<attribute name="decompression" version="0" />
			</rt_info>
			<input>
				<port id="0" precision="FP16">
					<dim>1</dim>
					<dim>256</dim>
					<dim>1</dim>
					<dim>1</dim>
				</port>
			</input>
			<output>
				<port id="1" precision="FP32">
					<dim>1</dim>
					<dim>256</dim>
					<dim>1</dim>
					<dim>1</dim>
				</port>
			</output>
		</layer>
		<layer id="232" name="__module._model.model.backbone.model.encoder.stages.2.layers.1.layer.1.normalization/aten::add/Add_1" type="Add" version="opset1">
			<data auto_broadcast="numpy" />
			<input>
				<port id="0" precision="FP32">
					<dim>-1</dim>
					<dim>256</dim>
					<dim>-1</dim>
					<dim>-1</dim>
				</port>
				<port id="1" precision="FP32">
					<dim>1</dim>
					<dim>256</dim>
					<dim>1</dim>
					<dim>1</dim>
				</port>
			</input>
			<output>
				<port id="2" precision="FP32" names="1090,input.119">
					<dim>-1</dim>
					<dim>256</dim>
					<dim>-1</dim>
					<dim>-1</dim>
				</port>
			</output>
		</layer>
		<layer id="233" name="__module._model.model.backbone.model.encoder.stages.2.layers.1.layer.1.activation/aten::relu/Relu" type="ReLU" version="opset1">
			<input>
				<port id="0" precision="FP32">
					<dim>-1</dim>
					<dim>256</dim>
					<dim>-1</dim>
					<dim>-1</dim>
				</port>
			</input>
			<output>
				<port id="1" precision="FP32" names="1091,input.121">
					<dim>-1</dim>
					<dim>256</dim>
					<dim>-1</dim>
					<dim>-1</dim>
				</port>
			</output>
		</layer>
		<layer id="234" name="Multiply_79412_compressed" type="Const" version="opset1">
			<data element_type="f16" shape="1024, 256, 1, 1" offset="7642820" size="524288" />
			<output>
				<port id="0" precision="FP16">
					<dim>1024</dim>
					<dim>256</dim>
					<dim>1</dim>
					<dim>1</dim>
				</port>
			</output>
		</layer>
		<layer id="235" name="Multiply_79412" type="Convert" version="opset1">
			<data destination_type="f32" />
			<rt_info>
				<attribute name="decompression" version="0" />
			</rt_info>
			<input>
				<port id="0" precision="FP16">
					<dim>1024</dim>
					<dim>256</dim>
					<dim>1</dim>
					<dim>1</dim>
				</port>
			</input>
			<output>
				<port id="1" precision="FP32">
					<dim>1024</dim>
					<dim>256</dim>
					<dim>1</dim>
					<dim>1</dim>
				</port>
			</output>
		</layer>
		<layer id="236" name="__module._model.model.backbone.model.encoder.stages.2.layers.1.layer.2.normalization/aten::mul/Multiply_1" type="Convolution" version="opset1">
			<data strides="1, 1" dilations="1, 1" pads_begin="0, 0" pads_end="0, 0" auto_pad="explicit" />
			<input>
				<port id="0" precision="FP32">
					<dim>-1</dim>
					<dim>256</dim>
					<dim>-1</dim>
					<dim>-1</dim>
				</port>
				<port id="1" precision="FP32">
					<dim>1024</dim>
					<dim>256</dim>
					<dim>1</dim>
					<dim>1</dim>
				</port>
			</input>
			<output>
				<port id="2" precision="FP32" names="1117">
					<dim>-1</dim>
					<dim>1024</dim>
					<dim>-1</dim>
					<dim>-1</dim>
				</port>
			</output>
		</layer>
		<layer id="237" name="__module._model.model.backbone.model.encoder.stages.2.layers.1.layer.2.normalization/aten::add/Multiply_1_compressed" type="Const" version="opset1">
			<data element_type="f16" shape="1, 1024, 1, 1" offset="8167108" size="2048" />
			<output>
				<port id="0" precision="FP16">
					<dim>1</dim>
					<dim>1024</dim>
					<dim>1</dim>
					<dim>1</dim>
				</port>
			</output>
		</layer>
		<layer id="238" name="__module._model.model.backbone.model.encoder.stages.2.layers.1.layer.2.normalization/aten::add/Multiply_1" type="Convert" version="opset1">
			<data destination_type="f32" />
			<rt_info>
				<attribute name="decompression" version="0" />
			</rt_info>
			<input>
				<port id="0" precision="FP16">
					<dim>1</dim>
					<dim>1024</dim>
					<dim>1</dim>
					<dim>1</dim>
				</port>
			</input>
			<output>
				<port id="1" precision="FP32">
					<dim>1</dim>
					<dim>1024</dim>
					<dim>1</dim>
					<dim>1</dim>
				</port>
			</output>
		</layer>
		<layer id="239" name="__module._model.model.backbone.model.encoder.stages.2.layers.1.layer.2.normalization/aten::add/Add_1" type="Add" version="opset1">
			<data auto_broadcast="numpy" />
			<input>
				<port id="0" precision="FP32">
					<dim>-1</dim>
					<dim>1024</dim>
					<dim>-1</dim>
					<dim>-1</dim>
				</port>
				<port id="1" precision="FP32">
					<dim>1</dim>
					<dim>1024</dim>
					<dim>1</dim>
					<dim>1</dim>
				</port>
			</input>
			<output>
				<port id="2" precision="FP32" names="1118_1">
					<dim>-1</dim>
					<dim>1024</dim>
					<dim>-1</dim>
					<dim>-1</dim>
				</port>
			</output>
		</layer>
		<layer id="240" name="__module._model.model.backbone.model.encoder.stages.2.layers.1/aten::add_/Add" type="Add" version="opset1">
			<data auto_broadcast="numpy" />
			<input>
				<port id="0" precision="FP32">
					<dim>-1</dim>
					<dim>1024</dim>
					<dim>-1</dim>
					<dim>-1</dim>
				</port>
				<port id="1" precision="FP32">
					<dim>-1</dim>
					<dim>1024</dim>
					<dim>-1</dim>
					<dim>-1</dim>
				</port>
			</input>
			<output>
				<port id="2" precision="FP32" names="1118,hidden_state.17">
					<dim>-1</dim>
					<dim>1024</dim>
					<dim>-1</dim>
					<dim>-1</dim>
				</port>
			</output>
		</layer>
		<layer id="241" name="__module._model.model.backbone.model.encoder.stages.2.layers.1.activation/aten::relu/Relu" type="ReLU" version="opset1">
			<input>
				<port id="0" precision="FP32">
					<dim>-1</dim>
					<dim>1024</dim>
					<dim>-1</dim>
					<dim>-1</dim>
				</port>
			</input>
			<output>
				<port id="1" precision="FP32" names="1120,input.125">
					<dim>-1</dim>
					<dim>1024</dim>
					<dim>-1</dim>
					<dim>-1</dim>
				</port>
			</output>
		</layer>
		<layer id="242" name="Multiply_79416_compressed" type="Const" version="opset1">
			<data element_type="f16" shape="256, 1024, 1, 1" offset="8169156" size="524288" />
			<output>
				<port id="0" precision="FP16">
					<dim>256</dim>
					<dim>1024</dim>
					<dim>1</dim>
					<dim>1</dim>
				</port>
			</output>
		</layer>
		<layer id="243" name="Multiply_79416" type="Convert" version="opset1">
			<data destination_type="f32" />
			<rt_info>
				<attribute name="decompression" version="0" />
			</rt_info>
			<input>
				<port id="0" precision="FP16">
					<dim>256</dim>
					<dim>1024</dim>
					<dim>1</dim>
					<dim>1</dim>
				</port>
			</input>
			<output>
				<port id="1" precision="FP32">
					<dim>256</dim>
					<dim>1024</dim>
					<dim>1</dim>
					<dim>1</dim>
				</port>
			</output>
		</layer>
		<layer id="244" name="__module._model.model.backbone.model.encoder.stages.2.layers.2.layer.0.normalization/aten::mul/Multiply_1" type="Convolution" version="opset1">
			<data strides="1, 1" dilations="1, 1" pads_begin="0, 0" pads_end="0, 0" auto_pad="explicit" />
			<input>
				<port id="0" precision="FP32">
					<dim>-1</dim>
					<dim>1024</dim>
					<dim>-1</dim>
					<dim>-1</dim>
				</port>
				<port id="1" precision="FP32">
					<dim>256</dim>
					<dim>1024</dim>
					<dim>1</dim>
					<dim>1</dim>
				</port>
			</input>
			<output>
				<port id="2" precision="FP32" names="1150">
					<dim>-1</dim>
					<dim>256</dim>
					<dim>-1</dim>
					<dim>-1</dim>
				</port>
			</output>
		</layer>
		<layer id="245" name="__module._model.model.backbone.model.encoder.stages.2.layers.2.layer.0.normalization/aten::add/Multiply_1_compressed" type="Const" version="opset1">
			<data element_type="f16" shape="1, 256, 1, 1" offset="8693444" size="512" />
			<output>
				<port id="0" precision="FP16">
					<dim>1</dim>
					<dim>256</dim>
					<dim>1</dim>
					<dim>1</dim>
				</port>
			</output>
		</layer>
		<layer id="246" name="__module._model.model.backbone.model.encoder.stages.2.layers.2.layer.0.normalization/aten::add/Multiply_1" type="Convert" version="opset1">
			<data destination_type="f32" />
			<rt_info>
				<attribute name="decompression" version="0" />
			</rt_info>
			<input>
				<port id="0" precision="FP16">
					<dim>1</dim>
					<dim>256</dim>
					<dim>1</dim>
					<dim>1</dim>
				</port>
			</input>
			<output>
				<port id="1" precision="FP32">
					<dim>1</dim>
					<dim>256</dim>
					<dim>1</dim>
					<dim>1</dim>
				</port>
			</output>
		</layer>
		<layer id="247" name="__module._model.model.backbone.model.encoder.stages.2.layers.2.layer.0.normalization/aten::add/Add_1" type="Add" version="opset1">
			<data auto_broadcast="numpy" />
			<input>
				<port id="0" precision="FP32">
					<dim>-1</dim>
					<dim>256</dim>
					<dim>-1</dim>
					<dim>-1</dim>
				</port>
				<port id="1" precision="FP32">
					<dim>1</dim>
					<dim>256</dim>
					<dim>1</dim>
					<dim>1</dim>
				</port>
			</input>
			<output>
				<port id="2" precision="FP32" names="1151,input.127">
					<dim>-1</dim>
					<dim>256</dim>
					<dim>-1</dim>
					<dim>-1</dim>
				</port>
			</output>
		</layer>
		<layer id="248" name="__module._model.model.backbone.model.encoder.stages.2.layers.2.layer.0.activation/aten::relu/Relu" type="ReLU" version="opset1">
			<input>
				<port id="0" precision="FP32">
					<dim>-1</dim>
					<dim>256</dim>
					<dim>-1</dim>
					<dim>-1</dim>
				</port>
			</input>
			<output>
				<port id="1" precision="FP32" names="1152,input.129">
					<dim>-1</dim>
					<dim>256</dim>
					<dim>-1</dim>
					<dim>-1</dim>
				</port>
			</output>
		</layer>
		<layer id="249" name="Multiply_79420_compressed" type="Const" version="opset1">
			<data element_type="f16" shape="256, 256, 3, 3" offset="8693956" size="1179648" />
			<output>
				<port id="0" precision="FP16">
					<dim>256</dim>
					<dim>256</dim>
					<dim>3</dim>
					<dim>3</dim>
				</port>
			</output>
		</layer>
		<layer id="250" name="Multiply_79420" type="Convert" version="opset1">
			<data destination_type="f32" />
			<rt_info>
				<attribute name="decompression" version="0" />
			</rt_info>
			<input>
				<port id="0" precision="FP16">
					<dim>256</dim>
					<dim>256</dim>
					<dim>3</dim>
					<dim>3</dim>
				</port>
			</input>
			<output>
				<port id="1" precision="FP32">
					<dim>256</dim>
					<dim>256</dim>
					<dim>3</dim>
					<dim>3</dim>
				</port>
			</output>
		</layer>
		<layer id="251" name="__module._model.model.backbone.model.encoder.stages.2.layers.2.layer.1.normalization/aten::mul/Multiply_1" type="Convolution" version="opset1">
			<data strides="1, 1" dilations="1, 1" pads_begin="1, 1" pads_end="1, 1" auto_pad="explicit" />
			<input>
				<port id="0" precision="FP32">
					<dim>-1</dim>
					<dim>256</dim>
					<dim>-1</dim>
					<dim>-1</dim>
				</port>
				<port id="1" precision="FP32">
					<dim>256</dim>
					<dim>256</dim>
					<dim>3</dim>
					<dim>3</dim>
				</port>
			</input>
			<output>
				<port id="2" precision="FP32" names="1178">
					<dim>-1</dim>
					<dim>256</dim>
					<dim>-1</dim>
					<dim>-1</dim>
				</port>
			</output>
		</layer>
		<layer id="252" name="__module._model.model.backbone.model.encoder.stages.2.layers.2.layer.1.normalization/aten::add/Multiply_1_compressed" type="Const" version="opset1">
			<data element_type="f16" shape="1, 256, 1, 1" offset="9873604" size="512" />
			<output>
				<port id="0" precision="FP16">
					<dim>1</dim>
					<dim>256</dim>
					<dim>1</dim>
					<dim>1</dim>
				</port>
			</output>
		</layer>
		<layer id="253" name="__module._model.model.backbone.model.encoder.stages.2.layers.2.layer.1.normalization/aten::add/Multiply_1" type="Convert" version="opset1">
			<data destination_type="f32" />
			<rt_info>
				<attribute name="decompression" version="0" />
			</rt_info>
			<input>
				<port id="0" precision="FP16">
					<dim>1</dim>
					<dim>256</dim>
					<dim>1</dim>
					<dim>1</dim>
				</port>
			</input>
			<output>
				<port id="1" precision="FP32">
					<dim>1</dim>
					<dim>256</dim>
					<dim>1</dim>
					<dim>1</dim>
				</port>
			</output>
		</layer>
		<layer id="254" name="__module._model.model.backbone.model.encoder.stages.2.layers.2.layer.1.normalization/aten::add/Add_1" type="Add" version="opset1">
			<data auto_broadcast="numpy" />
			<input>
				<port id="0" precision="FP32">
					<dim>-1</dim>
					<dim>256</dim>
					<dim>-1</dim>
					<dim>-1</dim>
				</port>
				<port id="1" precision="FP32">
					<dim>1</dim>
					<dim>256</dim>
					<dim>1</dim>
					<dim>1</dim>
				</port>
			</input>
			<output>
				<port id="2" precision="FP32" names="1179,input.131">
					<dim>-1</dim>
					<dim>256</dim>
					<dim>-1</dim>
					<dim>-1</dim>
				</port>
			</output>
		</layer>
		<layer id="255" name="__module._model.model.backbone.model.encoder.stages.2.layers.2.layer.1.activation/aten::relu/Relu" type="ReLU" version="opset1">
			<input>
				<port id="0" precision="FP32">
					<dim>-1</dim>
					<dim>256</dim>
					<dim>-1</dim>
					<dim>-1</dim>
				</port>
			</input>
			<output>
				<port id="1" precision="FP32" names="1180,input.133">
					<dim>-1</dim>
					<dim>256</dim>
					<dim>-1</dim>
					<dim>-1</dim>
				</port>
			</output>
		</layer>
		<layer id="256" name="Multiply_79424_compressed" type="Const" version="opset1">
			<data element_type="f16" shape="1024, 256, 1, 1" offset="9874116" size="524288" />
			<output>
				<port id="0" precision="FP16">
					<dim>1024</dim>
					<dim>256</dim>
					<dim>1</dim>
					<dim>1</dim>
				</port>
			</output>
		</layer>
		<layer id="257" name="Multiply_79424" type="Convert" version="opset1">
			<data destination_type="f32" />
			<rt_info>
				<attribute name="decompression" version="0" />
			</rt_info>
			<input>
				<port id="0" precision="FP16">
					<dim>1024</dim>
					<dim>256</dim>
					<dim>1</dim>
					<dim>1</dim>
				</port>
			</input>
			<output>
				<port id="1" precision="FP32">
					<dim>1024</dim>
					<dim>256</dim>
					<dim>1</dim>
					<dim>1</dim>
				</port>
			</output>
		</layer>
		<layer id="258" name="__module._model.model.backbone.model.encoder.stages.2.layers.2.layer.2.normalization/aten::mul/Multiply_1" type="Convolution" version="opset1">
			<data strides="1, 1" dilations="1, 1" pads_begin="0, 0" pads_end="0, 0" auto_pad="explicit" />
			<input>
				<port id="0" precision="FP32">
					<dim>-1</dim>
					<dim>256</dim>
					<dim>-1</dim>
					<dim>-1</dim>
				</port>
				<port id="1" precision="FP32">
					<dim>1024</dim>
					<dim>256</dim>
					<dim>1</dim>
					<dim>1</dim>
				</port>
			</input>
			<output>
				<port id="2" precision="FP32" names="1206">
					<dim>-1</dim>
					<dim>1024</dim>
					<dim>-1</dim>
					<dim>-1</dim>
				</port>
			</output>
		</layer>
		<layer id="259" name="__module._model.model.backbone.model.encoder.stages.2.layers.2.layer.2.normalization/aten::add/Multiply_1_compressed" type="Const" version="opset1">
			<data element_type="f16" shape="1, 1024, 1, 1" offset="10398404" size="2048" />
			<output>
				<port id="0" precision="FP16">
					<dim>1</dim>
					<dim>1024</dim>
					<dim>1</dim>
					<dim>1</dim>
				</port>
			</output>
		</layer>
		<layer id="260" name="__module._model.model.backbone.model.encoder.stages.2.layers.2.layer.2.normalization/aten::add/Multiply_1" type="Convert" version="opset1">
			<data destination_type="f32" />
			<rt_info>
				<attribute name="decompression" version="0" />
			</rt_info>
			<input>
				<port id="0" precision="FP16">
					<dim>1</dim>
					<dim>1024</dim>
					<dim>1</dim>
					<dim>1</dim>
				</port>
			</input>
			<output>
				<port id="1" precision="FP32">
					<dim>1</dim>
					<dim>1024</dim>
					<dim>1</dim>
					<dim>1</dim>
				</port>
			</output>
		</layer>
		<layer id="261" name="__module._model.model.backbone.model.encoder.stages.2.layers.2.layer.2.normalization/aten::add/Add_1" type="Add" version="opset1">
			<data auto_broadcast="numpy" />
			<input>
				<port id="0" precision="FP32">
					<dim>-1</dim>
					<dim>1024</dim>
					<dim>-1</dim>
					<dim>-1</dim>
				</port>
				<port id="1" precision="FP32">
					<dim>1</dim>
					<dim>1024</dim>
					<dim>1</dim>
					<dim>1</dim>
				</port>
			</input>
			<output>
				<port id="2" precision="FP32" names="1207_1">
					<dim>-1</dim>
					<dim>1024</dim>
					<dim>-1</dim>
					<dim>-1</dim>
				</port>
			</output>
		</layer>
		<layer id="262" name="__module._model.model.backbone.model.encoder.stages.2.layers.2/aten::add_/Add" type="Add" version="opset1">
			<data auto_broadcast="numpy" />
			<input>
				<port id="0" precision="FP32">
					<dim>-1</dim>
					<dim>1024</dim>
					<dim>-1</dim>
					<dim>-1</dim>
				</port>
				<port id="1" precision="FP32">
					<dim>-1</dim>
					<dim>1024</dim>
					<dim>-1</dim>
					<dim>-1</dim>
				</port>
			</input>
			<output>
				<port id="2" precision="FP32" names="1207,hidden_state.19">
					<dim>-1</dim>
					<dim>1024</dim>
					<dim>-1</dim>
					<dim>-1</dim>
				</port>
			</output>
		</layer>
		<layer id="263" name="__module._model.model.backbone.model.encoder.stages.2.layers.2.activation/aten::relu/Relu" type="ReLU" version="opset1">
			<input>
				<port id="0" precision="FP32">
					<dim>-1</dim>
					<dim>1024</dim>
					<dim>-1</dim>
					<dim>-1</dim>
				</port>
			</input>
			<output>
				<port id="1" precision="FP32" names="1209,input.137">
					<dim>-1</dim>
					<dim>1024</dim>
					<dim>-1</dim>
					<dim>-1</dim>
				</port>
			</output>
		</layer>
		<layer id="264" name="Multiply_79428_compressed" type="Const" version="opset1">
			<data element_type="f16" shape="256, 1024, 1, 1" offset="10400452" size="524288" />
			<output>
				<port id="0" precision="FP16">
					<dim>256</dim>
					<dim>1024</dim>
					<dim>1</dim>
					<dim>1</dim>
				</port>
			</output>
		</layer>
		<layer id="265" name="Multiply_79428" type="Convert" version="opset1">
			<data destination_type="f32" />
			<rt_info>
				<attribute name="decompression" version="0" />
			</rt_info>
			<input>
				<port id="0" precision="FP16">
					<dim>256</dim>
					<dim>1024</dim>
					<dim>1</dim>
					<dim>1</dim>
				</port>
			</input>
			<output>
				<port id="1" precision="FP32">
					<dim>256</dim>
					<dim>1024</dim>
					<dim>1</dim>
					<dim>1</dim>
				</port>
			</output>
		</layer>
		<layer id="266" name="__module._model.model.backbone.model.encoder.stages.2.layers.3.layer.0.normalization/aten::mul/Multiply_1" type="Convolution" version="opset1">
			<data strides="1, 1" dilations="1, 1" pads_begin="0, 0" pads_end="0, 0" auto_pad="explicit" />
			<input>
				<port id="0" precision="FP32">
					<dim>-1</dim>
					<dim>1024</dim>
					<dim>-1</dim>
					<dim>-1</dim>
				</port>
				<port id="1" precision="FP32">
					<dim>256</dim>
					<dim>1024</dim>
					<dim>1</dim>
					<dim>1</dim>
				</port>
			</input>
			<output>
				<port id="2" precision="FP32" names="1239">
					<dim>-1</dim>
					<dim>256</dim>
					<dim>-1</dim>
					<dim>-1</dim>
				</port>
			</output>
		</layer>
		<layer id="267" name="__module._model.model.backbone.model.encoder.stages.2.layers.3.layer.0.normalization/aten::add/Multiply_1_compressed" type="Const" version="opset1">
			<data element_type="f16" shape="1, 256, 1, 1" offset="10924740" size="512" />
			<output>
				<port id="0" precision="FP16">
					<dim>1</dim>
					<dim>256</dim>
					<dim>1</dim>
					<dim>1</dim>
				</port>
			</output>
		</layer>
		<layer id="268" name="__module._model.model.backbone.model.encoder.stages.2.layers.3.layer.0.normalization/aten::add/Multiply_1" type="Convert" version="opset1">
			<data destination_type="f32" />
			<rt_info>
				<attribute name="decompression" version="0" />
			</rt_info>
			<input>
				<port id="0" precision="FP16">
					<dim>1</dim>
					<dim>256</dim>
					<dim>1</dim>
					<dim>1</dim>
				</port>
			</input>
			<output>
				<port id="1" precision="FP32">
					<dim>1</dim>
					<dim>256</dim>
					<dim>1</dim>
					<dim>1</dim>
				</port>
			</output>
		</layer>
		<layer id="269" name="__module._model.model.backbone.model.encoder.stages.2.layers.3.layer.0.normalization/aten::add/Add_1" type="Add" version="opset1">
			<data auto_broadcast="numpy" />
			<input>
				<port id="0" precision="FP32">
					<dim>-1</dim>
					<dim>256</dim>
					<dim>-1</dim>
					<dim>-1</dim>
				</port>
				<port id="1" precision="FP32">
					<dim>1</dim>
					<dim>256</dim>
					<dim>1</dim>
					<dim>1</dim>
				</port>
			</input>
			<output>
				<port id="2" precision="FP32" names="1240,input.139">
					<dim>-1</dim>
					<dim>256</dim>
					<dim>-1</dim>
					<dim>-1</dim>
				</port>
			</output>
		</layer>
		<layer id="270" name="__module._model.model.backbone.model.encoder.stages.2.layers.3.layer.0.activation/aten::relu/Relu" type="ReLU" version="opset1">
			<input>
				<port id="0" precision="FP32">
					<dim>-1</dim>
					<dim>256</dim>
					<dim>-1</dim>
					<dim>-1</dim>
				</port>
			</input>
			<output>
				<port id="1" precision="FP32" names="1241,input.141">
					<dim>-1</dim>
					<dim>256</dim>
					<dim>-1</dim>
					<dim>-1</dim>
				</port>
			</output>
		</layer>
		<layer id="271" name="Multiply_79432_compressed" type="Const" version="opset1">
			<data element_type="f16" shape="256, 256, 3, 3" offset="10925252" size="1179648" />
			<output>
				<port id="0" precision="FP16">
					<dim>256</dim>
					<dim>256</dim>
					<dim>3</dim>
					<dim>3</dim>
				</port>
			</output>
		</layer>
		<layer id="272" name="Multiply_79432" type="Convert" version="opset1">
			<data destination_type="f32" />
			<rt_info>
				<attribute name="decompression" version="0" />
			</rt_info>
			<input>
				<port id="0" precision="FP16">
					<dim>256</dim>
					<dim>256</dim>
					<dim>3</dim>
					<dim>3</dim>
				</port>
			</input>
			<output>
				<port id="1" precision="FP32">
					<dim>256</dim>
					<dim>256</dim>
					<dim>3</dim>
					<dim>3</dim>
				</port>
			</output>
		</layer>
		<layer id="273" name="__module._model.model.backbone.model.encoder.stages.2.layers.3.layer.1.normalization/aten::mul/Multiply_1" type="Convolution" version="opset1">
			<data strides="1, 1" dilations="1, 1" pads_begin="1, 1" pads_end="1, 1" auto_pad="explicit" />
			<input>
				<port id="0" precision="FP32">
					<dim>-1</dim>
					<dim>256</dim>
					<dim>-1</dim>
					<dim>-1</dim>
				</port>
				<port id="1" precision="FP32">
					<dim>256</dim>
					<dim>256</dim>
					<dim>3</dim>
					<dim>3</dim>
				</port>
			</input>
			<output>
				<port id="2" precision="FP32" names="1267">
					<dim>-1</dim>
					<dim>256</dim>
					<dim>-1</dim>
					<dim>-1</dim>
				</port>
			</output>
		</layer>
		<layer id="274" name="__module._model.model.backbone.model.encoder.stages.2.layers.3.layer.1.normalization/aten::add/Multiply_1_compressed" type="Const" version="opset1">
			<data element_type="f16" shape="1, 256, 1, 1" offset="12104900" size="512" />
			<output>
				<port id="0" precision="FP16">
					<dim>1</dim>
					<dim>256</dim>
					<dim>1</dim>
					<dim>1</dim>
				</port>
			</output>
		</layer>
		<layer id="275" name="__module._model.model.backbone.model.encoder.stages.2.layers.3.layer.1.normalization/aten::add/Multiply_1" type="Convert" version="opset1">
			<data destination_type="f32" />
			<rt_info>
				<attribute name="decompression" version="0" />
			</rt_info>
			<input>
				<port id="0" precision="FP16">
					<dim>1</dim>
					<dim>256</dim>
					<dim>1</dim>
					<dim>1</dim>
				</port>
			</input>
			<output>
				<port id="1" precision="FP32">
					<dim>1</dim>
					<dim>256</dim>
					<dim>1</dim>
					<dim>1</dim>
				</port>
			</output>
		</layer>
		<layer id="276" name="__module._model.model.backbone.model.encoder.stages.2.layers.3.layer.1.normalization/aten::add/Add_1" type="Add" version="opset1">
			<data auto_broadcast="numpy" />
			<input>
				<port id="0" precision="FP32">
					<dim>-1</dim>
					<dim>256</dim>
					<dim>-1</dim>
					<dim>-1</dim>
				</port>
				<port id="1" precision="FP32">
					<dim>1</dim>
					<dim>256</dim>
					<dim>1</dim>
					<dim>1</dim>
				</port>
			</input>
			<output>
				<port id="2" precision="FP32" names="1268,input.143">
					<dim>-1</dim>
					<dim>256</dim>
					<dim>-1</dim>
					<dim>-1</dim>
				</port>
			</output>
		</layer>
		<layer id="277" name="__module._model.model.backbone.model.encoder.stages.2.layers.3.layer.1.activation/aten::relu/Relu" type="ReLU" version="opset1">
			<input>
				<port id="0" precision="FP32">
					<dim>-1</dim>
					<dim>256</dim>
					<dim>-1</dim>
					<dim>-1</dim>
				</port>
			</input>
			<output>
				<port id="1" precision="FP32" names="1269,input.145">
					<dim>-1</dim>
					<dim>256</dim>
					<dim>-1</dim>
					<dim>-1</dim>
				</port>
			</output>
		</layer>
		<layer id="278" name="Multiply_79436_compressed" type="Const" version="opset1">
			<data element_type="f16" shape="1024, 256, 1, 1" offset="12105412" size="524288" />
			<output>
				<port id="0" precision="FP16">
					<dim>1024</dim>
					<dim>256</dim>
					<dim>1</dim>
					<dim>1</dim>
				</port>
			</output>
		</layer>
		<layer id="279" name="Multiply_79436" type="Convert" version="opset1">
			<data destination_type="f32" />
			<rt_info>
				<attribute name="decompression" version="0" />
			</rt_info>
			<input>
				<port id="0" precision="FP16">
					<dim>1024</dim>
					<dim>256</dim>
					<dim>1</dim>
					<dim>1</dim>
				</port>
			</input>
			<output>
				<port id="1" precision="FP32">
					<dim>1024</dim>
					<dim>256</dim>
					<dim>1</dim>
					<dim>1</dim>
				</port>
			</output>
		</layer>
		<layer id="280" name="__module._model.model.backbone.model.encoder.stages.2.layers.3.layer.2.normalization/aten::mul/Multiply_1" type="Convolution" version="opset1">
			<data strides="1, 1" dilations="1, 1" pads_begin="0, 0" pads_end="0, 0" auto_pad="explicit" />
			<input>
				<port id="0" precision="FP32">
					<dim>-1</dim>
					<dim>256</dim>
					<dim>-1</dim>
					<dim>-1</dim>
				</port>
				<port id="1" precision="FP32">
					<dim>1024</dim>
					<dim>256</dim>
					<dim>1</dim>
					<dim>1</dim>
				</port>
			</input>
			<output>
				<port id="2" precision="FP32" names="1295">
					<dim>-1</dim>
					<dim>1024</dim>
					<dim>-1</dim>
					<dim>-1</dim>
				</port>
			</output>
		</layer>
		<layer id="281" name="__module._model.model.backbone.model.encoder.stages.2.layers.3.layer.2.normalization/aten::add/Multiply_1_compressed" type="Const" version="opset1">
			<data element_type="f16" shape="1, 1024, 1, 1" offset="12629700" size="2048" />
			<output>
				<port id="0" precision="FP16">
					<dim>1</dim>
					<dim>1024</dim>
					<dim>1</dim>
					<dim>1</dim>
				</port>
			</output>
		</layer>
		<layer id="282" name="__module._model.model.backbone.model.encoder.stages.2.layers.3.layer.2.normalization/aten::add/Multiply_1" type="Convert" version="opset1">
			<data destination_type="f32" />
			<rt_info>
				<attribute name="decompression" version="0" />
			</rt_info>
			<input>
				<port id="0" precision="FP16">
					<dim>1</dim>
					<dim>1024</dim>
					<dim>1</dim>
					<dim>1</dim>
				</port>
			</input>
			<output>
				<port id="1" precision="FP32">
					<dim>1</dim>
					<dim>1024</dim>
					<dim>1</dim>
					<dim>1</dim>
				</port>
			</output>
		</layer>
		<layer id="283" name="__module._model.model.backbone.model.encoder.stages.2.layers.3.layer.2.normalization/aten::add/Add_1" type="Add" version="opset1">
			<data auto_broadcast="numpy" />
			<input>
				<port id="0" precision="FP32">
					<dim>-1</dim>
					<dim>1024</dim>
					<dim>-1</dim>
					<dim>-1</dim>
				</port>
				<port id="1" precision="FP32">
					<dim>1</dim>
					<dim>1024</dim>
					<dim>1</dim>
					<dim>1</dim>
				</port>
			</input>
			<output>
				<port id="2" precision="FP32" names="1296_1">
					<dim>-1</dim>
					<dim>1024</dim>
					<dim>-1</dim>
					<dim>-1</dim>
				</port>
			</output>
		</layer>
		<layer id="284" name="__module._model.model.backbone.model.encoder.stages.2.layers.3/aten::add_/Add" type="Add" version="opset1">
			<data auto_broadcast="numpy" />
			<input>
				<port id="0" precision="FP32">
					<dim>-1</dim>
					<dim>1024</dim>
					<dim>-1</dim>
					<dim>-1</dim>
				</port>
				<port id="1" precision="FP32">
					<dim>-1</dim>
					<dim>1024</dim>
					<dim>-1</dim>
					<dim>-1</dim>
				</port>
			</input>
			<output>
				<port id="2" precision="FP32" names="1296,hidden_state.21">
					<dim>-1</dim>
					<dim>1024</dim>
					<dim>-1</dim>
					<dim>-1</dim>
				</port>
			</output>
		</layer>
		<layer id="285" name="__module._model.model.backbone.model.encoder.stages.2.layers.3.activation/aten::relu/Relu" type="ReLU" version="opset1">
			<input>
				<port id="0" precision="FP32">
					<dim>-1</dim>
					<dim>1024</dim>
					<dim>-1</dim>
					<dim>-1</dim>
				</port>
			</input>
			<output>
				<port id="1" precision="FP32" names="1298,input.149">
					<dim>-1</dim>
					<dim>1024</dim>
					<dim>-1</dim>
					<dim>-1</dim>
				</port>
			</output>
		</layer>
		<layer id="286" name="Multiply_79440_compressed" type="Const" version="opset1">
			<data element_type="f16" shape="256, 1024, 1, 1" offset="12631748" size="524288" />
			<output>
				<port id="0" precision="FP16">
					<dim>256</dim>
					<dim>1024</dim>
					<dim>1</dim>
					<dim>1</dim>
				</port>
			</output>
		</layer>
		<layer id="287" name="Multiply_79440" type="Convert" version="opset1">
			<data destination_type="f32" />
			<rt_info>
				<attribute name="decompression" version="0" />
			</rt_info>
			<input>
				<port id="0" precision="FP16">
					<dim>256</dim>
					<dim>1024</dim>
					<dim>1</dim>
					<dim>1</dim>
				</port>
			</input>
			<output>
				<port id="1" precision="FP32">
					<dim>256</dim>
					<dim>1024</dim>
					<dim>1</dim>
					<dim>1</dim>
				</port>
			</output>
		</layer>
…
		<edge from-layer="1982" from-port="2" to-layer="1984" to-port="0" />
		<edge from-layer="1983" from-port="0" to-layer="1984" to-port="1" />
		<edge from-layer="1984" from-port="2" to-layer="1987" to-port="0" />
		<edge from-layer="1985" from-port="0" to-layer="1986" to-port="1" />
		<edge from-layer="1986" from-port="4" to-layer="1987" to-port="1" />
		<edge from-layer="1987" from-port="2" to-layer="1993" to-port="0" />
		<edge from-layer="1988" from-port="3" to-layer="1990" to-port="0" />
		<edge from-layer="1989" from-port="0" to-layer="1990" to-port="1" />
		<edge from-layer="1990" from-port="2" to-layer="1992" to-port="0" />
		<edge from-layer="1991" from-port="0" to-layer="1992" to-port="1" />
		<edge from-layer="1992" from-port="2" to-layer="1993" to-port="1" />
		<edge from-layer="1993" from-port="2" to-layer="1994" to-port="0" />
		<edge from-layer="1994" from-port="2" to-layer="1995" to-port="2" />
		<edge from-layer="1995" from-port="3" to-layer="1997" to-port="0" />
		<edge from-layer="1996" from-port="0" to-layer="1997" to-port="1" />
		<edge from-layer="1997" from-port="2" to-layer="2013" to-port="0" />
		<edge from-layer="1998" from-port="0" to-layer="1999" to-port="0" />
		<edge from-layer="1999" from-port="1" to-layer="2000" to-port="1" />
		<edge from-layer="2000" from-port="2" to-layer="2003" to-port="0" />
		<edge from-layer="2001" from-port="0" to-layer="2002" to-port="0" />
		<edge from-layer="2002" from-port="1" to-layer="2003" to-port="1" />
		<edge from-layer="2003" from-port="2" to-layer="2005" to-port="0" />
		<edge from-layer="2004" from-port="0" to-layer="2005" to-port="1" />
		<edge from-layer="2005" from-port="2" to-layer="2006" to-port="0" />
		<edge from-layer="2006" from-port="1" to-layer="2008" to-port="0" />
		<edge from-layer="2007" from-port="0" to-layer="2008" to-port="1" />
		<edge from-layer="2008" from-port="2" to-layer="2010" to-port="0" />
		<edge from-layer="2009" from-port="0" to-layer="2010" to-port="1" />
		<edge from-layer="2010" from-port="2" to-layer="2012" to-port="0" />
		<edge from-layer="2011" from-port="0" to-layer="2012" to-port="1" />
		<edge from-layer="2012" from-port="2" to-layer="2013" to-port="1" />
		<edge from-layer="2013" from-port="2" to-layer="2015" to-port="0" />
		<edge from-layer="2014" from-port="0" to-layer="2015" to-port="1" />
		<edge from-layer="2015" from-port="2" to-layer="2017" to-port="0" />
		<edge from-layer="2016" from-port="0" to-layer="2017" to-port="1" />
		<edge from-layer="2017" from-port="2" to-layer="2020" to-port="0" />
		<edge from-layer="2018" from-port="0" to-layer="2019" to-port="0" />
		<edge from-layer="2019" from-port="1" to-layer="2020" to-port="1" />
		<edge from-layer="2020" from-port="2" to-layer="2023" to-port="0" />
		<edge from-layer="2021" from-port="0" to-layer="2022" to-port="0" />
		<edge from-layer="2022" from-port="1" to-layer="2023" to-port="1" />
		<edge from-layer="2023" from-port="2" to-layer="2024" to-port="1" />
		<edge from-layer="2024" from-port="2" to-layer="2026" to-port="0" />
		<edge from-layer="2025" from-port="0" to-layer="2026" to-port="1" />
		<edge from-layer="2026" from-port="2" to-layer="2029" to-port="0" />
		<edge from-layer="2027" from-port="0" to-layer="2028" to-port="0" />
		<edge from-layer="2028" from-port="1" to-layer="2029" to-port="1" />
		<edge from-layer="2029" from-port="2" to-layer="2032" to-port="0" />
		<edge from-layer="2030" from-port="0" to-layer="2031" to-port="0" />
		<edge from-layer="2031" from-port="1" to-layer="2032" to-port="1" />
		<edge from-layer="2032" from-port="2" to-layer="2046" to-port="0" />
		<edge from-layer="2032" from-port="2" to-layer="2035" to-port="0" />
		<edge from-layer="2033" from-port="0" to-layer="2034" to-port="0" />
		<edge from-layer="2034" from-port="1" to-layer="2035" to-port="1" />
		<edge from-layer="2035" from-port="2" to-layer="2038" to-port="0" />
		<edge from-layer="2036" from-port="0" to-layer="2037" to-port="0" />
		<edge from-layer="2037" from-port="1" to-layer="2038" to-port="1" />
		<edge from-layer="2038" from-port="2" to-layer="2039" to-port="0" />
		<edge from-layer="2039" from-port="1" to-layer="2042" to-port="0" />
		<edge from-layer="2040" from-port="0" to-layer="2041" to-port="0" />
		<edge from-layer="2041" from-port="1" to-layer="2042" to-port="1" />
		<edge from-layer="2042" from-port="2" to-layer="2045" to-port="0" />
		<edge from-layer="2043" from-port="0" to-layer="2044" to-port="0" />
		<edge from-layer="2044" from-port="1" to-layer="2045" to-port="1" />
		<edge from-layer="2045" from-port="2" to-layer="2046" to-port="1" />
		<edge from-layer="2046" from-port="2" to-layer="2048" to-port="0" />
		<edge from-layer="2047" from-port="0" to-layer="2048" to-port="1" />
		<edge from-layer="2048" from-port="2" to-layer="2051" to-port="0" />
		<edge from-layer="2049" from-port="0" to-layer="2050" to-port="0" />
		<edge from-layer="2050" from-port="1" to-layer="2051" to-port="1" />
		<edge from-layer="2051" from-port="2" to-layer="2054" to-port="0" />
		<edge from-layer="2052" from-port="0" to-layer="2053" to-port="0" />
		<edge from-layer="2053" from-port="1" to-layer="2054" to-port="1" />
		<edge from-layer="2054" from-port="2" to-layer="2057" to-port="0" />
		<edge from-layer="2054" from-port="2" to-layer="2099" to-port="0" />
		<edge from-layer="2054" from-port="2" to-layer="2125" to-port="0" />
		<edge from-layer="2054" from-port="2" to-layer="2147" to-port="0" />
		<edge from-layer="2054" from-port="2" to-layer="2618" to-port="0" />
		<edge from-layer="2055" from-port="0" to-layer="2056" to-port="0" />
		<edge from-layer="2056" from-port="1" to-layer="2057" to-port="1" />
		<edge from-layer="2057" from-port="2" to-layer="2060" to-port="0" />
		<edge from-layer="2058" from-port="0" to-layer="2059" to-port="0" />
		<edge from-layer="2059" from-port="1" to-layer="2060" to-port="1" />
		<edge from-layer="2060" from-port="2" to-layer="2061" to-port="0" />
		<edge from-layer="2061" from-port="1" to-layer="2064" to-port="0" />
		<edge from-layer="2062" from-port="0" to-layer="2063" to-port="0" />
		<edge from-layer="2063" from-port="1" to-layer="2064" to-port="1" />
		<edge from-layer="2064" from-port="2" to-layer="2067" to-port="0" />
		<edge from-layer="2065" from-port="0" to-layer="2066" to-port="0" />
		<edge from-layer="2066" from-port="1" to-layer="2067" to-port="1" />
		<edge from-layer="2067" from-port="2" to-layer="2068" to-port="0" />
		<edge from-layer="2068" from-port="1" to-layer="2071" to-port="0" />
		<edge from-layer="2069" from-port="0" to-layer="2070" to-port="0" />
		<edge from-layer="2070" from-port="1" to-layer="2071" to-port="1" />
		<edge from-layer="2071" from-port="2" to-layer="2074" to-port="0" />
		<edge from-layer="2072" from-port="0" to-layer="2073" to-port="0" />
		<edge from-layer="2073" from-port="1" to-layer="2074" to-port="1" />
		<edge from-layer="2074" from-port="2" to-layer="2087" to-port="0" />
		<edge from-layer="2075" from-port="1" to-layer="2081" to-port="1" />
		<edge from-layer="2075" from-port="1" to-layer="2078" to-port="0" />
		<edge from-layer="2076" from-port="0" to-layer="2077" to-port="0" />
		<edge from-layer="2077" from-port="1" to-layer="2078" to-port="1" />
		<edge from-layer="2078" from-port="2" to-layer="2085" to-port="0" />
		<edge from-layer="2079" from-port="0" to-layer="2080" to-port="0" />
		<edge from-layer="2080" from-port="1" to-layer="2081" to-port="0" />
		<edge from-layer="2081" from-port="2" to-layer="2084" to-port="0" />
		<edge from-layer="2082" from-port="0" to-layer="2083" to-port="0" />
		<edge from-layer="2083" from-port="1" to-layer="2084" to-port="1" />
		<edge from-layer="2084" from-port="2" to-layer="2085" to-port="1" />
		<edge from-layer="2085" from-port="2" to-layer="2086" to-port="0" />
		<edge from-layer="2086" from-port="1" to-layer="2087" to-port="1" />
		<edge from-layer="2087" from-port="2" to-layer="2088" to-port="0" />
		<edge from-layer="2088" from-port="1" to-layer="2326" to-port="0" />
		<edge from-layer="2088" from-port="1" to-layer="2089" to-port="0" />
		<edge from-layer="2088" from-port="1" to-layer="2090" to-port="0" />
		<edge from-layer="2088" from-port="1" to-layer="2169" to-port="0" />
		<edge from-layer="2089" from-port="2" to-layer="2592" to-port="3" />
		<edge from-layer="2090" from-port="2" to-layer="2093" to-port="0" />
		<edge from-layer="2091" from-port="0" to-layer="2092" to-port="0" />
		<edge from-layer="2092" from-port="1" to-layer="2093" to-port="1" />
		<edge from-layer="2093" from-port="2" to-layer="2094" to-port="0" />
		<edge from-layer="2094" from-port="1" to-layer="2095" to-port="0" />
		<edge from-layer="2095" from-port="2" to-layer="2098" to-port="0" />
		<edge from-layer="2096" from-port="0" to-layer="2097" to-port="0" />
		<edge from-layer="2097" from-port="1" to-layer="2098" to-port="1" />
		<edge from-layer="2098" from-port="2" to-layer="2176" to-port="1" />
		<edge from-layer="2098" from-port="2" to-layer="2099" to-port="1" />
		<edge from-layer="2099" from-port="2" to-layer="2102" to-port="0" />
		<edge from-layer="2099" from-port="2" to-layer="2113" to-port="0" />
		<edge from-layer="2100" from-port="0" to-layer="2101" to-port="0" />
		<edge from-layer="2101" from-port="1" to-layer="2102" to-port="1" />
		<edge from-layer="2102" from-port="2" to-layer="2105" to-port="0" />
		<edge from-layer="2103" from-port="0" to-layer="2104" to-port="0" />
		<edge from-layer="2104" from-port="1" to-layer="2105" to-port="1" />
		<edge from-layer="2105" from-port="2" to-layer="2107" to-port="0" />
		<edge from-layer="2106" from-port="0" to-layer="2107" to-port="1" />
		<edge from-layer="2107" from-port="2" to-layer="2109" to-port="0" />
		<edge from-layer="2108" from-port="0" to-layer="2109" to-port="1" />
		<edge from-layer="2109" from-port="2" to-layer="2110" to-port="0" />
		<edge from-layer="2110" from-port="2" to-layer="2121" to-port="0" />
		<edge from-layer="2111" from-port="0" to-layer="2112" to-port="0" />
		<edge from-layer="2112" from-port="1" to-layer="2113" to-port="1" />
		<edge from-layer="2113" from-port="2" to-layer="2116" to-port="0" />
		<edge from-layer="2114" from-port="0" to-layer="2115" to-port="0" />
		<edge from-layer="2115" from-port="1" to-layer="2116" to-port="1" />
		<edge from-layer="2116" from-port="2" to-layer="2117" to-port="0" />
		<edge from-layer="2117" from-port="2" to-layer="2119" to-port="0" />
		<edge from-layer="2118" from-port="0" to-layer="2119" to-port="1" />
		<edge from-layer="2119" from-port="2" to-layer="2120" to-port="0" />
		<edge from-layer="2120" from-port="2" to-layer="2121" to-port="1" />
		<edge from-layer="2121" from-port="2" to-layer="2122" to-port="0" />
		<edge from-layer="2122" from-port="1" to-layer="2134" to-port="0" />
		<edge from-layer="2123" from-port="0" to-layer="2124" to-port="0" />
		<edge from-layer="2124" from-port="1" to-layer="2125" to-port="1" />
		<edge from-layer="2125" from-port="2" to-layer="2128" to-port="0" />
		<edge from-layer="2126" from-port="0" to-layer="2127" to-port="0" />
		<edge from-layer="2127" from-port="1" to-layer="2128" to-port="1" />
		<edge from-layer="2128" from-port="2" to-layer="2130" to-port="0" />
		<edge from-layer="2129" from-port="0" to-layer="2130" to-port="1" />
		<edge from-layer="2130" from-port="2" to-layer="2132" to-port="0" />
		<edge from-layer="2131" from-port="0" to-layer="2132" to-port="1" />
		<edge from-layer="2132" from-port="2" to-layer="2133" to-port="0" />
		<edge from-layer="2133" from-port="2" to-layer="2134" to-port="1" />
		<edge from-layer="2134" from-port="2" to-layer="2136" to-port="0" />
		<edge from-layer="2135" from-port="0" to-layer="2136" to-port="1" />
		<edge from-layer="2136" from-port="2" to-layer="2138" to-port="0" />
		<edge from-layer="2137" from-port="0" to-layer="2138" to-port="1" />
		<edge from-layer="2138" from-port="2" to-layer="2140" to-port="0" />
		<edge from-layer="2139" from-port="0" to-layer="2140" to-port="1" />
		<edge from-layer="2140" from-port="2" to-layer="2143" to-port="0" />
		<edge from-layer="2141" from-port="0" to-layer="2142" to-port="0" />
		<edge from-layer="2142" from-port="1" to-layer="2143" to-port="1" />
		<edge from-layer="2143" from-port="2" to-layer="2146" to-port="0" />
		<edge from-layer="2144" from-port="0" to-layer="2145" to-port="0" />
		<edge from-layer="2145" from-port="1" to-layer="2146" to-port="1" />
		<edge from-layer="2146" from-port="2" to-layer="2147" to-port="1" />
		<edge from-layer="2147" from-port="2" to-layer="2149" to-port="0" />
		<edge from-layer="2148" from-port="0" to-layer="2149" to-port="1" />
		<edge from-layer="2149" from-port="2" to-layer="2152" to-port="0" />
		<edge from-layer="2150" from-port="0" to-layer="2151" to-port="0" />
		<edge from-layer="2151" from-port="1" to-layer="2152" to-port="1" />
		<edge from-layer="2152" from-port="2" to-layer="2155" to-port="0" />
		<edge from-layer="2153" from-port="0" to-layer="2154" to-port="0" />
		<edge from-layer="2154" from-port="1" to-layer="2155" to-port="1" />
		<edge from-layer="2155" from-port="2" to-layer="2275" to-port="0" />
		<edge from-layer="2155" from-port="2" to-layer="2176" to-port="0" />
		<edge from-layer="2156" from-port="0" to-layer="2157" to-port="0" />
		<edge from-layer="2157" from-port="1" to-layer="2158" to-port="1" />
		<edge from-layer="2158" from-port="2" to-layer="2161" to-port="0" />
		<edge from-layer="2159" from-port="0" to-layer="2160" to-port="0" />
		<edge from-layer="2160" from-port="1" to-layer="2161" to-port="1" />
		<edge from-layer="2161" from-port="2" to-layer="2163" to-port="0" />
		<edge from-layer="2162" from-port="0" to-layer="2163" to-port="1" />
		<edge from-layer="2163" from-port="2" to-layer="2164" to-port="0" />
		<edge from-layer="2164" from-port="3" to-layer="2166" to-port="0" />
		<edge from-layer="2164" from-port="4" to-layer="2219" to-port="0" />
		<edge from-layer="2164" from-port="5" to-layer="2233" to-port="0" />
		<edge from-layer="2165" from-port="0" to-layer="2166" to-port="1" />
		<edge from-layer="2166" from-port="2" to-layer="2168" to-port="0" />
		<edge from-layer="2167" from-port="0" to-layer="2168" to-port="1" />
		<edge from-layer="2168" from-port="2" to-layer="2204" to-port="0" />
		<edge from-layer="2169" from-port="2" to-layer="2170" to-port="0" />
		<edge from-layer="2170" from-port="2" to-layer="2171" to-port="0" />
		<edge from-layer="2171" from-port="2" to-layer="2175" to-port="0" />
		<edge from-layer="2171" from-port="2" to-layer="2191" to-port="0" />
		<edge from-layer="2172" from-port="0" to-layer="2175" to-port="1" />
		<edge from-layer="2173" from-port="0" to-layer="2175" to-port="2" />
		<edge from-layer="2174" from-port="0" to-layer="2175" to-port="3" />
		<edge from-layer="2175" from-port="5" to-layer="2196" to-port="0" />
		<edge from-layer="2176" from-port="2" to-layer="2251" to-port="0" />
		<edge from-layer="2176" from-port="2" to-layer="2179" to-port="0" />
		<edge from-layer="2177" from-port="0" to-layer="2178" to-port="0" />
		<edge from-layer="2178" from-port="1" to-layer="2179" to-port="1" />
		<edge from-layer="2179" from-port="2" to-layer="2182" to-port="0" />
		<edge from-layer="2180" from-port="0" to-layer="2181" to-port="0" />
		<edge from-layer="2181" from-port="1" to-layer="2182" to-port="1" />
		<edge from-layer="2182" from-port="2" to-layer="2184" to-port="0" />
		<edge from-layer="2183" from-port="0" to-layer="2184" to-port="1" />
		<edge from-layer="2184" from-port="2" to-layer="2187" to-port="0" />
		<edge from-layer="2185" from-port="0" to-layer="2186" to-port="0" />
		<edge from-layer="2186" from-port="1" to-layer="2187" to-port="1" />
		<edge from-layer="2187" from-port="2" to-layer="2192" to-port="0" />
		<edge from-layer="2188" from-port="0" to-layer="2191" to-port="1" />
		<edge from-layer="2189" from-port="0" to-layer="2191" to-port="2" />
		<edge from-layer="2190" from-port="0" to-layer="2191" to-port="3" />
		<edge from-layer="2191" from-port="5" to-layer="2192" to-port="1" />
		<edge from-layer="2192" from-port="2" to-layer="2195" to-port="0" />
		<edge from-layer="2193" from-port="0" to-layer="2194" to-port="0" />
		<edge from-layer="2194" from-port="1" to-layer="2195" to-port="1" />
		<edge from-layer="2195" from-port="2" to-layer="2196" to-port="1" />
		<edge from-layer="2196" from-port="2" to-layer="2207" to-port="0" />
		<edge from-layer="2196" from-port="2" to-layer="2197" to-port="0" />
		<edge from-layer="2197" from-port="1" to-layer="2200" to-port="0" />
		<edge from-layer="2198" from-port="0" to-layer="2200" to-port="1" />
		<edge from-layer="2199" from-port="0" to-layer="2200" to-port="2" />
		<edge from-layer="2200" from-port="3" to-layer="2201" to-port="1" />
		<edge from-layer="2201" from-port="2" to-layer="2203" to-port="0" />
		<edge from-layer="2201" from-port="2" to-layer="2223" to-port="0" />
		<edge from-layer="2201" from-port="2" to-layer="2237" to-port="0" />
		<edge from-layer="2202" from-port="0" to-layer="2203" to-port="1" />
		<edge from-layer="2203" from-port="4" to-layer="2204" to-port="1" />
		<edge from-layer="2204" from-port="2" to-layer="2216" to-port="0" />
		<edge from-layer="2205" from-port="0" to-layer="2206" to-port="0" />
		<edge from-layer="2206" from-port="1" to-layer="2207" to-port="1" />
		<edge from-layer="2207" from-port="2" to-layer="2210" to-port="0" />
		<edge from-layer="2208" from-port="0" to-layer="2209" to-port="0" />
		<edge from-layer="2209" from-port="1" to-layer="2210" to-port="1" />
		<edge from-layer="2210" from-port="2" to-layer="2225" to-port="0" />
		<edge from-layer="2210" from-port="2" to-layer="2211" to-port="0" />
		<edge from-layer="2210" from-port="2" to-layer="2239" to-port="0" />
		<edge from-layer="2211" from-port="3" to-layer="2213" to-port="0" />
		<edge from-layer="2212" from-port="0" to-layer="2213" to-port="1" />
		<edge from-layer="2213" from-port="2" to-layer="2215" to-port="0" />
		<edge from-layer="2214" from-port="0" to-layer="2215" to-port="1" />
		<edge from-layer="2215" from-port="2" to-layer="2216" to-port="1" />
		<edge from-layer="2216" from-port="2" to-layer="2217" to-port="0" />
		<edge from-layer="2217" from-port="2" to-layer="2246" to-port="0" />
		<edge from-layer="2218" from-port="0" to-layer="2219" to-port="1" />
		<edge from-layer="2219" from-port="2" to-layer="2221" to-port="0" />
		<edge from-layer="2220" from-port="0" to-layer="2221" to-port="1" />
		<edge from-layer="2221" from-port="2" to-layer="2224" to-port="0" />
		<edge from-layer="2222" from-port="0" to-layer="2223" to-port="1" />
		<edge from-layer="2223" from-port="4" to-layer="2224" to-port="1" />
		<edge from-layer="2224" from-port="2" to-layer="2230" to-port="0" />
		<edge from-layer="2225" from-port="3" to-layer="2227" to-port="0" />
		<edge from-layer="2226" from-port="0" to-layer="2227" to-port="1" />
		<edge from-layer="2227" from-port="2" to-layer="2229" to-port="0" />
		<edge from-layer="2228" from-port="0" to-layer="2229" to-port="1" />
		<edge from-layer="2229" from-port="2" to-layer="2230" to-port="1" />
		<edge from-layer="2230" from-port="2" to-layer="2231" to-port="0" />
		<edge from-layer="2231" from-port="2" to-layer="2246" to-port="1" />
		<edge from-layer="2232" from-port="0" to-layer="2233" to-port="1" />
		<edge from-layer="2233" from-port="2" to-layer="2235" to-port="0" />
		<edge from-layer="2234" from-port="0" to-layer="2235" to-port="1" />
		<edge from-layer="2235" from-port="2" to-layer="2238" to-port="0" />
		<edge from-layer="2236" from-port="0" to-layer="2237" to-port="1" />
		<edge from-layer="2237" from-port="4" to-layer="2238" to-port="1" />
		<edge from-layer="2238" from-port="2" to-layer="2244" to-port="0" />
		<edge from-layer="2239" from-port="3" to-layer="2241" to-port="0" />
		<edge from-layer="2240" from-port="0" to-layer="2241" to-port="1" />
		<edge from-layer="2241" from-port="2" to-layer="2243" to-port="0" />
		<edge from-layer="2242" from-port="0" to-layer="2243" to-port="1" />
		<edge from-layer="2243" from-port="2" to-layer="2244" to-port="1" />
		<edge from-layer="2244" from-port="2" to-layer="2245" to-port="0" />
		<edge from-layer="2245" from-port="2" to-layer="2246" to-port="2" />
		<edge from-layer="2246" from-port="3" to-layer="2248" to-port="0" />
		<edge from-layer="2247" from-port="0" to-layer="2248" to-port="1" />
		<edge from-layer="2248" from-port="2" to-layer="2264" to-port="0" />
		<edge from-layer="2249" from-port="0" to-layer="2250" to-port="0" />
		<edge from-layer="2250" from-port="1" to-layer="2251" to-port="1" />
		<edge from-layer="2251" from-port="2" to-layer="2254" to-port="0" />
		<edge from-layer="2252" from-port="0" to-layer="2253" to-port="0" />
		<edge from-layer="2253" from-port="1" to-layer="2254" to-port="1" />
		<edge from-layer="2254" from-port="2" to-layer="2256" to-port="0" />
		<edge from-layer="2255" from-port="0" to-layer="2256" to-port="1" />
		<edge from-layer="2256" from-port="2" to-layer="2257" to-port="0" />
		<edge from-layer="2257" from-port="1" to-layer="2259" to-port="0" />
		<edge from-layer="2258" from-port="0" to-layer="2259" to-port="1" />
		<edge from-layer="2259" from-port="2" to-layer="2261" to-port="0" />
		<edge from-layer="2260" from-port="0" to-layer="2261" to-port="1" />
		<edge from-layer="2261" from-port="2" to-layer="2263" to-port="0" />
		<edge from-layer="2262" from-port="0" to-layer="2263" to-port="1" />
		<edge from-layer="2263" from-port="2" to-layer="2264" to-port="1" />
		<edge from-layer="2264" from-port="2" to-layer="2266" to-port="0" />
		<edge from-layer="2265" from-port="0" to-layer="2266" to-port="1" />
		<edge from-layer="2266" from-port="2" to-layer="2268" to-port="0" />
		<edge from-layer="2267" from-port="0" to-layer="2268" to-port="1" />
		<edge from-layer="2268" from-port="2" to-layer="2271" to-port="0" />
		<edge from-layer="2269" from-port="0" to-layer="2270" to-port="0" />
		<edge from-layer="2270" from-port="1" to-layer="2271" to-port="1" />
		<edge from-layer="2271" from-port="2" to-layer="2274" to-port="0" />
		<edge from-layer="2272" from-port="0" to-layer="2273" to-port="0" />
		<edge from-layer="2273" from-port="1" to-layer="2274" to-port="1" />
		<edge from-layer="2274" from-port="2" to-layer="2275" to-port="1" />
		<edge from-layer="2275" from-port="2" to-layer="2277" to-port="0" />
		<edge from-layer="2276" from-port="0" to-layer="2277" to-port="1" />
		<edge from-layer="2277" from-port="2" to-layer="2280" to-port="0" />
		<edge from-layer="2278" from-port="0" to-layer="2279" to-port="0" />
		<edge from-layer="2279" from-port="1" to-layer="2280" to-port="1" />
		<edge from-layer="2280" from-port="2" to-layer="2283" to-port="0" />
		<edge from-layer="2281" from-port="0" to-layer="2282" to-port="0" />
		<edge from-layer="2282" from-port="1" to-layer="2283" to-port="1" />
		<edge from-layer="2283" from-port="2" to-layer="2297" to-port="0" />
		<edge from-layer="2283" from-port="2" to-layer="2286" to-port="0" />
		<edge from-layer="2284" from-port="0" to-layer="2285" to-port="0" />
		<edge from-layer="2285" from-port="1" to-layer="2286" to-port="1" />
		<edge from-layer="2286" from-port="2" to-layer="2289" to-port="0" />
		<edge from-layer="2287" from-port="0" to-layer="2288" to-port="0" />
		<edge from-layer="2288" from-port="1" to-layer="2289" to-port="1" />
		<edge from-layer="2289" from-port="2" to-layer="2290" to-port="0" />
		<edge from-layer="2290" from-port="1" to-layer="2293" to-port="0" />
		<edge from-layer="2291" from-port="0" to-layer="2292" to-port="0" />
		<edge from-layer="2292" from-port="1" to-layer="2293" to-port="1" />
		<edge from-layer="2293" from-port="2" to-layer="2296" to-port="0" />
		<edge from-layer="2294" from-port="0" to-layer="2295" to-port="0" />
		<edge from-layer="2295" from-port="1" to-layer="2296" to-port="1" />
		<edge from-layer="2296" from-port="2" to-layer="2297" to-port="1" />
		<edge from-layer="2297" from-port="2" to-layer="2299" to-port="0" />
		<edge from-layer="2298" from-port="0" to-layer="2299" to-port="1" />
		<edge from-layer="2299" from-port="2" to-layer="2302" to-port="0" />
		<edge from-layer="2300" from-port="0" to-layer="2301" to-port="0" />
		<edge from-layer="2301" from-port="1" to-layer="2302" to-port="1" />
		<edge from-layer="2302" from-port="2" to-layer="2305" to-port="0" />
		<edge from-layer="2303" from-port="0" to-layer="2304" to-port="0" />
		<edge from-layer="2304" from-port="1" to-layer="2305" to-port="1" />
		<edge from-layer="2305" from-port="2" to-layer="2376" to-port="0" />
		<edge from-layer="2305" from-port="2" to-layer="2350" to-port="0" />
		<edge from-layer="2305" from-port="2" to-layer="2398" to-port="0" />
		<edge from-layer="2305" from-port="2" to-layer="2625" to-port="0" />
		<edge from-layer="2305" from-port="2" to-layer="2308" to-port="0" />
		<edge from-layer="2306" from-port="0" to-layer="2307" to-port="0" />
		<edge from-layer="2307" from-port="1" to-layer="2308" to-port="1" />
		<edge from-layer="2308" from-port="2" to-layer="2311" to-port="0" />
		<edge from-layer="2309" from-port="0" to-layer="2310" to-port="0" />
		<edge from-layer="2310" from-port="1" to-layer="2311" to-port="1" />
		<edge from-layer="2311" from-port="2" to-layer="2312" to-port="0" />
		<edge from-layer="2312" from-port="1" to-layer="2315" to-port="0" />
		<edge from-layer="2313" from-port="0" to-layer="2314" to-port="0" />
		<edge from-layer="2314" from-port="1" to-layer="2315" to-port="1" />
		<edge from-layer="2315" from-port="2" to-layer="2318" to-port="0" />
		<edge from-layer="2316" from-port="0" to-layer="2317" to-port="0" />
		<edge from-layer="2317" from-port="1" to-layer="2318" to-port="1" />
		<edge from-layer="2318" from-port="2" to-layer="2319" to-port="0" />
		<edge from-layer="2319" from-port="1" to-layer="2322" to-port="0" />
		<edge from-layer="2320" from-port="0" to-layer="2321" to-port="0" />
		<edge from-layer="2321" from-port="1" to-layer="2322" to-port="1" />
		<edge from-layer="2322" from-port="2" to-layer="2325" to-port="0" />
		<edge from-layer="2323" from-port="0" to-layer="2324" to-port="0" />
		<edge from-layer="2324" from-port="1" to-layer="2325" to-port="1" />
		<edge from-layer="2325" from-port="2" to-layer="2338" to-port="0" />
		<edge from-layer="2326" from-port="1" to-layer="2332" to-port="1" />
		<edge from-layer="2326" from-port="1" to-layer="2329" to-port="0" />
		<edge from-layer="2327" from-port="0" to-layer="2328" to-port="0" />
		<edge from-layer="2328" from-port="1" to-layer="2329" to-port="1" />
		<edge from-layer="2329" from-port="2" to-layer="2336" to-port="0" />
		<edge from-layer="2330" from-port="0" to-layer="2331" to-port="0" />
		<edge from-layer="2331" from-port="1" to-layer="2332" to-port="0" />
		<edge from-layer="2332" from-port="2" to-layer="2335" to-port="0" />
		<edge from-layer="2333" from-port="0" to-layer="2334" to-port="0" />
		<edge from-layer="2334" from-port="1" to-layer="2335" to-port="1" />
		<edge from-layer="2335" from-port="2" to-layer="2336" to-port="1" />
		<edge from-layer="2336" from-port="2" to-layer="2337" to-port="0" />
		<edge from-layer="2337" from-port="1" to-layer="2338" to-port="1" />
		<edge from-layer="2338" from-port="2" to-layer="2339" to-port="0" />
		<edge from-layer="2339" from-port="1" to-layer="2420" to-port="0" />
		<edge from-layer="2339" from-port="1" to-layer="2577" to-port="0" />
		<edge from-layer="2339" from-port="1" to-layer="2340" to-port="0" />
		<edge from-layer="2339" from-port="1" to-layer="2341" to-port="0" />
		<edge from-layer="2340" from-port="2" to-layer="2592" to-port="4" />
		<edge from-layer="2341" from-port="2" to-layer="2344" to-port="0" />
		<edge from-layer="2342" from-port="0" to-layer="2343" to-port="0" />
		<edge from-layer="2343" from-port="1" to-layer="2344" to-port="1" />
		<edge from-layer="2344" from-port="2" to-layer="2345" to-port="0" />
		<edge from-layer="2345" from-port="1" to-layer="2346" to-port="0" />
		<edge from-layer="2346" from-port="2" to-layer="2349" to-port="0" />
		<edge from-layer="2347" from-port="0" to-layer="2348" to-port="0" />
		<edge from-layer="2348" from-port="1" to-layer="2349" to-port="1" />
		<edge from-layer="2349" from-port="2" to-layer="2350" to-port="1" />
		<edge from-layer="2349" from-port="2" to-layer="2427" to-port="1" />
		<edge from-layer="2350" from-port="2" to-layer="2364" to-port="0" />
		<edge from-layer="2350" from-port="2" to-layer="2353" to-port="0" />
		<edge from-layer="2351" from-port="0" to-layer="2352" to-port="0" />
		<edge from-layer="2352" from-port="1" to-layer="2353" to-port="1" />
		<edge from-layer="2353" from-port="2" to-layer="2356" to-port="0" />
		<edge from-layer="2354" from-port="0" to-layer="2355" to-port="0" />
		<edge from-layer="2355" from-port="1" to-layer="2356" to-port="1" />
		<edge from-layer="2356" from-port="2" to-layer="2358" to-port="0" />
		<edge from-layer="2357" from-port="0" to-layer="2358" to-port="1" />
		<edge from-layer="2358" from-port="2" to-layer="2360" to-port="0" />
		<edge from-layer="2359" from-port="0" to-layer="2360" to-port="1" />
		<edge from-layer="2360" from-port="2" to-layer="2361" to-port="0" />
		<edge from-layer="2361" from-port="2" to-layer="2372" to-port="0" />
		<edge from-layer="2362" from-port="0" to-layer="2363" to-port="0" />
		<edge from-layer="2363" from-port="1" to-layer="2364" to-port="1" />
		<edge from-layer="2364" from-port="2" to-layer="2367" to-port="0" />
		<edge from-layer="2365" from-port="0" to-layer="2366" to-port="0" />
		<edge from-layer="2366" from-port="1" to-layer="2367" to-port="1" />
		<edge from-layer="2367" from-port="2" to-layer="2368" to-port="0" />
		<edge from-layer="2368" from-port="2" to-layer="2370" to-port="0" />
		<edge from-layer="2369" from-port="0" to-layer="2370" to-port="1" />
		<edge from-layer="2370" from-port="2" to-layer="2371" to-port="0" />
		<edge from-layer="2371" from-port="2" to-layer="2372" to-port="1" />
		<edge from-layer="2372" from-port="2" to-layer="2373" to-port="0" />
		<edge from-layer="2373" from-port="1" to-layer="2385" to-port="0" />
		<edge from-layer="2374" from-port="0" to-layer="2375" to-port="0" />
		<edge from-layer="2375" from-port="1" to-layer="2376" to-port="1" />
		<edge from-layer="2376" from-port="2" to-layer="2379" to-port="0" />
		<edge from-layer="2377" from-port="0" to-layer="2378" to-port="0" />
		<edge from-layer="2378" from-port="1" to-layer="2379" to-port="1" />
		<edge from-layer="2379" from-port="2" to-layer="2381" to-port="0" />
		<edge from-layer="2380" from-port="0" to-layer="2381" to-port="1" />
		<edge from-layer="2381" from-port="2" to-layer="2383" to-port="0" />
		<edge from-layer="2382" from-port="0" to-layer="2383" to-port="1" />
		<edge from-layer="2383" from-port="2" to-layer="2384" to-port="0" />
		<edge from-layer="2384" from-port="2" to-layer="2385" to-port="1" />
		<edge from-layer="2385" from-port="2" to-layer="2387" to-port="0" />
		<edge from-layer="2386" from-port="0" to-layer="2387" to-port="1" />
		<edge from-layer="2387" from-port="2" to-layer="2389" to-port="0" />
		<edge from-layer="2388" from-port="0" to-layer="2389" to-port="1" />
		<edge from-layer="2389" from-port="2" to-layer="2391" to-port="0" />
		<edge from-layer="2390" from-port="0" to-layer="2391" to-port="1" />
		<edge from-layer="2391" from-port="2" to-layer="2394" to-port="0" />
		<edge from-layer="2392" from-port="0" to-layer="2393" to-port="0" />
		<edge from-layer="2393" from-port="1" to-layer="2394" to-port="1" />
		<edge from-layer="2394" from-port="2" to-layer="2397" to-port="0" />
		<edge from-layer="2395" from-port="0" to-layer="2396" to-port="0" />
		<edge from-layer="2396" from-port="1" to-layer="2397" to-port="1" />
		<edge from-layer="2397" from-port="2" to-layer="2398" to-port="1" />
		<edge from-layer="2398" from-port="2" to-layer="2400" to-port="0" />
		<edge from-layer="2399" from-port="0" to-layer="2400" to-port="1" />
		<edge from-layer="2400" from-port="2" to-layer="2403" to-port="0" />
		<edge from-layer="2401" from-port="0" to-layer="2402" to-port="0" />
		<edge from-layer="2402" from-port="1" to-layer="2403" to-port="1" />
		<edge from-layer="2403" from-port="2" to-layer="2406" to-port="0" />
		<edge from-layer="2404" from-port="0" to-layer="2405" to-port="0" />
		<edge from-layer="2405" from-port="1" to-layer="2406" to-port="1" />
		<edge from-layer="2406" from-port="2" to-layer="2427" to-port="0" />
		<edge from-layer="2406" from-port="2" to-layer="2526" to-port="0" />
		<edge from-layer="2407" from-port="0" to-layer="2408" to-port="0" />
		<edge from-layer="2408" from-port="1" to-layer="2409" to-port="1" />
		<edge from-layer="2409" from-port="2" to-layer="2412" to-port="0" />
		<edge from-layer="2410" from-port="0" to-layer="2411" to-port="0" />
		<edge from-layer="2411" from-port="1" to-layer="2412" to-port="1" />
		<edge from-layer="2412" from-port="2" to-layer="2414" to-port="0" />
		<edge from-layer="2413" from-port="0" to-layer="2414" to-port="1" />
		<edge from-layer="2414" from-port="2" to-layer="2415" to-port="0" />
		<edge from-layer="2415" from-port="4" to-layer="2470" to-port="0" />
		<edge from-layer="2415" from-port="5" to-layer="2484" to-port="0" />
		<edge from-layer="2415" from-port="3" to-layer="2417" to-port="0" />
		<edge from-layer="2416" from-port="0" to-layer="2417" to-port="1" />
		<edge from-layer="2417" from-port="2" to-layer="2419" to-port="0" />
		<edge from-layer="2418" from-port="0" to-layer="2419" to-port="1" />
		<edge from-layer="2419" from-port="2" to-layer="2455" to-port="0" />
		<edge from-layer="2420" from-port="2" to-layer="2421" to-port="0" />
		<edge from-layer="2421" from-port="2" to-layer="2422" to-port="0" />
		<edge from-layer="2422" from-port="2" to-layer="2426" to-port="0" />
		<edge from-layer="2422" from-port="2" to-layer="2442" to-port="0" />
		<edge from-layer="2423" from-port="0" to-layer="2426" to-port="1" />
		<edge from-layer="2424" from-port="0" to-layer="2426" to-port="2" />
		<edge from-layer="2425" from-port="0" to-layer="2426" to-port="3" />
		<edge from-layer="2426" from-port="5" to-layer="2447" to-port="0" />
		<edge from-layer="2427" from-port="2" to-layer="2430" to-port="0" />
		<edge from-layer="2427" from-port="2" to-layer="2502" to-port="0" />
		<edge from-layer="2428" from-port="0" to-layer="2429" to-port="0" />
		<edge from-layer="2429" from-port="1" to-layer="2430" to-port="1" />
		<edge from-layer="2430" from-port="2" to-layer="2433" to-port="0" />
		<edge from-layer="2431" from-port="0" to-layer="2432" to-port="0" />
		<edge from-layer="2432" from-port="1" to-layer="2433" to-port="1" />
		<edge from-layer="2433" from-port="2" to-layer="2435" to-port="0" />
		<edge from-layer="2434" from-port="0" to-layer="2435" to-port="1" />
		<edge from-layer="2435" from-port="2" to-layer="2438" to-port="0" />
		<edge from-layer="2436" from-port="0" to-layer="2437" to-port="0" />
		<edge from-layer="2437" from-port="1" to-layer="2438" to-port="1" />
		<edge from-layer="2438" from-port="2" to-layer="2443" to-port="0" />
		<edge from-layer="2439" from-port="0" to-layer="2442" to-port="1" />
		<edge from-layer="2440" from-port="0" to-layer="2442" to-port="2" />
		<edge from-layer="2441" from-port="0" to-layer="2442" to-port="3" />
		<edge from-layer="2442" from-port="5" to-layer="2443" to-port="1" />
		<edge from-layer="2443" from-port="2" to-layer="2446" to-port="0" />
		<edge from-layer="2444" from-port="0" to-layer="2445" to-port="0" />
		<edge from-layer="2445" from-port="1" to-layer="2446" to-port="1" />
		<edge from-layer="2446" from-port="2" to-layer="2447" to-port="1" />
		<edge from-layer="2447" from-port="2" to-layer="2458" to-port="0" />
		<edge from-layer="2447" from-port="2" to-layer="2448" to-port="0" />
		<edge from-layer="2448" from-port="1" to-layer="2451" to-port="0" />
		<edge from-layer="2449" from-port="0" to-layer="2451" to-port="1" />
		<edge from-layer="2450" from-port="0" to-layer="2451" to-port="2" />
		<edge from-layer="2451" from-port="3" to-layer="2452" to-port="1" />
		<edge from-layer="2452" from-port="2" to-layer="2454" to-port="0" />
		<edge from-layer="2452" from-port="2" to-layer="2474" to-port="0" />
		<edge from-layer="2452" from-port="2" to-layer="2488" to-port="0" />
		<edge from-layer="2453" from-port="0" to-layer="2454" to-port="1" />
		<edge from-layer="2454" from-port="4" to-layer="2455" to-port="1" />
		<edge from-layer="2455" from-port="2" to-layer="2467" to-port="0" />
		<edge from-layer="2456" from-port="0" to-layer="2457" to-port="0" />
		<edge from-layer="2457" from-port="1" to-layer="2458" to-port="1" />
		<edge from-layer="2458" from-port="2" to-layer="2461" to-port="0" />
		<edge from-layer="2459" from-port="0" to-layer="2460" to-port="0" />
		<edge from-layer="2460" from-port="1" to-layer="2461" to-port="1" />
		<edge from-layer="2461" from-port="2" to-layer="2462" to-port="0" />
		<edge from-layer="2461" from-port="2" to-layer="2476" to-port="0" />
		<edge from-layer="2461" from-port="2" to-layer="2490" to-port="0" />
		<edge from-layer="2462" from-port="3" to-layer="2464" to-port="0" />
		<edge from-layer="2463" from-port="0" to-layer="2464" to-port="1" />
		<edge from-layer="2464" from-port="2" to-layer="2466" to-port="0" />
		<edge from-layer="2465" from-port="0" to-layer="2466" to-port="1" />
		<edge from-layer="2466" from-port="2" to-layer="2467" to-port="1" />
		<edge from-layer="2467" from-port="2" to-layer="2468" to-port="0" />
		<edge from-layer="2468" from-port="2" to-layer="2497" to-port="0" />
		<edge from-layer="2469" from-port="0" to-layer="2470" to-port="1" />
		<edge from-layer="2470" from-port="2" to-layer="2472" to-port="0" />
		<edge from-layer="2471" from-port="0" to-layer="2472" to-port="1" />
		<edge from-layer="2472" from-port="2" to-layer="2475" to-port="0" />
		<edge from-layer="2473" from-port="0" to-layer="2474" to-port="1" />
		<edge from-layer="2474" from-port="4" to-layer="2475" to-port="1" />
		<edge from-layer="2475" from-port="2" to-layer="2481" to-port="0" />
		<edge from-layer="2476" from-port="3" to-layer="2478" to-port="0" />
		<edge from-layer="2477" from-port="0" to-layer="2478" to-port="1" />
		<edge from-layer="2478" from-port="2" to-layer="2480" to-port="0" />
		<edge from-layer="2479" from-port="0" to-layer="2480" to-port="1" />
		<edge from-layer="2480" from-port="2" to-layer="2481" to-port="1" />
		<edge from-layer="2481" from-port="2" to-layer="2482" to-port="0" />
		<edge from-layer="2482" from-port="2" to-layer="2497" to-port="1" />
		<edge from-layer="2483" from-port="0" to-layer="2484" to-port="1" />
		<edge from-layer="2484" from-port="2" to-layer="2486" to-port="0" />
		<edge from-layer="2485" from-port="0" to-layer="2486" to-port="1" />
		<edge from-layer="2486" from-port="2" to-layer="2489" to-port="0" />
		<edge from-layer="2487" from-port="0" to-layer="2488" to-port="1" />
		<edge from-layer="2488" from-port="4" to-layer="2489" to-port="1" />
		<edge from-layer="2489" from-port="2" to-layer="2495" to-port="0" />
		<edge from-layer="2490" from-port="3" to-layer="2492" to-port="0" />
		<edge from-layer="2491" from-port="0" to-layer="2492" to-port="1" />
		<edge from-layer="2492" from-port="2" to-layer="2494" to-port="0" />
		<edge from-layer="2493" from-port="0" to-layer="2494" to-port="1" />
		<edge from-layer="2494" from-port="2" to-layer="2495" to-port="1" />
		<edge from-layer="2495" from-port="2" to-layer="2496" to-port="0" />
		<edge from-layer="2496" from-port="2" to-layer="2497" to-port="2" />
		<edge from-layer="2497" from-port="3" to-layer="2499" to-port="0" />
		<edge from-layer="2498" from-port="0" to-layer="2499" to-port="1" />
		<edge from-layer="2499" from-port="2" to-layer="2515" to-port="0" />
		<edge from-layer="2500" from-port="0" to-layer="2501" to-port="0" />
		<edge from-layer="2501" from-port="1" to-layer="2502" to-port="1" />
		<edge from-layer="2502" from-port="2" to-layer="2505" to-port="0" />
		<edge from-layer="2503" from-port="0" to-layer="2504" to-port="0" />
		<edge from-layer="2504" from-port="1" to-layer="2505" to-port="1" />
		<edge from-layer="2505" from-port="2" to-layer="2507" to-port="0" />
		<edge from-layer="2506" from-port="0" to-layer="2507" to-port="1" />
		<edge from-layer="2507" from-port="2" to-layer="2508" to-port="0" />
		<edge from-layer="2508" from-port="1" to-layer="2510" to-port="0" />
		<edge from-layer="2509" from-port="0" to-layer="2510" to-port="1" />
		<edge from-layer="2510" from-port="2" to-layer="2512" to-port="0" />
		<edge from-layer="2511" from-port="0" to-layer="2512" to-port="1" />
		<edge from-layer="2512" from-port="2" to-layer="2514" to-port="0" />
		<edge from-layer="2513" from-port="0" to-layer="2514" to-port="1" />
		<edge from-layer="2514" from-port="2" to-layer="2515" to-port="1" />
		<edge from-layer="2515" from-port="2" to-layer="2517" to-port="0" />
		<edge from-layer="2516" from-port="0" to-layer="2517" to-port="1" />
		<edge from-layer="2517" from-port="2" to-layer="2519" to-port="0" />
		<edge from-layer="2518" from-port="0" to-layer="2519" to-port="1" />
		<edge from-layer="2519" from-port="2" to-layer="2522" to-port="0" />
		<edge from-layer="2520" from-port="0" to-layer="2521" to-port="0" />
		<edge from-layer="2521" from-port="1" to-layer="2522" to-port="1" />
		<edge from-layer="2522" from-port="2" to-layer="2525" to-port="0" />
		<edge from-layer="2523" from-port="0" to-layer="2524" to-port="0" />
		<edge from-layer="2524" from-port="1" to-layer="2525" to-port="1" />
		<edge from-layer="2525" from-port="2" to-layer="2526" to-port="1" />
		<edge from-layer="2526" from-port="2" to-layer="2528" to-port="0" />
		<edge from-layer="2527" from-port="0" to-layer="2528" to-port="1" />
		<edge from-layer="2528" from-port="2" to-layer="2531" to-port="0" />
		<edge from-layer="2529" from-port="0" to-layer="2530" to-port="0" />
		<edge from-layer="2530" from-port="1" to-layer="2531" to-port="1" />
		<edge from-layer="2531" from-port="2" to-layer="2534" to-port="0" />
		<edge from-layer="2532" from-port="0" to-layer="2533" to-port="0" />
		<edge from-layer="2533" from-port="1" to-layer="2534" to-port="1" />
		<edge from-layer="2534" from-port="2" to-layer="2537" to-port="0" />
		<edge from-layer="2534" from-port="2" to-layer="2548" to-port="0" />
		<edge from-layer="2535" from-port="0" to-layer="2536" to-port="0" />
		<edge from-layer="2536" from-port="1" to-layer="2537" to-port="1" />
		<edge from-layer="2537" from-port="2" to-layer="2540" to-port="0" />
		<edge from-layer="2538" from-port="0" to-layer="2539" to-port="0" />
		<edge from-layer="2539" from-port="1" to-layer="2540" to-port="1" />
		<edge from-layer="2540" from-port="2" to-layer="2541" to-port="0" />
		<edge from-layer="2541" from-port="1" to-layer="2544" to-port="0" />
		<edge from-layer="2542" from-port="0" to-layer="2543" to-port="0" />
		<edge from-layer="2543" from-port="1" to-layer="2544" to-port="1" />
		<edge from-layer="2544" from-port="2" to-layer="2547" to-port="0" />
		<edge from-layer="2545" from-port="0" to-layer="2546" to-port="0" />
		<edge from-layer="2546" from-port="1" to-layer="2547" to-port="1" />
		<edge from-layer="2547" from-port="2" to-layer="2548" to-port="1" />
		<edge from-layer="2548" from-port="2" to-layer="2550" to-port="0" />
		<edge from-layer="2549" from-port="0" to-layer="2550" to-port="1" />
		<edge from-layer="2550" from-port="2" to-layer="2553" to-port="0" />
		<edge from-layer="2551" from-port="0" to-layer="2552" to-port="0" />
		<edge from-layer="2552" from-port="1" to-layer="2553" to-port="1" />
		<edge from-layer="2553" from-port="2" to-layer="2556" to-port="0" />
		<edge from-layer="2554" from-port="0" to-layer="2555" to-port="0" />
		<edge from-layer="2555" from-port="1" to-layer="2556" to-port="1" />
		<edge from-layer="2556" from-port="2" to-layer="2632" to-port="0" />
		<edge from-layer="2556" from-port="2" to-layer="2559" to-port="0" />
		<edge from-layer="2557" from-port="0" to-layer="2558" to-port="0" />
		<edge from-layer="2558" from-port="1" to-layer="2559" to-port="1" />
		<edge from-layer="2559" from-port="2" to-layer="2562" to-port="0" />
		<edge from-layer="2560" from-port="0" to-layer="2561" to-port="0" />
		<edge from-layer="2561" from-port="1" to-layer="2562" to-port="1" />
		<edge from-layer="2562" from-port="2" to-layer="2563" to-port="0" />
		<edge from-layer="2563" from-port="1" to-layer="2566" to-port="0" />
		<edge from-layer="2564" from-port="0" to-layer="2565" to-port="0" />
		<edge from-layer="2565" from-port="1" to-layer="2566" to-port="1" />
		<edge from-layer="2566" from-port="2" to-layer="2569" to-port="0" />
		<edge from-layer="2567" from-port="0" to-layer="2568" to-port="0" />
		<edge from-layer="2568" from-port="1" to-layer="2569" to-port="1" />
		<edge from-layer="2569" from-port="2" to-layer="2570" to-port="0" />
		<edge from-layer="2570" from-port="1" to-layer="2573" to-port="0" />
		<edge from-layer="2571" from-port="0" to-layer="2572" to-port="0" />
		<edge from-layer="2572" from-port="1" to-layer="2573" to-port="1" />
		<edge from-layer="2573" from-port="2" to-layer="2576" to-port="0" />
		<edge from-layer="2574" from-port="0" to-layer="2575" to-port="0" />
		<edge from-layer="2575" from-port="1" to-layer="2576" to-port="1" />
		<edge from-layer="2576" from-port="2" to-layer="2589" to-port="0" />
		<edge from-layer="2577" from-port="1" to-layer="2583" to-port="1" />
		<edge from-layer="2577" from-port="1" to-layer="2580" to-port="0" />
		<edge from-layer="2578" from-port="0" to-layer="2579" to-port="0" />
		<edge from-layer="2579" from-port="1" to-layer="2580" to-port="1" />
		<edge from-layer="2580" from-port="2" to-layer="2587" to-port="0" />
		<edge from-layer="2581" from-port="0" to-layer="2582" to-port="0" />
		<edge from-layer="2582" from-port="1" to-layer="2583" to-port="0" />
		<edge from-layer="2583" from-port="2" to-layer="2586" to-port="0" />
		<edge from-layer="2584" from-port="0" to-layer="2585" to-port="0" />
		<edge from-layer="2585" from-port="1" to-layer="2586" to-port="1" />
		<edge from-layer="2586" from-port="2" to-layer="2587" to-port="1" />
		<edge from-layer="2587" from-port="2" to-layer="2588" to-port="0" />
		<edge from-layer="2588" from-port="1" to-layer="2589" to-port="1" />
		<edge from-layer="2589" from-port="2" to-layer="2590" to-port="0" />
		<edge from-layer="2590" from-port="1" to-layer="2591" to-port="0" />
		<edge from-layer="2591" from-port="2" to-layer="2592" to-port="5" />
		<edge from-layer="2592" from-port="6" to-layer="2593" to-port="0" />
		<edge from-layer="2593" from-port="3" to-layer="2594" to-port="0" />
		<edge from-layer="2595" from-port="0" to-layer="2596" to-port="0" />
		<edge from-layer="2596" from-port="1" to-layer="2597" to-port="1" />
		<edge from-layer="2597" from-port="2" to-layer="2600" to-port="0" />
		<edge from-layer="2598" from-port="0" to-layer="2599" to-port="0" />
		<edge from-layer="2599" from-port="1" to-layer="2600" to-port="1" />
		<edge from-layer="2600" from-port="2" to-layer="2601" to-port="0" />
		<edge from-layer="2601" from-port="2" to-layer="2637" to-port="0" />
		<edge from-layer="2602" from-port="0" to-layer="2603" to-port="0" />
		<edge from-layer="2603" from-port="1" to-layer="2604" to-port="1" />
		<edge from-layer="2604" from-port="2" to-layer="2607" to-port="0" />
		<edge from-layer="2605" from-port="0" to-layer="2606" to-port="0" />
		<edge from-layer="2606" from-port="1" to-layer="2607" to-port="1" />
		<edge from-layer="2607" from-port="2" to-layer="2608" to-port="0" />
		<edge from-layer="2608" from-port="2" to-layer="2637" to-port="1" />
		<edge from-layer="2609" from-port="0" to-layer="2610" to-port="0" />
		<edge from-layer="2610" from-port="1" to-layer="2611" to-port="1" />
		<edge from-layer="2611" from-port="2" to-layer="2614" to-port="0" />
		<edge from-layer="2612" from-port="0" to-layer="2613" to-port="0" />
		<edge from-layer="2613" from-port="1" to-layer="2614" to-port="1" />
		<edge from-layer="2614" from-port="2" to-layer="2615" to-port="0" />
		<edge from-layer="2615" from-port="2" to-layer="2637" to-port="2" />
		<edge from-layer="2616" from-port="0" to-layer="2617" to-port="0" />
		<edge from-layer="2617" from-port="1" to-layer="2618" to-port="1" />
		<edge from-layer="2618" from-port="2" to-layer="2621" to-port="0" />
		<edge from-layer="2619" from-port="0" to-layer="2620" to-port="0" />
		<edge from-layer="2620" from-port="1" to-layer="2621" to-port="1" />
		<edge from-layer="2621" from-port="2" to-layer="2622" to-port="0" />
		<edge from-layer="2622" from-port="2" to-layer="2637" to-port="3" />
		<edge from-layer="2623" from-port="0" to-layer="2624" to-port="0" />
		<edge from-layer="2624" from-port="1" to-layer="2625" to-port="1" />
		<edge from-layer="2625" from-port="2" to-layer="2628" to-port="0" />
		<edge from-layer="2626" from-port="0" to-layer="2627" to-port="0" />
		<edge from-layer="2627" from-port="1" to-layer="2628" to-port="1" />
		<edge from-layer="2628" from-port="2" to-layer="2629" to-port="0" />
		<edge from-layer="2629" from-port="2" to-layer="2637" to-port="4" />
		<edge from-layer="2630" from-port="0" to-layer="2631" to-port="0" />
		<edge from-layer="2631" from-port="1" to-layer="2632" to-port="1" />
		<edge from-layer="2632" from-port="2" to-layer="2635" to-port="0" />
		<edge from-layer="2633" from-port="0" to-layer="2634" to-port="0" />
		<edge from-layer="2634" from-port="1" to-layer="2635" to-port="1" />
		<edge from-layer="2635" from-port="2" to-layer="2636" to-port="0" />
		<edge from-layer="2636" from-port="2" to-layer="2637" to-port="5" />
		<edge from-layer="2637" from-port="6" to-layer="2638" to-port="0" />
		<edge from-layer="2638" from-port="3" to-layer="2639" to-port="0" />
	</edges>
	<rt_info>
		<Runtime_version value="2024.6.0-17404-4c0f47d2335-releases/2024/6" />
		<conversion_parameters>
			<framework value="pytorch" />
			<is_python_object value="True" />
		</conversion_parameters>
	</rt_info>
</net>
