<?xml version="1.0"?>
<net name="Model0" version="11">
	<layers>
		<layer id="1" name="images.1" type="Parameter" version="opset1">
			<data shape="?,3,?,?" element_type="f32" />
			<output>
				<port id="0" precision="FP32" names="images.1">
					<dim>-1</dim>
					<dim>3</dim>
					<dim>-1</dim>
					<dim>-1</dim>
				</port>
			</output>
		</layer>
		<layer id="0" name="orig_target_sizes.1" type="Parameter" version="opset1">
			<data shape="?,?" element_type="i64" />
			<output>
				<port id="0" precision="I64" names="orig_target_sizes.1">
					<dim>-1</dim>
					<dim>-1</dim>
				</port>
			</output>
		</layer>
		<layer id="2" name="aten::to/Convert_compressed" type="Const" version="opset1">
			<data element_type="f16" shape="1, 8400, 1" offset="0" size="16800" />
			<output>
				<port id="0" precision="FP16" names="2408">
					<dim>1</dim>
					<dim>8400</dim>
					<dim>1</dim>
				</port>
			</output>
		</layer>
		<layer id="3" name="aten::to/Convert" type="Convert" version="opset1">
			<data destination_type="f32" />
			<rt_info>
				<attribute name="decompression" version="0" />
			</rt_info>
			<input>
				<port id="0" precision="FP16">
					<dim>1</dim>
					<dim>8400</dim>
					<dim>1</dim>
				</port>
			</input>
			<output>
				<port id="1" precision="FP32">
					<dim>1</dim>
					<dim>8400</dim>
					<dim>1</dim>
				</port>
			</output>
		</layer>
		<layer id="4" name="images.1/fq_output_0/input_low" type="Const" version="opset1">
			<data element_type="f32" shape="" offset="16800" size="4" />
			<output>
				<port id="0" precision="FP32" />
			</output>
		</layer>
		<layer id="5" name="images.1/fq_output_0/input_high" type="Const" version="opset1">
			<data element_type="f32" shape="" offset="16804" size="4" />
			<output>
				<port id="0" precision="FP32" />
			</output>
		</layer>
		<layer id="6" name="images.1/fq_output_0/output_low" type="Const" version="opset1">
			<data element_type="f32" shape="" offset="16800" size="4" />
			<output>
				<port id="0" precision="FP32" />
			</output>
		</layer>
		<layer id="7" name="images.1/fq_output_0/output_high" type="Const" version="opset1">
			<data element_type="f32" shape="" offset="16804" size="4" />
			<output>
				<port id="0" precision="FP32" />
			</output>
		</layer>
		<layer id="8" name="images.1/fq_output_0" type="FakeQuantize" version="opset1">
			<data levels="256" auto_broadcast="numpy" />
			<input>
				<port id="0" precision="FP32">
					<dim>-1</dim>
					<dim>3</dim>
					<dim>-1</dim>
					<dim>-1</dim>
				</port>
				<port id="1" precision="FP32" />
				<port id="2" precision="FP32" />
				<port id="3" precision="FP32" />
				<port id="4" precision="FP32" />
			</input>
			<output>
				<port id="5" precision="FP32">
					<dim>-1</dim>
					<dim>3</dim>
					<dim>-1</dim>
					<dim>-1</dim>
				</port>
			</output>
		</layer>
		<layer id="9" name="Constant_3317034" type="Const" version="opset1">
			<data element_type="i8" shape="32, 3, 3, 3" offset="16808" size="864" />
			<output>
				<port id="0" precision="I8">
					<dim>32</dim>
					<dim>3</dim>
					<dim>3</dim>
					<dim>3</dim>
				</port>
			</output>
		</layer>
		<layer id="10" name="Convert_3317035" type="Convert" version="opset1">
			<data destination_type="f32" />
			<input>
				<port id="0" precision="I8">
					<dim>32</dim>
					<dim>3</dim>
					<dim>3</dim>
					<dim>3</dim>
				</port>
			</input>
			<output>
				<port id="1" precision="FP32">
					<dim>32</dim>
					<dim>3</dim>
					<dim>3</dim>
					<dim>3</dim>
				</port>
			</output>
		</layer>
		<layer id="11" name="Constant_3317036" type="Const" version="opset1">
			<data element_type="f32" shape="32, 1, 1, 1" offset="17672" size="128" />
			<output>
				<port id="0" precision="FP32">
					<dim>32</dim>
					<dim>1</dim>
					<dim>1</dim>
					<dim>1</dim>
				</port>
			</output>
		</layer>
		<layer id="12" name="aten::mul/Multiply_1/fq_weights_1" type="Multiply" version="opset1">
			<data auto_broadcast="numpy" />
			<input>
				<port id="0" precision="FP32">
					<dim>32</dim>
					<dim>3</dim>
					<dim>3</dim>
					<dim>3</dim>
				</port>
				<port id="1" precision="FP32">
					<dim>32</dim>
					<dim>1</dim>
					<dim>1</dim>
					<dim>1</dim>
				</port>
			</input>
			<output>
				<port id="2" precision="FP32">
					<dim>32</dim>
					<dim>3</dim>
					<dim>3</dim>
					<dim>3</dim>
				</port>
			</output>
		</layer>
		<layer id="13" name="aten::mul/Multiply_1" type="Convolution" version="opset1">
			<data strides="2, 2" dilations="1, 1" pads_begin="1, 1" pads_end="1, 1" auto_pad="explicit" />
			<input>
				<port id="0" precision="FP32">
					<dim>-1</dim>
					<dim>3</dim>
					<dim>-1</dim>
					<dim>-1</dim>
				</port>
				<port id="1" precision="FP32">
					<dim>32</dim>
					<dim>3</dim>
					<dim>3</dim>
					<dim>3</dim>
				</port>
			</input>
			<output>
				<port id="2" precision="FP32" names="96">
					<dim>-1</dim>
					<dim>32</dim>
					<dim>-1</dim>
					<dim>-1</dim>
				</port>
			</output>
		</layer>
		<layer id="14" name="aten::add/Multiply_compressed" type="Const" version="opset1">
			<data element_type="f16" shape="1, 32, 1, 1" offset="17800" size="64" />
			<output>
				<port id="0" precision="FP16">
					<dim>1</dim>
					<dim>32</dim>
					<dim>1</dim>
					<dim>1</dim>
				</port>
			</output>
		</layer>
		<layer id="15" name="aten::add/Multiply" type="Convert" version="opset1">
			<data destination_type="f32" />
			<rt_info>
				<attribute name="decompression" version="0" />
			</rt_info>
			<input>
				<port id="0" precision="FP16">
					<dim>1</dim>
					<dim>32</dim>
					<dim>1</dim>
					<dim>1</dim>
				</port>
			</input>
			<output>
				<port id="1" precision="FP32">
					<dim>1</dim>
					<dim>32</dim>
					<dim>1</dim>
					<dim>1</dim>
				</port>
			</output>
		</layer>
		<layer id="16" name="aten::add/Add" type="Add" version="opset1">
			<data auto_broadcast="numpy" />
			<input>
				<port id="0" precision="FP32">
					<dim>-1</dim>
					<dim>32</dim>
					<dim>-1</dim>
					<dim>-1</dim>
				</port>
				<port id="1" precision="FP32">
					<dim>1</dim>
					<dim>32</dim>
					<dim>1</dim>
					<dim>1</dim>
				</port>
			</input>
			<output>
				<port id="2" precision="FP32" names="97_1">
					<dim>-1</dim>
					<dim>32</dim>
					<dim>-1</dim>
					<dim>-1</dim>
				</port>
			</output>
		</layer>
		<layer id="17" name="aten::relu_/Relu" type="ReLU" version="opset1">
			<input>
				<port id="0" precision="FP32">
					<dim>-1</dim>
					<dim>32</dim>
					<dim>-1</dim>
					<dim>-1</dim>
				</port>
			</input>
			<output>
				<port id="1" precision="FP32" names="97,input.103">
					<dim>-1</dim>
					<dim>32</dim>
					<dim>-1</dim>
					<dim>-1</dim>
				</port>
			</output>
		</layer>
		<layer id="18" name="aten::relu_/Relu/fq_output_0/input_low" type="Const" version="opset1">
			<data element_type="f32" shape="" offset="16800" size="4" />
			<output>
				<port id="0" precision="FP32" />
			</output>
		</layer>
		<layer id="19" name="aten::relu_/Relu/fq_output_0/input_high" type="Const" version="opset1">
			<data element_type="f32" shape="" offset="17864" size="4" />
			<output>
				<port id="0" precision="FP32" />
			</output>
		</layer>
		<layer id="20" name="aten::relu_/Relu/fq_output_0/output_low" type="Const" version="opset1">
			<data element_type="f32" shape="" offset="16800" size="4" />
			<output>
				<port id="0" precision="FP32" />
			</output>
		</layer>
		<layer id="21" name="aten::relu_/Relu/fq_output_0/output_high" type="Const" version="opset1">
			<data element_type="f32" shape="" offset="17864" size="4" />
			<output>
				<port id="0" precision="FP32" />
			</output>
		</layer>
		<layer id="22" name="aten::relu_/Relu/fq_output_0" type="FakeQuantize" version="opset1">
			<data levels="256" auto_broadcast="numpy" />
			<input>
				<port id="0" precision="FP32">
					<dim>-1</dim>
					<dim>32</dim>
					<dim>-1</dim>
					<dim>-1</dim>
				</port>
				<port id="1" precision="FP32" />
				<port id="2" precision="FP32" />
				<port id="3" precision="FP32" />
				<port id="4" precision="FP32" />
			</input>
			<output>
				<port id="5" precision="FP32">
					<dim>-1</dim>
					<dim>32</dim>
					<dim>-1</dim>
					<dim>-1</dim>
				</port>
			</output>
		</layer>
		<layer id="23" name="Constant_3317039" type="Const" version="opset1">
			<data element_type="i8" shape="32, 32, 3, 3" offset="17868" size="9216" />
			<output>
				<port id="0" precision="I8">
					<dim>32</dim>
					<dim>32</dim>
					<dim>3</dim>
					<dim>3</dim>
				</port>
			</output>
		</layer>
		<layer id="24" name="Convert_3317040" type="Convert" version="opset1">
			<data destination_type="f32" />
			<input>
				<port id="0" precision="I8">
					<dim>32</dim>
					<dim>32</dim>
					<dim>3</dim>
					<dim>3</dim>
				</port>
			</input>
			<output>
				<port id="1" precision="FP32">
					<dim>32</dim>
					<dim>32</dim>
					<dim>3</dim>
					<dim>3</dim>
				</port>
			</output>
		</layer>
		<layer id="25" name="Constant_3317041" type="Const" version="opset1">
			<data element_type="f32" shape="32, 1, 1, 1" offset="27084" size="128" />
			<output>
				<port id="0" precision="FP32">
					<dim>32</dim>
					<dim>1</dim>
					<dim>1</dim>
					<dim>1</dim>
				</port>
			</output>
		</layer>
		<layer id="26" name="aten::mul/Multiply_3/fq_weights_1" type="Multiply" version="opset1">
			<data auto_broadcast="numpy" />
			<input>
				<port id="0" precision="FP32">
					<dim>32</dim>
					<dim>32</dim>
					<dim>3</dim>
					<dim>3</dim>
				</port>
				<port id="1" precision="FP32">
					<dim>32</dim>
					<dim>1</dim>
					<dim>1</dim>
					<dim>1</dim>
				</port>
			</input>
			<output>
				<port id="2" precision="FP32">
					<dim>32</dim>
					<dim>32</dim>
					<dim>3</dim>
					<dim>3</dim>
				</port>
			</output>
		</layer>
		<layer id="27" name="aten::mul/Multiply_3" type="Convolution" version="opset1">
			<data strides="1, 1" dilations="1, 1" pads_begin="1, 1" pads_end="1, 1" auto_pad="explicit" />
			<input>
				<port id="0" precision="FP32">
					<dim>-1</dim>
					<dim>32</dim>
					<dim>-1</dim>
					<dim>-1</dim>
				</port>
				<port id="1" precision="FP32">
					<dim>32</dim>
					<dim>32</dim>
					<dim>3</dim>
					<dim>3</dim>
				</port>
			</input>
			<output>
				<port id="2" precision="FP32" names="125">
					<dim>-1</dim>
					<dim>32</dim>
					<dim>-1</dim>
					<dim>-1</dim>
				</port>
			</output>
		</layer>
		<layer id="28" name="aten::add/Multiply_1_compressed" type="Const" version="opset1">
			<data element_type="f16" shape="1, 32, 1, 1" offset="27212" size="64" />
			<output>
				<port id="0" precision="FP16">
					<dim>1</dim>
					<dim>32</dim>
					<dim>1</dim>
					<dim>1</dim>
				</port>
			</output>
		</layer>
		<layer id="29" name="aten::add/Multiply_1" type="Convert" version="opset1">
			<data destination_type="f32" />
			<rt_info>
				<attribute name="decompression" version="0" />
			</rt_info>
			<input>
				<port id="0" precision="FP16">
					<dim>1</dim>
					<dim>32</dim>
					<dim>1</dim>
					<dim>1</dim>
				</port>
			</input>
			<output>
				<port id="1" precision="FP32">
					<dim>1</dim>
					<dim>32</dim>
					<dim>1</dim>
					<dim>1</dim>
				</port>
			</output>
		</layer>
		<layer id="30" name="aten::add/Add_1" type="Add" version="opset1">
			<data auto_broadcast="numpy" />
			<input>
				<port id="0" precision="FP32">
					<dim>-1</dim>
					<dim>32</dim>
					<dim>-1</dim>
					<dim>-1</dim>
				</port>
				<port id="1" precision="FP32">
					<dim>1</dim>
					<dim>32</dim>
					<dim>1</dim>
					<dim>1</dim>
				</port>
			</input>
			<output>
				<port id="2" precision="FP32" names="126_1">
					<dim>-1</dim>
					<dim>32</dim>
					<dim>-1</dim>
					<dim>-1</dim>
				</port>
			</output>
		</layer>
		<layer id="31" name="aten::relu_/Relu_1" type="ReLU" version="opset1">
			<input>
				<port id="0" precision="FP32">
					<dim>-1</dim>
					<dim>32</dim>
					<dim>-1</dim>
					<dim>-1</dim>
				</port>
			</input>
			<output>
				<port id="1" precision="FP32" names="126,input.143">
					<dim>-1</dim>
					<dim>32</dim>
					<dim>-1</dim>
					<dim>-1</dim>
				</port>
			</output>
		</layer>
		<layer id="32" name="aten::relu_/Relu_1/fq_output_0/input_low" type="Const" version="opset1">
			<data element_type="f32" shape="" offset="16800" size="4" />
			<output>
				<port id="0" precision="FP32" />
			</output>
		</layer>
		<layer id="33" name="aten::relu_/Relu_1/fq_output_0/input_high" type="Const" version="opset1">
			<data element_type="f32" shape="" offset="27276" size="4" />
			<output>
				<port id="0" precision="FP32" />
			</output>
		</layer>
		<layer id="34" name="aten::relu_/Relu_1/fq_output_0/output_low" type="Const" version="opset1">
			<data element_type="f32" shape="" offset="16800" size="4" />
			<output>
				<port id="0" precision="FP32" />
			</output>
		</layer>
		<layer id="35" name="aten::relu_/Relu_1/fq_output_0/output_high" type="Const" version="opset1">
			<data element_type="f32" shape="" offset="27276" size="4" />
			<output>
				<port id="0" precision="FP32" />
			</output>
		</layer>
		<layer id="36" name="aten::relu_/Relu_1/fq_output_0" type="FakeQuantize" version="opset1">
			<data levels="256" auto_broadcast="numpy" />
			<input>
				<port id="0" precision="FP32">
					<dim>-1</dim>
					<dim>32</dim>
					<dim>-1</dim>
					<dim>-1</dim>
				</port>
				<port id="1" precision="FP32" />
				<port id="2" precision="FP32" />
				<port id="3" precision="FP32" />
				<port id="4" precision="FP32" />
			</input>
			<output>
				<port id="5" precision="FP32">
					<dim>-1</dim>
					<dim>32</dim>
					<dim>-1</dim>
					<dim>-1</dim>
				</port>
			</output>
		</layer>
		<layer id="37" name="Constant_3317044" type="Const" version="opset1">
			<data element_type="i8" shape="64, 32, 3, 3" offset="27280" size="18432" />
			<output>
				<port id="0" precision="I8">
					<dim>64</dim>
					<dim>32</dim>
					<dim>3</dim>
					<dim>3</dim>
				</port>
			</output>
		</layer>
		<layer id="38" name="Convert_3317045" type="Convert" version="opset1">
			<data destination_type="f32" />
			<input>
				<port id="0" precision="I8">
					<dim>64</dim>
					<dim>32</dim>
					<dim>3</dim>
					<dim>3</dim>
				</port>
			</input>
			<output>
				<port id="1" precision="FP32">
					<dim>64</dim>
					<dim>32</dim>
					<dim>3</dim>
					<dim>3</dim>
				</port>
			</output>
		</layer>
		<layer id="39" name="Constant_3317046" type="Const" version="opset1">
			<data element_type="f32" shape="64, 1, 1, 1" offset="45712" size="256" />
			<output>
				<port id="0" precision="FP32">
					<dim>64</dim>
					<dim>1</dim>
					<dim>1</dim>
					<dim>1</dim>
				</port>
			</output>
		</layer>
		<layer id="40" name="aten::mul/Multiply_5/fq_weights_1" type="Multiply" version="opset1">
			<data auto_broadcast="numpy" />
			<input>
				<port id="0" precision="FP32">
					<dim>64</dim>
					<dim>32</dim>
					<dim>3</dim>
					<dim>3</dim>
				</port>
				<port id="1" precision="FP32">
					<dim>64</dim>
					<dim>1</dim>
					<dim>1</dim>
					<dim>1</dim>
				</port>
			</input>
			<output>
				<port id="2" precision="FP32">
					<dim>64</dim>
					<dim>32</dim>
					<dim>3</dim>
					<dim>3</dim>
				</port>
			</output>
		</layer>
		<layer id="41" name="aten::mul/Multiply_5" type="Convolution" version="opset1">
			<data strides="1, 1" dilations="1, 1" pads_begin="1, 1" pads_end="1, 1" auto_pad="explicit" />
			<input>
				<port id="0" precision="FP32">
					<dim>-1</dim>
					<dim>32</dim>
					<dim>-1</dim>
					<dim>-1</dim>
				</port>
				<port id="1" precision="FP32">
					<dim>64</dim>
					<dim>32</dim>
					<dim>3</dim>
					<dim>3</dim>
				</port>
			</input>
			<output>
				<port id="2" precision="FP32" names="154">
					<dim>-1</dim>
					<dim>64</dim>
					<dim>-1</dim>
					<dim>-1</dim>
				</port>
			</output>
		</layer>
		<layer id="42" name="aten::add/Multiply_2_compressed" type="Const" version="opset1">
			<data element_type="f16" shape="1, 64, 1, 1" offset="45968" size="128" />
			<output>
				<port id="0" precision="FP16">
					<dim>1</dim>
					<dim>64</dim>
					<dim>1</dim>
					<dim>1</dim>
				</port>
			</output>
		</layer>
		<layer id="43" name="aten::add/Multiply_2" type="Convert" version="opset1">
			<data destination_type="f32" />
			<rt_info>
				<attribute name="decompression" version="0" />
			</rt_info>
			<input>
				<port id="0" precision="FP16">
					<dim>1</dim>
					<dim>64</dim>
					<dim>1</dim>
					<dim>1</dim>
				</port>
			</input>
			<output>
				<port id="1" precision="FP32">
					<dim>1</dim>
					<dim>64</dim>
					<dim>1</dim>
					<dim>1</dim>
				</port>
			</output>
		</layer>
		<layer id="44" name="aten::add/Add_2" type="Add" version="opset1">
			<data auto_broadcast="numpy" />
			<input>
				<port id="0" precision="FP32">
					<dim>-1</dim>
					<dim>64</dim>
					<dim>-1</dim>
					<dim>-1</dim>
				</port>
				<port id="1" precision="FP32">
					<dim>1</dim>
					<dim>64</dim>
					<dim>1</dim>
					<dim>1</dim>
				</port>
			</input>
			<output>
				<port id="2" precision="FP32" names="155_1">
					<dim>-1</dim>
					<dim>64</dim>
					<dim>-1</dim>
					<dim>-1</dim>
				</port>
			</output>
		</layer>
		<layer id="45" name="aten::relu_/Relu_2" type="ReLU" version="opset1">
			<input>
				<port id="0" precision="FP32">
					<dim>-1</dim>
					<dim>64</dim>
					<dim>-1</dim>
					<dim>-1</dim>
				</port>
			</input>
			<output>
				<port id="1" precision="FP32" names="155,input.97">
					<dim>-1</dim>
					<dim>64</dim>
					<dim>-1</dim>
					<dim>-1</dim>
				</port>
			</output>
		</layer>
		<layer id="46" name="aten::relu_/Relu_2/fq_output_0/input_low" type="Const" version="opset1">
			<data element_type="f32" shape="" offset="16800" size="4" />
			<output>
				<port id="0" precision="FP32" />
			</output>
		</layer>
		<layer id="47" name="aten::relu_/Relu_2/fq_output_0/input_high" type="Const" version="opset1">
			<data element_type="f32" shape="" offset="46096" size="4" />
			<output>
				<port id="0" precision="FP32" />
			</output>
		</layer>
		<layer id="48" name="aten::relu_/Relu_2/fq_output_0/output_low" type="Const" version="opset1">
			<data element_type="f32" shape="" offset="16800" size="4" />
			<output>
				<port id="0" precision="FP32" />
			</output>
		</layer>
		<layer id="49" name="aten::relu_/Relu_2/fq_output_0/output_high" type="Const" version="opset1">
			<data element_type="f32" shape="" offset="46096" size="4" />
			<output>
				<port id="0" precision="FP32" />
			</output>
		</layer>
		<layer id="50" name="aten::relu_/Relu_2/fq_output_0" type="FakeQuantize" version="opset1">
			<data levels="256" auto_broadcast="numpy" />
			<input>
				<port id="0" precision="FP32">
					<dim>-1</dim>
					<dim>64</dim>
					<dim>-1</dim>
					<dim>-1</dim>
				</port>
				<port id="1" precision="FP32" />
				<port id="2" precision="FP32" />
				<port id="3" precision="FP32" />
				<port id="4" precision="FP32" />
			</input>
			<output>
				<port id="5" precision="FP32">
					<dim>-1</dim>
					<dim>64</dim>
					<dim>-1</dim>
					<dim>-1</dim>
				</port>
			</output>
		</layer>
		<layer id="51" name="aten::max_pool2d/MaxPool" type="MaxPool" version="opset14">
			<data strides="2, 2" dilations="1, 1" pads_begin="1, 1" pads_end="1, 1" kernel="3, 3" rounding_type="floor" auto_pad="explicit" index_element_type="i64" axis="2" />
			<input>
				<port id="0" precision="FP32">
					<dim>-1</dim>
					<dim>64</dim>
					<dim>-1</dim>
					<dim>-1</dim>
				</port>
			</input>
			<output>
				<port id="1" precision="FP32" names="161,input.3">
					<dim>-1</dim>
					<dim>64</dim>
					<dim>-1</dim>
					<dim>-1</dim>
				</port>
				<port id="2" precision="I64">
					<dim>-1</dim>
					<dim>64</dim>
					<dim>-1</dim>
					<dim>-1</dim>
				</port>
			</output>
		</layer>
		<layer id="52" name="Constant_3317049" type="Const" version="opset1">
			<data element_type="i8" shape="64, 64, 1, 1" offset="46100" size="4096" />
			<output>
				<port id="0" precision="I8">
					<dim>64</dim>
					<dim>64</dim>
					<dim>1</dim>
					<dim>1</dim>
				</port>
			</output>
		</layer>
		<layer id="53" name="Convert_3317050" type="Convert" version="opset1">
			<data destination_type="f32" />
			<input>
				<port id="0" precision="I8">
					<dim>64</dim>
					<dim>64</dim>
					<dim>1</dim>
					<dim>1</dim>
				</port>
			</input>
			<output>
				<port id="1" precision="FP32">
					<dim>64</dim>
					<dim>64</dim>
					<dim>1</dim>
					<dim>1</dim>
				</port>
			</output>
		</layer>
		<layer id="54" name="Constant_3317051" type="Const" version="opset1">
			<data element_type="f32" shape="64, 1, 1, 1" offset="50196" size="256" />
			<output>
				<port id="0" precision="FP32">
					<dim>64</dim>
					<dim>1</dim>
					<dim>1</dim>
					<dim>1</dim>
				</port>
			</output>
		</layer>
		<layer id="55" name="aten::mul/Multiply_7/fq_weights_1" type="Multiply" version="opset1">
			<data auto_broadcast="numpy" />
			<input>
				<port id="0" precision="FP32">
					<dim>64</dim>
					<dim>64</dim>
					<dim>1</dim>
					<dim>1</dim>
				</port>
				<port id="1" precision="FP32">
					<dim>64</dim>
					<dim>1</dim>
					<dim>1</dim>
					<dim>1</dim>
				</port>
			</input>
			<output>
				<port id="2" precision="FP32">
					<dim>64</dim>
					<dim>64</dim>
					<dim>1</dim>
					<dim>1</dim>
				</port>
			</output>
		</layer>
		<layer id="56" name="aten::mul/Multiply_7" type="Convolution" version="opset1">
			<data strides="1, 1" dilations="1, 1" pads_begin="0, 0" pads_end="0, 0" auto_pad="explicit" />
			<input>
				<port id="0" precision="FP32">
					<dim>-1</dim>
					<dim>64</dim>
					<dim>-1</dim>
					<dim>-1</dim>
				</port>
				<port id="1" precision="FP32">
					<dim>64</dim>
					<dim>64</dim>
					<dim>1</dim>
					<dim>1</dim>
				</port>
			</input>
			<output>
				<port id="2" precision="FP32" names="199">
					<dim>-1</dim>
					<dim>64</dim>
					<dim>-1</dim>
					<dim>-1</dim>
				</port>
			</output>
		</layer>
		<layer id="57" name="aten::add/Multiply_3_compressed" type="Const" version="opset1">
			<data element_type="f16" shape="1, 64, 1, 1" offset="50452" size="128" />
			<output>
				<port id="0" precision="FP16">
					<dim>1</dim>
					<dim>64</dim>
					<dim>1</dim>
					<dim>1</dim>
				</port>
			</output>
		</layer>
		<layer id="58" name="aten::add/Multiply_3" type="Convert" version="opset1">
			<data destination_type="f32" />
			<rt_info>
				<attribute name="decompression" version="0" />
			</rt_info>
			<input>
				<port id="0" precision="FP16">
					<dim>1</dim>
					<dim>64</dim>
					<dim>1</dim>
					<dim>1</dim>
				</port>
			</input>
			<output>
				<port id="1" precision="FP32">
					<dim>1</dim>
					<dim>64</dim>
					<dim>1</dim>
					<dim>1</dim>
				</port>
			</output>
		</layer>
		<layer id="59" name="aten::add/Add_3" type="Add" version="opset1">
			<data auto_broadcast="numpy" />
			<input>
				<port id="0" precision="FP32">
					<dim>-1</dim>
					<dim>64</dim>
					<dim>-1</dim>
					<dim>-1</dim>
				</port>
				<port id="1" precision="FP32">
					<dim>1</dim>
					<dim>64</dim>
					<dim>1</dim>
					<dim>1</dim>
				</port>
			</input>
			<output>
				<port id="2" precision="FP32" names="200_1">
					<dim>-1</dim>
					<dim>64</dim>
					<dim>-1</dim>
					<dim>-1</dim>
				</port>
			</output>
		</layer>
		<layer id="60" name="aten::relu_/Relu_3" type="ReLU" version="opset1">
			<input>
				<port id="0" precision="FP32">
					<dim>-1</dim>
					<dim>64</dim>
					<dim>-1</dim>
					<dim>-1</dim>
				</port>
			</input>
			<output>
				<port id="1" precision="FP32" names="200,input.145">
					<dim>-1</dim>
					<dim>64</dim>
					<dim>-1</dim>
					<dim>-1</dim>
				</port>
			</output>
		</layer>
		<layer id="61" name="aten::relu_/Relu_3/fq_output_0/input_low" type="Const" version="opset1">
			<data element_type="f32" shape="" offset="16800" size="4" />
			<output>
				<port id="0" precision="FP32" />
			</output>
		</layer>
		<layer id="62" name="aten::relu_/Relu_3/fq_output_0/input_high" type="Const" version="opset1">
			<data element_type="f32" shape="" offset="50580" size="4" />
			<output>
				<port id="0" precision="FP32" />
			</output>
		</layer>
		<layer id="63" name="aten::relu_/Relu_3/fq_output_0/output_low" type="Const" version="opset1">
			<data element_type="f32" shape="" offset="16800" size="4" />
			<output>
				<port id="0" precision="FP32" />
			</output>
		</layer>
		<layer id="64" name="aten::relu_/Relu_3/fq_output_0/output_high" type="Const" version="opset1">
			<data element_type="f32" shape="" offset="50580" size="4" />
			<output>
				<port id="0" precision="FP32" />
			</output>
		</layer>
		<layer id="65" name="aten::relu_/Relu_3/fq_output_0" type="FakeQuantize" version="opset1">
			<data levels="256" auto_broadcast="numpy" />
			<input>
				<port id="0" precision="FP32">
					<dim>-1</dim>
					<dim>64</dim>
					<dim>-1</dim>
					<dim>-1</dim>
				</port>
				<port id="1" precision="FP32" />
				<port id="2" precision="FP32" />
				<port id="3" precision="FP32" />
				<port id="4" precision="FP32" />
			</input>
			<output>
				<port id="5" precision="FP32">
					<dim>-1</dim>
					<dim>64</dim>
					<dim>-1</dim>
					<dim>-1</dim>
				</port>
			</output>
		</layer>
		<layer id="66" name="Constant_3317054" type="Const" version="opset1">
			<data element_type="i8" shape="64, 64, 3, 3" offset="50584" size="36864" />
			<output>
				<port id="0" precision="I8">
					<dim>64</dim>
					<dim>64</dim>
					<dim>3</dim>
					<dim>3</dim>
				</port>
			</output>
		</layer>
		<layer id="67" name="Convert_3317055" type="Convert" version="opset1">
			<data destination_type="f32" />
			<input>
				<port id="0" precision="I8">
					<dim>64</dim>
					<dim>64</dim>
					<dim>3</dim>
					<dim>3</dim>
				</port>
			</input>
			<output>
				<port id="1" precision="FP32">
					<dim>64</dim>
					<dim>64</dim>
					<dim>3</dim>
					<dim>3</dim>
				</port>
			</output>
		</layer>
		<layer id="68" name="Constant_3317056" type="Const" version="opset1">
			<data element_type="f32" shape="64, 1, 1, 1" offset="87448" size="256" />
			<output>
				<port id="0" precision="FP32">
					<dim>64</dim>
					<dim>1</dim>
					<dim>1</dim>
					<dim>1</dim>
				</port>
			</output>
		</layer>
		<layer id="69" name="aten::mul/Multiply_9/fq_weights_1" type="Multiply" version="opset1">
			<data auto_broadcast="numpy" />
			<input>
				<port id="0" precision="FP32">
					<dim>64</dim>
					<dim>64</dim>
					<dim>3</dim>
					<dim>3</dim>
				</port>
				<port id="1" precision="FP32">
					<dim>64</dim>
					<dim>1</dim>
					<dim>1</dim>
					<dim>1</dim>
				</port>
			</input>
			<output>
				<port id="2" precision="FP32">
					<dim>64</dim>
					<dim>64</dim>
					<dim>3</dim>
					<dim>3</dim>
				</port>
			</output>
		</layer>
		<layer id="70" name="aten::mul/Multiply_9" type="Convolution" version="opset1">
			<data strides="1, 1" dilations="1, 1" pads_begin="1, 1" pads_end="1, 1" auto_pad="explicit" />
			<input>
				<port id="0" precision="FP32">
					<dim>-1</dim>
					<dim>64</dim>
					<dim>-1</dim>
					<dim>-1</dim>
				</port>
				<port id="1" precision="FP32">
					<dim>64</dim>
					<dim>64</dim>
					<dim>3</dim>
					<dim>3</dim>
				</port>
			</input>
			<output>
				<port id="2" precision="FP32" names="228">
					<dim>-1</dim>
					<dim>64</dim>
					<dim>-1</dim>
					<dim>-1</dim>
				</port>
			</output>
		</layer>
		<layer id="71" name="aten::add/Multiply_4_compressed" type="Const" version="opset1">
			<data element_type="f16" shape="1, 64, 1, 1" offset="87704" size="128" />
			<output>
				<port id="0" precision="FP16">
					<dim>1</dim>
					<dim>64</dim>
					<dim>1</dim>
					<dim>1</dim>
				</port>
			</output>
		</layer>
		<layer id="72" name="aten::add/Multiply_4" type="Convert" version="opset1">
			<data destination_type="f32" />
			<rt_info>
				<attribute name="decompression" version="0" />
			</rt_info>
			<input>
				<port id="0" precision="FP16">
					<dim>1</dim>
					<dim>64</dim>
					<dim>1</dim>
					<dim>1</dim>
				</port>
			</input>
			<output>
				<port id="1" precision="FP32">
					<dim>1</dim>
					<dim>64</dim>
					<dim>1</dim>
					<dim>1</dim>
				</port>
			</output>
		</layer>
		<layer id="73" name="aten::add/Add_4" type="Add" version="opset1">
			<data auto_broadcast="numpy" />
			<input>
				<port id="0" precision="FP32">
					<dim>-1</dim>
					<dim>64</dim>
					<dim>-1</dim>
					<dim>-1</dim>
				</port>
				<port id="1" precision="FP32">
					<dim>1</dim>
					<dim>64</dim>
					<dim>1</dim>
					<dim>1</dim>
				</port>
			</input>
			<output>
				<port id="2" precision="FP32" names="229_1">
					<dim>-1</dim>
					<dim>64</dim>
					<dim>-1</dim>
					<dim>-1</dim>
				</port>
			</output>
		</layer>
		<layer id="74" name="aten::relu_/Relu_4" type="ReLU" version="opset1">
			<input>
				<port id="0" precision="FP32">
					<dim>-1</dim>
					<dim>64</dim>
					<dim>-1</dim>
					<dim>-1</dim>
				</port>
			</input>
			<output>
				<port id="1" precision="FP32" names="229,input.153">
					<dim>-1</dim>
					<dim>64</dim>
					<dim>-1</dim>
					<dim>-1</dim>
				</port>
			</output>
		</layer>
		<layer id="75" name="aten::relu_/Relu_4/fq_output_0/input_low" type="Const" version="opset1">
			<data element_type="f32" shape="" offset="16800" size="4" />
			<output>
				<port id="0" precision="FP32" />
			</output>
		</layer>
		<layer id="76" name="aten::relu_/Relu_4/fq_output_0/input_high" type="Const" version="opset1">
			<data element_type="f32" shape="" offset="87832" size="4" />
			<output>
				<port id="0" precision="FP32" />
			</output>
		</layer>
		<layer id="77" name="aten::relu_/Relu_4/fq_output_0/output_low" type="Const" version="opset1">
			<data element_type="f32" shape="" offset="16800" size="4" />
			<output>
				<port id="0" precision="FP32" />
			</output>
		</layer>
		<layer id="78" name="aten::relu_/Relu_4/fq_output_0/output_high" type="Const" version="opset1">
			<data element_type="f32" shape="" offset="87832" size="4" />
			<output>
				<port id="0" precision="FP32" />
			</output>
		</layer>
		<layer id="79" name="aten::relu_/Relu_4/fq_output_0" type="FakeQuantize" version="opset1">
			<data levels="256" auto_broadcast="numpy" />
			<input>
				<port id="0" precision="FP32">
					<dim>-1</dim>
					<dim>64</dim>
					<dim>-1</dim>
					<dim>-1</dim>
				</port>
				<port id="1" precision="FP32" />
				<port id="2" precision="FP32" />
				<port id="3" precision="FP32" />
				<port id="4" precision="FP32" />
			</input>
			<output>
				<port id="5" precision="FP32">
					<dim>-1</dim>
					<dim>64</dim>
					<dim>-1</dim>
					<dim>-1</dim>
				</port>
			</output>
		</layer>
		<layer id="80" name="Constant_3317059" type="Const" version="opset1">
			<data element_type="i8" shape="256, 64, 1, 1" offset="87836" size="16384" />
			<output>
				<port id="0" precision="I8">
					<dim>256</dim>
					<dim>64</dim>
					<dim>1</dim>
					<dim>1</dim>
				</port>
			</output>
		</layer>
		<layer id="81" name="Convert_3317060" type="Convert" version="opset1">
			<data destination_type="f32" />
			<input>
				<port id="0" precision="I8">
					<dim>256</dim>
					<dim>64</dim>
					<dim>1</dim>
					<dim>1</dim>
				</port>
			</input>
			<output>
				<port id="1" precision="FP32">
					<dim>256</dim>
					<dim>64</dim>
					<dim>1</dim>
					<dim>1</dim>
				</port>
			</output>
		</layer>
		<layer id="82" name="Constant_3317061" type="Const" version="opset1">
			<data element_type="f32" shape="256, 1, 1, 1" offset="104220" size="1024" />
			<output>
				<port id="0" precision="FP32">
					<dim>256</dim>
					<dim>1</dim>
					<dim>1</dim>
					<dim>1</dim>
				</port>
			</output>
		</layer>
		<layer id="83" name="aten::mul/Multiply_11/fq_weights_1" type="Multiply" version="opset1">
			<data auto_broadcast="numpy" />
			<input>
				<port id="0" precision="FP32">
					<dim>256</dim>
					<dim>64</dim>
					<dim>1</dim>
					<dim>1</dim>
				</port>
				<port id="1" precision="FP32">
					<dim>256</dim>
					<dim>1</dim>
					<dim>1</dim>
					<dim>1</dim>
				</port>
			</input>
			<output>
				<port id="2" precision="FP32">
					<dim>256</dim>
					<dim>64</dim>
					<dim>1</dim>
					<dim>1</dim>
				</port>
			</output>
		</layer>
		<layer id="84" name="aten::mul/Multiply_11" type="Convolution" version="opset1">
			<data strides="1, 1" dilations="1, 1" pads_begin="0, 0" pads_end="0, 0" auto_pad="explicit" />
			<input>
				<port id="0" precision="FP32">
					<dim>-1</dim>
					<dim>64</dim>
					<dim>-1</dim>
					<dim>-1</dim>
				</port>
				<port id="1" precision="FP32">
					<dim>256</dim>
					<dim>64</dim>
					<dim>1</dim>
					<dim>1</dim>
				</port>
			</input>
			<output>
				<port id="2" precision="FP32" names="257">
					<dim>-1</dim>
					<dim>256</dim>
					<dim>-1</dim>
					<dim>-1</dim>
				</port>
			</output>
		</layer>
		<layer id="85" name="aten::add/Multiply_5_compressed" type="Const" version="opset1">
			<data element_type="f16" shape="1, 256, 1, 1" offset="105244" size="512" />
			<output>
				<port id="0" precision="FP16">
					<dim>1</dim>
					<dim>256</dim>
					<dim>1</dim>
					<dim>1</dim>
				</port>
			</output>
		</layer>
		<layer id="86" name="aten::add/Multiply_5" type="Convert" version="opset1">
			<data destination_type="f32" />
			<rt_info>
				<attribute name="decompression" version="0" />
			</rt_info>
			<input>
				<port id="0" precision="FP16">
					<dim>1</dim>
					<dim>256</dim>
					<dim>1</dim>
					<dim>1</dim>
				</port>
			</input>
			<output>
				<port id="1" precision="FP32">
					<dim>1</dim>
					<dim>256</dim>
					<dim>1</dim>
					<dim>1</dim>
				</port>
			</output>
		</layer>
		<layer id="87" name="aten::add/Add_5" type="Add" version="opset1">
			<data auto_broadcast="numpy" />
			<input>
				<port id="0" precision="FP32">
					<dim>-1</dim>
					<dim>256</dim>
					<dim>-1</dim>
					<dim>-1</dim>
				</port>
				<port id="1" precision="FP32">
					<dim>1</dim>
					<dim>256</dim>
					<dim>1</dim>
					<dim>1</dim>
				</port>
			</input>
			<output>
				<port id="2" precision="FP32" names="258,out.3">
					<dim>-1</dim>
					<dim>256</dim>
					<dim>-1</dim>
					<dim>-1</dim>
				</port>
			</output>
		</layer>
		<layer id="88" name="aten::add/Add_5/fq_output_0/input_low" type="Const" version="opset1">
			<data element_type="f32" shape="" offset="105756" size="4" />
			<output>
				<port id="0" precision="FP32" />
			</output>
		</layer>
		<layer id="89" name="aten::add/Add_5/fq_output_0/input_high" type="Const" version="opset1">
			<data element_type="f32" shape="" offset="105760" size="4" />
			<output>
				<port id="0" precision="FP32" />
			</output>
		</layer>
		<layer id="90" name="aten::add/Add_5/fq_output_0/output_low" type="Const" version="opset1">
			<data element_type="f32" shape="" offset="105756" size="4" />
			<output>
				<port id="0" precision="FP32" />
			</output>
		</layer>
		<layer id="91" name="aten::add/Add_5/fq_output_0/output_high" type="Const" version="opset1">
			<data element_type="f32" shape="" offset="105760" size="4" />
			<output>
				<port id="0" precision="FP32" />
			</output>
		</layer>
		<layer id="92" name="aten::add/Add_5/fq_output_0" type="FakeQuantize" version="opset1">
			<data levels="256" auto_broadcast="numpy" />
			<input>
				<port id="0" precision="FP32">
					<dim>-1</dim>
					<dim>256</dim>
					<dim>-1</dim>
					<dim>-1</dim>
				</port>
				<port id="1" precision="FP32" />
				<port id="2" precision="FP32" />
				<port id="3" precision="FP32" />
				<port id="4" precision="FP32" />
			</input>
			<output>
				<port id="5" precision="FP32">
					<dim>-1</dim>
					<dim>256</dim>
					<dim>-1</dim>
					<dim>-1</dim>
				</port>
			</output>
		</layer>
		<layer id="93" name="Constant_3317064" type="Const" version="opset1">
			<data element_type="i8" shape="256, 64, 1, 1" offset="105764" size="16384" />
			<output>
				<port id="0" precision="I8">
					<dim>256</dim>
					<dim>64</dim>
					<dim>1</dim>
					<dim>1</dim>
				</port>
			</output>
		</layer>
		<layer id="94" name="Convert_3317065" type="Convert" version="opset1">
			<data destination_type="f32" />
			<input>
				<port id="0" precision="I8">
					<dim>256</dim>
					<dim>64</dim>
					<dim>1</dim>
					<dim>1</dim>
				</port>
			</input>
			<output>
				<port id="1" precision="FP32">
					<dim>256</dim>
					<dim>64</dim>
					<dim>1</dim>
					<dim>1</dim>
				</port>
			</output>
		</layer>
		<layer id="95" name="Constant_3317066" type="Const" version="opset1">
			<data element_type="f32" shape="256, 1, 1, 1" offset="122148" size="1024" />
			<output>
				<port id="0" precision="FP32">
					<dim>256</dim>
					<dim>1</dim>
					<dim>1</dim>
					<dim>1</dim>
				</port>
			</output>
		</layer>
		<layer id="96" name="aten::mul/Multiply_13/fq_weights_1" type="Multiply" version="opset1">
			<data auto_broadcast="numpy" />
			<input>
				<port id="0" precision="FP32">
					<dim>256</dim>
					<dim>64</dim>
					<dim>1</dim>
					<dim>1</dim>
				</port>
				<port id="1" precision="FP32">
					<dim>256</dim>
					<dim>1</dim>
					<dim>1</dim>
					<dim>1</dim>
				</port>
			</input>
			<output>
				<port id="2" precision="FP32">
					<dim>256</dim>
					<dim>64</dim>
					<dim>1</dim>
					<dim>1</dim>
				</port>
			</output>
		</layer>
		<layer id="97" name="aten::mul/Multiply_13" type="Convolution" version="opset1">
			<data strides="1, 1" dilations="1, 1" pads_begin="0, 0" pads_end="0, 0" auto_pad="explicit" />
			<input>
				<port id="0" precision="FP32">
					<dim>-1</dim>
					<dim>64</dim>
					<dim>-1</dim>
					<dim>-1</dim>
				</port>
				<port id="1" precision="FP32">
					<dim>256</dim>
					<dim>64</dim>
					<dim>1</dim>
					<dim>1</dim>
				</port>
			</input>
			<output>
				<port id="2" precision="FP32" names="285">
					<dim>-1</dim>
					<dim>256</dim>
					<dim>-1</dim>
					<dim>-1</dim>
				</port>
			</output>
		</layer>
		<layer id="98" name="aten::add/Multiply_6_compressed" type="Const" version="opset1">
			<data element_type="f16" shape="1, 256, 1, 1" offset="123172" size="512" />
			<output>
				<port id="0" precision="FP16">
					<dim>1</dim>
					<dim>256</dim>
					<dim>1</dim>
					<dim>1</dim>
				</port>
			</output>
		</layer>
		<layer id="99" name="aten::add/Multiply_6" type="Convert" version="opset1">
			<data destination_type="f32" />
			<rt_info>
				<attribute name="decompression" version="0" />
			</rt_info>
			<input>
				<port id="0" precision="FP16">
					<dim>1</dim>
					<dim>256</dim>
					<dim>1</dim>
					<dim>1</dim>
				</port>
			</input>
			<output>
				<port id="1" precision="FP32">
					<dim>1</dim>
					<dim>256</dim>
					<dim>1</dim>
					<dim>1</dim>
				</port>
			</output>
		</layer>
		<layer id="100" name="aten::add/Add_6" type="Add" version="opset1">
			<data auto_broadcast="numpy" />
			<input>
				<port id="0" precision="FP32">
					<dim>-1</dim>
					<dim>256</dim>
					<dim>-1</dim>
					<dim>-1</dim>
				</port>
				<port id="1" precision="FP32">
					<dim>1</dim>
					<dim>256</dim>
					<dim>1</dim>
					<dim>1</dim>
				</port>
			</input>
			<output>
				<port id="2" precision="FP32" names="286,short.5">
					<dim>-1</dim>
					<dim>256</dim>
					<dim>-1</dim>
					<dim>-1</dim>
				</port>
			</output>
		</layer>
		<layer id="101" name="aten::add/Add_6/fq_output_0/input_low" type="Const" version="opset1">
			<data element_type="f32" shape="" offset="123684" size="4" />
			<output>
				<port id="0" precision="FP32" />
			</output>
		</layer>
		<layer id="102" name="aten::add/Add_6/fq_output_0/input_high" type="Const" version="opset1">
			<data element_type="f32" shape="" offset="123688" size="4" />
			<output>
				<port id="0" precision="FP32" />
			</output>
		</layer>
		<layer id="103" name="aten::add/Add_6/fq_output_0/output_low" type="Const" version="opset1">
			<data element_type="f32" shape="" offset="123684" size="4" />
			<output>
				<port id="0" precision="FP32" />
			</output>
		</layer>
		<layer id="104" name="aten::add/Add_6/fq_output_0/output_high" type="Const" version="opset1">
			<data element_type="f32" shape="" offset="123688" size="4" />
			<output>
				<port id="0" precision="FP32" />
			</output>
		</layer>
		<layer id="105" name="aten::add/Add_6/fq_output_0" type="FakeQuantize" version="opset1">
			<data levels="256" auto_broadcast="numpy" />
			<input>
				<port id="0" precision="FP32">
					<dim>-1</dim>
					<dim>256</dim>
					<dim>-1</dim>
					<dim>-1</dim>
				</port>
				<port id="1" precision="FP32" />
				<port id="2" precision="FP32" />
				<port id="3" precision="FP32" />
				<port id="4" precision="FP32" />
			</input>
			<output>
				<port id="5" precision="FP32">
					<dim>-1</dim>
					<dim>256</dim>
					<dim>-1</dim>
					<dim>-1</dim>
				</port>
			</output>
		</layer>
		<layer id="106" name="aten::add/Add_7" type="Add" version="opset1">
			<data auto_broadcast="numpy" />
			<input>
				<port id="0" precision="FP32">
					<dim>-1</dim>
					<dim>256</dim>
					<dim>-1</dim>
					<dim>-1</dim>
				</port>
				<port id="1" precision="FP32">
					<dim>-1</dim>
					<dim>256</dim>
					<dim>-1</dim>
					<dim>-1</dim>
				</port>
			</input>
			<output>
				<port id="2" precision="FP32" names="287_1">
					<dim>-1</dim>
					<dim>256</dim>
					<dim>-1</dim>
					<dim>-1</dim>
				</port>
			</output>
		</layer>
		<layer id="107" name="aten::relu_/Relu_5" type="ReLU" version="opset1">
			<input>
				<port id="0" precision="FP32">
					<dim>-1</dim>
					<dim>256</dim>
					<dim>-1</dim>
					<dim>-1</dim>
				</port>
			</input>
			<output>
				<port id="1" precision="FP32" names="287,input0.39">
					<dim>-1</dim>
					<dim>256</dim>
					<dim>-1</dim>
					<dim>-1</dim>
				</port>
			</output>
		</layer>
		<layer id="108" name="aten::relu_/Relu_5/fq_output_0/input_low" type="Const" version="opset1">
			<data element_type="f32" shape="" offset="16800" size="4" />
			<output>
				<port id="0" precision="FP32" />
			</output>
		</layer>
		<layer id="109" name="aten::relu_/Relu_5/fq_output_0/input_high" type="Const" version="opset1">
			<data element_type="f32" shape="" offset="123692" size="4" />
			<output>
				<port id="0" precision="FP32" />
			</output>
		</layer>
		<layer id="110" name="aten::relu_/Relu_5/fq_output_0/output_low" type="Const" version="opset1">
			<data element_type="f32" shape="" offset="16800" size="4" />
			<output>
				<port id="0" precision="FP32" />
			</output>
		</layer>
		<layer id="111" name="aten::relu_/Relu_5/fq_output_0/output_high" type="Const" version="opset1">
			<data element_type="f32" shape="" offset="123692" size="4" />
			<output>
				<port id="0" precision="FP32" />
			</output>
		</layer>
		<layer id="112" name="aten::relu_/Relu_5/fq_output_0" type="FakeQuantize" version="opset1">
			<data levels="256" auto_broadcast="numpy" />
			<input>
				<port id="0" precision="FP32">
					<dim>-1</dim>
					<dim>256</dim>
					<dim>-1</dim>
					<dim>-1</dim>
				</port>
				<port id="1" precision="FP32" />
				<port id="2" precision="FP32" />
				<port id="3" precision="FP32" />
				<port id="4" precision="FP32" />
			</input>
			<output>
				<port id="5" precision="FP32">
					<dim>-1</dim>
					<dim>256</dim>
					<dim>-1</dim>
					<dim>-1</dim>
				</port>
			</output>
		</layer>
		<layer id="113" name="Constant_3317069" type="Const" version="opset1">
			<data element_type="i8" shape="64, 256, 1, 1" offset="123696" size="16384" />
			<output>
				<port id="0" precision="I8">
					<dim>64</dim>
					<dim>256</dim>
					<dim>1</dim>
					<dim>1</dim>
				</port>
			</output>
		</layer>
		<layer id="114" name="Convert_3317070" type="Convert" version="opset1">
			<data destination_type="f32" />
			<input>
				<port id="0" precision="I8">
					<dim>64</dim>
					<dim>256</dim>
					<dim>1</dim>
					<dim>1</dim>
				</port>
			</input>
			<output>
				<port id="1" precision="FP32">
					<dim>64</dim>
					<dim>256</dim>
					<dim>1</dim>
					<dim>1</dim>
				</port>
			</output>
		</layer>
		<layer id="115" name="Constant_3317071" type="Const" version="opset1">
			<data element_type="f32" shape="64, 1, 1, 1" offset="140080" size="256" />
			<output>
				<port id="0" precision="FP32">
					<dim>64</dim>
					<dim>1</dim>
					<dim>1</dim>
					<dim>1</dim>
				</port>
			</output>
		</layer>
		<layer id="116" name="aten::mul/Multiply_15/fq_weights_1" type="Multiply" version="opset1">
			<data auto_broadcast="numpy" />
			<input>
				<port id="0" precision="FP32">
					<dim>64</dim>
					<dim>256</dim>
					<dim>1</dim>
					<dim>1</dim>
				</port>
				<port id="1" precision="FP32">
					<dim>64</dim>
					<dim>1</dim>
					<dim>1</dim>
					<dim>1</dim>
				</port>
			</input>
			<output>
				<port id="2" precision="FP32">
					<dim>64</dim>
					<dim>256</dim>
					<dim>1</dim>
					<dim>1</dim>
				</port>
			</output>
		</layer>
		<layer id="117" name="aten::mul/Multiply_15" type="Convolution" version="opset1">
			<data strides="1, 1" dilations="1, 1" pads_begin="0, 0" pads_end="0, 0" auto_pad="explicit" />
			<input>
				<port id="0" precision="FP32">
					<dim>-1</dim>
					<dim>256</dim>
					<dim>-1</dim>
					<dim>-1</dim>
				</port>
				<port id="1" precision="FP32">
					<dim>64</dim>
					<dim>256</dim>
					<dim>1</dim>
					<dim>1</dim>
				</port>
			</input>
			<output>
				<port id="2" precision="FP32" names="319">
					<dim>-1</dim>
					<dim>64</dim>
					<dim>-1</dim>
					<dim>-1</dim>
				</port>
			</output>
		</layer>
		<layer id="118" name="aten::add/Multiply_8_compressed" type="Const" version="opset1">
			<data element_type="f16" shape="1, 64, 1, 1" offset="140336" size="128" />
			<output>
				<port id="0" precision="FP16">
					<dim>1</dim>
					<dim>64</dim>
					<dim>1</dim>
					<dim>1</dim>
				</port>
			</output>
		</layer>
		<layer id="119" name="aten::add/Multiply_8" type="Convert" version="opset1">
			<data destination_type="f32" />
			<rt_info>
				<attribute name="decompression" version="0" />
			</rt_info>
			<input>
				<port id="0" precision="FP16">
					<dim>1</dim>
					<dim>64</dim>
					<dim>1</dim>
					<dim>1</dim>
				</port>
			</input>
			<output>
				<port id="1" precision="FP32">
					<dim>1</dim>
					<dim>64</dim>
					<dim>1</dim>
					<dim>1</dim>
				</port>
			</output>
		</layer>
		<layer id="120" name="aten::add/Add_8" type="Add" version="opset1">
			<data auto_broadcast="numpy" />
			<input>
				<port id="0" precision="FP32">
					<dim>-1</dim>
					<dim>64</dim>
					<dim>-1</dim>
					<dim>-1</dim>
				</port>
				<port id="1" precision="FP32">
					<dim>1</dim>
					<dim>64</dim>
					<dim>1</dim>
					<dim>1</dim>
				</port>
			</input>
			<output>
				<port id="2" precision="FP32" names="320_1">
					<dim>-1</dim>
					<dim>64</dim>
					<dim>-1</dim>
					<dim>-1</dim>
				</port>
			</output>
		</layer>
		<layer id="121" name="aten::relu_/Relu_6" type="ReLU" version="opset1">
			<input>
				<port id="0" precision="FP32">
					<dim>-1</dim>
					<dim>64</dim>
					<dim>-1</dim>
					<dim>-1</dim>
				</port>
			</input>
			<output>
				<port id="1" precision="FP32" names="320,input.165">
					<dim>-1</dim>
					<dim>64</dim>
					<dim>-1</dim>
					<dim>-1</dim>
				</port>
			</output>
		</layer>
		<layer id="122" name="aten::relu_/Relu_6/fq_output_0/input_low" type="Const" version="opset1">
			<data element_type="f32" shape="" offset="16800" size="4" />
			<output>
				<port id="0" precision="FP32" />
			</output>
		</layer>
		<layer id="123" name="aten::relu_/Relu_6/fq_output_0/input_high" type="Const" version="opset1">
			<data element_type="f32" shape="" offset="140464" size="4" />
			<output>
				<port id="0" precision="FP32" />
			</output>
		</layer>
		<layer id="124" name="aten::relu_/Relu_6/fq_output_0/output_low" type="Const" version="opset1">
			<data element_type="f32" shape="" offset="16800" size="4" />
			<output>
				<port id="0" precision="FP32" />
			</output>
		</layer>
		<layer id="125" name="aten::relu_/Relu_6/fq_output_0/output_high" type="Const" version="opset1">
			<data element_type="f32" shape="" offset="140464" size="4" />
			<output>
				<port id="0" precision="FP32" />
			</output>
		</layer>
		<layer id="126" name="aten::relu_/Relu_6/fq_output_0" type="FakeQuantize" version="opset1">
			<data levels="256" auto_broadcast="numpy" />
			<input>
				<port id="0" precision="FP32">
					<dim>-1</dim>
					<dim>64</dim>
					<dim>-1</dim>
					<dim>-1</dim>
				</port>
				<port id="1" precision="FP32" />
				<port id="2" precision="FP32" />
				<port id="3" precision="FP32" />
				<port id="4" precision="FP32" />
			</input>
			<output>
				<port id="5" precision="FP32">
					<dim>-1</dim>
					<dim>64</dim>
					<dim>-1</dim>
					<dim>-1</dim>
				</port>
			</output>
		</layer>
		<layer id="127" name="Constant_3317074" type="Const" version="opset1">
			<data element_type="i8" shape="64, 64, 3, 3" offset="140468" size="36864" />
			<output>
				<port id="0" precision="I8">
					<dim>64</dim>
					<dim>64</dim>
					<dim>3</dim>
					<dim>3</dim>
				</port>
			</output>
		</layer>
		<layer id="128" name="Convert_3317075" type="Convert" version="opset1">
			<data destination_type="f32" />
			<input>
				<port id="0" precision="I8">
					<dim>64</dim>
					<dim>64</dim>
					<dim>3</dim>
					<dim>3</dim>
				</port>
			</input>
			<output>
				<port id="1" precision="FP32">
					<dim>64</dim>
					<dim>64</dim>
					<dim>3</dim>
					<dim>3</dim>
				</port>
			</output>
		</layer>
		<layer id="129" name="Constant_3317076" type="Const" version="opset1">
			<data element_type="f32" shape="64, 1, 1, 1" offset="177332" size="256" />
			<output>
				<port id="0" precision="FP32">
					<dim>64</dim>
					<dim>1</dim>
					<dim>1</dim>
					<dim>1</dim>
				</port>
			</output>
		</layer>
		<layer id="130" name="aten::mul/Multiply_17/fq_weights_1" type="Multiply" version="opset1">
			<data auto_broadcast="numpy" />
			<input>
				<port id="0" precision="FP32">
					<dim>64</dim>
					<dim>64</dim>
					<dim>3</dim>
					<dim>3</dim>
				</port>
				<port id="1" precision="FP32">
					<dim>64</dim>
					<dim>1</dim>
					<dim>1</dim>
					<dim>1</dim>
				</port>
			</input>
			<output>
				<port id="2" precision="FP32">
					<dim>64</dim>
					<dim>64</dim>
					<dim>3</dim>
					<dim>3</dim>
				</port>
			</output>
		</layer>
		<layer id="131" name="aten::mul/Multiply_17" type="Convolution" version="opset1">
			<data strides="1, 1" dilations="1, 1" pads_begin="1, 1" pads_end="1, 1" auto_pad="explicit" />
			<input>
				<port id="0" precision="FP32">
					<dim>-1</dim>
					<dim>64</dim>
					<dim>-1</dim>
					<dim>-1</dim>
				</port>
				<port id="1" precision="FP32">
					<dim>64</dim>
					<dim>64</dim>
					<dim>3</dim>
					<dim>3</dim>
				</port>
			</input>
			<output>
				<port id="2" precision="FP32" names="348">
					<dim>-1</dim>
					<dim>64</dim>
					<dim>-1</dim>
					<dim>-1</dim>
				</port>
			</output>
		</layer>
		<layer id="132" name="aten::add/Multiply_9_compressed" type="Const" version="opset1">
			<data element_type="f16" shape="1, 64, 1, 1" offset="177588" size="128" />
			<output>
				<port id="0" precision="FP16">
					<dim>1</dim>
					<dim>64</dim>
					<dim>1</dim>
					<dim>1</dim>
				</port>
			</output>
		</layer>
		<layer id="133" name="aten::add/Multiply_9" type="Convert" version="opset1">
			<data destination_type="f32" />
			<rt_info>
				<attribute name="decompression" version="0" />
			</rt_info>
			<input>
				<port id="0" precision="FP16">
					<dim>1</dim>
					<dim>64</dim>
					<dim>1</dim>
					<dim>1</dim>
				</port>
			</input>
			<output>
				<port id="1" precision="FP32">
					<dim>1</dim>
					<dim>64</dim>
					<dim>1</dim>
					<dim>1</dim>
				</port>
			</output>
		</layer>
		<layer id="134" name="aten::add/Add_9" type="Add" version="opset1">
			<data auto_broadcast="numpy" />
			<input>
				<port id="0" precision="FP32">
					<dim>-1</dim>
					<dim>64</dim>
					<dim>-1</dim>
					<dim>-1</dim>
				</port>
				<port id="1" precision="FP32">
					<dim>1</dim>
					<dim>64</dim>
					<dim>1</dim>
					<dim>1</dim>
				</port>
			</input>
			<output>
				<port id="2" precision="FP32" names="349_1">
					<dim>-1</dim>
					<dim>64</dim>
					<dim>-1</dim>
					<dim>-1</dim>
				</port>
			</output>
		</layer>
		<layer id="135" name="aten::relu_/Relu_7" type="ReLU" version="opset1">
			<input>
				<port id="0" precision="FP32">
					<dim>-1</dim>
					<dim>64</dim>
					<dim>-1</dim>
					<dim>-1</dim>
				</port>
			</input>
			<output>
				<port id="1" precision="FP32" names="349,input.155">
					<dim>-1</dim>
					<dim>64</dim>
					<dim>-1</dim>
					<dim>-1</dim>
				</port>
			</output>
		</layer>
		<layer id="136" name="aten::relu_/Relu_7/fq_output_0/input_low" type="Const" version="opset1">
			<data element_type="f32" shape="" offset="16800" size="4" />
			<output>
				<port id="0" precision="FP32" />
			</output>
		</layer>
		<layer id="137" name="aten::relu_/Relu_7/fq_output_0/input_high" type="Const" version="opset1">
			<data element_type="f32" shape="" offset="177716" size="4" />
			<output>
				<port id="0" precision="FP32" />
			</output>
		</layer>
		<layer id="138" name="aten::relu_/Relu_7/fq_output_0/output_low" type="Const" version="opset1">
			<data element_type="f32" shape="" offset="16800" size="4" />
			<output>
				<port id="0" precision="FP32" />
			</output>
		</layer>
		<layer id="139" name="aten::relu_/Relu_7/fq_output_0/output_high" type="Const" version="opset1">
			<data element_type="f32" shape="" offset="177716" size="4" />
			<output>
				<port id="0" precision="FP32" />
			</output>
		</layer>
		<layer id="140" name="aten::relu_/Relu_7/fq_output_0" type="FakeQuantize" version="opset1">
			<data levels="256" auto_broadcast="numpy" />
			<input>
				<port id="0" precision="FP32">
					<dim>-1</dim>
					<dim>64</dim>
					<dim>-1</dim>
					<dim>-1</dim>
				</port>
				<port id="1" precision="FP32" />
				<port id="2" precision="FP32" />
				<port id="3" precision="FP32" />
				<port id="4" precision="FP32" />
			</input>
			<output>
				<port id="5" precision="FP32">
					<dim>-1</dim>
					<dim>64</dim>
					<dim>-1</dim>
					<dim>-1</dim>
				</port>
			</output>
		</layer>
		<layer id="141" name="Constant_3317079" type="Const" version="opset1">
			<data element_type="i8" shape="256, 64, 1, 1" offset="177720" size="16384" />
			<output>
				<port id="0" precision="I8">
					<dim>256</dim>
					<dim>64</dim>
					<dim>1</dim>
					<dim>1</dim>
				</port>
			</output>
		</layer>
		<layer id="142" name="Convert_3317080" type="Convert" version="opset1">
			<data destination_type="f32" />
			<input>
				<port id="0" precision="I8">
					<dim>256</dim>
					<dim>64</dim>
					<dim>1</dim>
					<dim>1</dim>
				</port>
			</input>
			<output>
				<port id="1" precision="FP32">
					<dim>256</dim>
					<dim>64</dim>
					<dim>1</dim>
					<dim>1</dim>
				</port>
			</output>
		</layer>
		<layer id="143" name="Constant_3317081" type="Const" version="opset1">
			<data element_type="f32" shape="256, 1, 1, 1" offset="194104" size="1024" />
			<output>
				<port id="0" precision="FP32">
					<dim>256</dim>
					<dim>1</dim>
					<dim>1</dim>
					<dim>1</dim>
				</port>
			</output>
		</layer>
		<layer id="144" name="aten::mul/Multiply_19/fq_weights_1" type="Multiply" version="opset1">
			<data auto_broadcast="numpy" />
			<input>
				<port id="0" precision="FP32">
					<dim>256</dim>
					<dim>64</dim>
					<dim>1</dim>
					<dim>1</dim>
				</port>
				<port id="1" precision="FP32">
					<dim>256</dim>
					<dim>1</dim>
					<dim>1</dim>
					<dim>1</dim>
				</port>
			</input>
			<output>
				<port id="2" precision="FP32">
					<dim>256</dim>
					<dim>64</dim>
					<dim>1</dim>
					<dim>1</dim>
				</port>
			</output>
		</layer>
		<layer id="145" name="aten::mul/Multiply_19" type="Convolution" version="opset1">
			<data strides="1, 1" dilations="1, 1" pads_begin="0, 0" pads_end="0, 0" auto_pad="explicit" />
			<input>
				<port id="0" precision="FP32">
					<dim>-1</dim>
					<dim>64</dim>
					<dim>-1</dim>
					<dim>-1</dim>
				</port>
				<port id="1" precision="FP32">
					<dim>256</dim>
					<dim>64</dim>
					<dim>1</dim>
					<dim>1</dim>
				</port>
			</input>
			<output>
				<port id="2" precision="FP32" names="377">
					<dim>-1</dim>
					<dim>256</dim>
					<dim>-1</dim>
					<dim>-1</dim>
				</port>
			</output>
		</layer>
		<layer id="146" name="aten::add/Multiply_10_compressed" type="Const" version="opset1">
			<data element_type="f16" shape="1, 256, 1, 1" offset="195128" size="512" />
			<output>
				<port id="0" precision="FP16">
					<dim>1</dim>
					<dim>256</dim>
					<dim>1</dim>
					<dim>1</dim>
				</port>
			</output>
		</layer>
		<layer id="147" name="aten::add/Multiply_10" type="Convert" version="opset1">
			<data destination_type="f32" />
			<rt_info>
				<attribute name="decompression" version="0" />
			</rt_info>
			<input>
				<port id="0" precision="FP16">
					<dim>1</dim>
					<dim>256</dim>
					<dim>1</dim>
					<dim>1</dim>
				</port>
			</input>
			<output>
				<port id="1" precision="FP32">
					<dim>1</dim>
					<dim>256</dim>
					<dim>1</dim>
					<dim>1</dim>
				</port>
			</output>
		</layer>
		<layer id="148" name="aten::add/Add_10" type="Add" version="opset1">
			<data auto_broadcast="numpy" />
			<input>
				<port id="0" precision="FP32">
					<dim>-1</dim>
					<dim>256</dim>
					<dim>-1</dim>
					<dim>-1</dim>
				</port>
				<port id="1" precision="FP32">
					<dim>1</dim>
					<dim>256</dim>
					<dim>1</dim>
					<dim>1</dim>
				</port>
			</input>
			<output>
				<port id="2" precision="FP32" names="378,out.5">
					<dim>-1</dim>
					<dim>256</dim>
					<dim>-1</dim>
					<dim>-1</dim>
				</port>
			</output>
		</layer>
		<layer id="149" name="aten::add/Add_10/fq_output_0/input_low" type="Const" version="opset1">
			<data element_type="f32" shape="" offset="195640" size="4" />
			<output>
				<port id="0" precision="FP32" />
			</output>
		</layer>
		<layer id="150" name="aten::add/Add_10/fq_output_0/input_high" type="Const" version="opset1">
			<data element_type="f32" shape="" offset="195644" size="4" />
			<output>
				<port id="0" precision="FP32" />
			</output>
		</layer>
		<layer id="151" name="aten::add/Add_10/fq_output_0/output_low" type="Const" version="opset1">
			<data element_type="f32" shape="" offset="195640" size="4" />
			<output>
				<port id="0" precision="FP32" />
			</output>
		</layer>
		<layer id="152" name="aten::add/Add_10/fq_output_0/output_high" type="Const" version="opset1">
			<data element_type="f32" shape="" offset="195644" size="4" />
			<output>
				<port id="0" precision="FP32" />
			</output>
		</layer>
		<layer id="153" name="aten::add/Add_10/fq_output_0" type="FakeQuantize" version="opset1">
			<data levels="256" auto_broadcast="numpy" />
			<input>
				<port id="0" precision="FP32">
					<dim>-1</dim>
					<dim>256</dim>
					<dim>-1</dim>
					<dim>-1</dim>
				</port>
				<port id="1" precision="FP32" />
				<port id="2" precision="FP32" />
				<port id="3" precision="FP32" />
				<port id="4" precision="FP32" />
			</input>
			<output>
				<port id="5" precision="FP32">
					<dim>-1</dim>
					<dim>256</dim>
					<dim>-1</dim>
					<dim>-1</dim>
				</port>
			</output>
		</layer>
		<layer id="154" name="aten::add/Add_11" type="Add" version="opset1">
			<data auto_broadcast="numpy" />
			<input>
				<port id="0" precision="FP32">
					<dim>-1</dim>
					<dim>256</dim>
					<dim>-1</dim>
					<dim>-1</dim>
				</port>
				<port id="1" precision="FP32">
					<dim>-1</dim>
					<dim>256</dim>
					<dim>-1</dim>
					<dim>-1</dim>
				</port>
			</input>
			<output>
				<port id="2" precision="FP32" names="379_1">
					<dim>-1</dim>
					<dim>256</dim>
					<dim>-1</dim>
					<dim>-1</dim>
				</port>
			</output>
		</layer>
		<layer id="155" name="aten::relu_/Relu_8" type="ReLU" version="opset1">
			<input>
				<port id="0" precision="FP32">
					<dim>-1</dim>
					<dim>256</dim>
					<dim>-1</dim>
					<dim>-1</dim>
				</port>
			</input>
			<output>
				<port id="1" precision="FP32" names="379,input.163">
					<dim>-1</dim>
					<dim>256</dim>
					<dim>-1</dim>
					<dim>-1</dim>
				</port>
			</output>
		</layer>
		<layer id="156" name="aten::relu_/Relu_8/fq_output_0/input_low" type="Const" version="opset1">
			<data element_type="f32" shape="" offset="16800" size="4" />
			<output>
				<port id="0" precision="FP32" />
			</output>
		</layer>
		<layer id="157" name="aten::relu_/Relu_8/fq_output_0/input_high" type="Const" version="opset1">
			<data element_type="f32" shape="" offset="195648" size="4" />
			<output>
				<port id="0" precision="FP32" />
			</output>
		</layer>
		<layer id="158" name="aten::relu_/Relu_8/fq_output_0/output_low" type="Const" version="opset1">
			<data element_type="f32" shape="" offset="16800" size="4" />
			<output>
				<port id="0" precision="FP32" />
			</output>
		</layer>
		<layer id="159" name="aten::relu_/Relu_8/fq_output_0/output_high" type="Const" version="opset1">
			<data element_type="f32" shape="" offset="195648" size="4" />
			<output>
				<port id="0" precision="FP32" />
			</output>
		</layer>
		<layer id="160" name="aten::relu_/Relu_8/fq_output_0" type="FakeQuantize" version="opset1">
			<data levels="256" auto_broadcast="numpy" />
			<input>
				<port id="0" precision="FP32">
					<dim>-1</dim>
					<dim>256</dim>
					<dim>-1</dim>
					<dim>-1</dim>
				</port>
				<port id="1" precision="FP32" />
				<port id="2" precision="FP32" />
				<port id="3" precision="FP32" />
				<port id="4" precision="FP32" />
			</input>
			<output>
				<port id="5" precision="FP32">
					<dim>-1</dim>
					<dim>256</dim>
					<dim>-1</dim>
					<dim>-1</dim>
				</port>
			</output>
		</layer>
		<layer id="161" name="Constant_3317084" type="Const" version="opset1">
			<data element_type="i8" shape="64, 256, 1, 1" offset="195652" size="16384" />
			<output>
				<port id="0" precision="I8">
					<dim>64</dim>
					<dim>256</dim>
					<dim>1</dim>
					<dim>1</dim>
				</port>
			</output>
		</layer>
		<layer id="162" name="Convert_3317085" type="Convert" version="opset1">
			<data destination_type="f32" />
			<input>
				<port id="0" precision="I8">
					<dim>64</dim>
					<dim>256</dim>
					<dim>1</dim>
					<dim>1</dim>
				</port>
			</input>
			<output>
				<port id="1" precision="FP32">
					<dim>64</dim>
					<dim>256</dim>
					<dim>1</dim>
					<dim>1</dim>
				</port>
			</output>
		</layer>
		<layer id="163" name="Constant_3317086" type="Const" version="opset1">
			<data element_type="f32" shape="64, 1, 1, 1" offset="212036" size="256" />
			<output>
				<port id="0" precision="FP32">
					<dim>64</dim>
					<dim>1</dim>
					<dim>1</dim>
					<dim>1</dim>
				</port>
			</output>
		</layer>
		<layer id="164" name="aten::mul/Multiply_21/fq_weights_1" type="Multiply" version="opset1">
			<data auto_broadcast="numpy" />
			<input>
				<port id="0" precision="FP32">
					<dim>64</dim>
					<dim>256</dim>
					<dim>1</dim>
					<dim>1</dim>
				</port>
				<port id="1" precision="FP32">
					<dim>64</dim>
					<dim>1</dim>
					<dim>1</dim>
					<dim>1</dim>
				</port>
			</input>
			<output>
				<port id="2" precision="FP32">
					<dim>64</dim>
					<dim>256</dim>
					<dim>1</dim>
					<dim>1</dim>
				</port>
			</output>
		</layer>
		<layer id="165" name="aten::mul/Multiply_21" type="Convolution" version="opset1">
			<data strides="1, 1" dilations="1, 1" pads_begin="0, 0" pads_end="0, 0" auto_pad="explicit" />
			<input>
				<port id="0" precision="FP32">
					<dim>-1</dim>
					<dim>256</dim>
					<dim>-1</dim>
					<dim>-1</dim>
				</port>
				<port id="1" precision="FP32">
					<dim>64</dim>
					<dim>256</dim>
					<dim>1</dim>
					<dim>1</dim>
				</port>
			</input>
			<output>
				<port id="2" precision="FP32" names="411">
					<dim>-1</dim>
					<dim>64</dim>
					<dim>-1</dim>
					<dim>-1</dim>
				</port>
			</output>
		</layer>
		<layer id="166" name="aten::add/Multiply_12_compressed" type="Const" version="opset1">
			<data element_type="f16" shape="1, 64, 1, 1" offset="212292" size="128" />
			<output>
				<port id="0" precision="FP16">
					<dim>1</dim>
					<dim>64</dim>
					<dim>1</dim>
					<dim>1</dim>
				</port>
			</output>
		</layer>
		<layer id="167" name="aten::add/Multiply_12" type="Convert" version="opset1">
			<data destination_type="f32" />
			<rt_info>
				<attribute name="decompression" version="0" />
			</rt_info>
			<input>
				<port id="0" precision="FP16">
					<dim>1</dim>
					<dim>64</dim>
					<dim>1</dim>
					<dim>1</dim>
				</port>
			</input>
			<output>
				<port id="1" precision="FP32">
					<dim>1</dim>
					<dim>64</dim>
					<dim>1</dim>
					<dim>1</dim>
				</port>
			</output>
		</layer>
		<layer id="168" name="aten::add/Add_12" type="Add" version="opset1">
			<data auto_broadcast="numpy" />
			<input>
				<port id="0" precision="FP32">
					<dim>-1</dim>
					<dim>64</dim>
					<dim>-1</dim>
					<dim>-1</dim>
				</port>
				<port id="1" precision="FP32">
					<dim>1</dim>
					<dim>64</dim>
					<dim>1</dim>
					<dim>1</dim>
				</port>
			</input>
			<output>
				<port id="2" precision="FP32" names="412_1">
					<dim>-1</dim>
					<dim>64</dim>
					<dim>-1</dim>
					<dim>-1</dim>
				</port>
			</output>
		</layer>
		<layer id="169" name="aten::relu_/Relu_9" type="ReLU" version="opset1">
			<input>
				<port id="0" precision="FP32">
					<dim>-1</dim>
					<dim>64</dim>
					<dim>-1</dim>
					<dim>-1</dim>
				</port>
			</input>
			<output>
				<port id="1" precision="FP32" names="412,input.157">
					<dim>-1</dim>
					<dim>64</dim>
					<dim>-1</dim>
					<dim>-1</dim>
				</port>
			</output>
		</layer>
		<layer id="170" name="aten::relu_/Relu_9/fq_output_0/input_low" type="Const" version="opset1">
			<data element_type="f32" shape="" offset="16800" size="4" />
			<output>
				<port id="0" precision="FP32" />
			</output>
		</layer>
		<layer id="171" name="aten::relu_/Relu_9/fq_output_0/input_high" type="Const" version="opset1">
			<data element_type="f32" shape="" offset="212420" size="4" />
			<output>
				<port id="0" precision="FP32" />
			</output>
		</layer>
		<layer id="172" name="aten::relu_/Relu_9/fq_output_0/output_low" type="Const" version="opset1">
			<data element_type="f32" shape="" offset="16800" size="4" />
			<output>
				<port id="0" precision="FP32" />
			</output>
		</layer>
		<layer id="173" name="aten::relu_/Relu_9/fq_output_0/output_high" type="Const" version="opset1">
			<data element_type="f32" shape="" offset="212420" size="4" />
			<output>
				<port id="0" precision="FP32" />
			</output>
		</layer>
		<layer id="174" name="aten::relu_/Relu_9/fq_output_0" type="FakeQuantize" version="opset1">
			<data levels="256" auto_broadcast="numpy" />
			<input>
				<port id="0" precision="FP32">
					<dim>-1</dim>
					<dim>64</dim>
					<dim>-1</dim>
					<dim>-1</dim>
				</port>
				<port id="1" precision="FP32" />
				<port id="2" precision="FP32" />
				<port id="3" precision="FP32" />
				<port id="4" precision="FP32" />
			</input>
			<output>
				<port id="5" precision="FP32">
					<dim>-1</dim>
					<dim>64</dim>
					<dim>-1</dim>
					<dim>-1</dim>
				</port>
			</output>
		</layer>
		<layer id="175" name="Constant_3317089" type="Const" version="opset1">
			<data element_type="i8" shape="64, 64, 3, 3" offset="212424" size="36864" />
			<output>
				<port id="0" precision="I8">
					<dim>64</dim>
					<dim>64</dim>
					<dim>3</dim>
					<dim>3</dim>
				</port>
			</output>
		</layer>
		<layer id="176" name="Convert_3317090" type="Convert" version="opset1">
			<data destination_type="f32" />
			<input>
				<port id="0" precision="I8">
					<dim>64</dim>
					<dim>64</dim>
					<dim>3</dim>
					<dim>3</dim>
				</port>
			</input>
			<output>
				<port id="1" precision="FP32">
					<dim>64</dim>
					<dim>64</dim>
					<dim>3</dim>
					<dim>3</dim>
				</port>
			</output>
		</layer>
		<layer id="177" name="Constant_3317091" type="Const" version="opset1">
			<data element_type="f32" shape="64, 1, 1, 1" offset="249288" size="256" />
			<output>
				<port id="0" precision="FP32">
					<dim>64</dim>
					<dim>1</dim>
					<dim>1</dim>
					<dim>1</dim>
				</port>
			</output>
		</layer>
		<layer id="178" name="aten::mul/Multiply_23/fq_weights_1" type="Multiply" version="opset1">
			<data auto_broadcast="numpy" />
			<input>
				<port id="0" precision="FP32">
					<dim>64</dim>
					<dim>64</dim>
					<dim>3</dim>
					<dim>3</dim>
				</port>
				<port id="1" precision="FP32">
					<dim>64</dim>
					<dim>1</dim>
					<dim>1</dim>
					<dim>1</dim>
				</port>
			</input>
			<output>
				<port id="2" precision="FP32">
					<dim>64</dim>
					<dim>64</dim>
					<dim>3</dim>
					<dim>3</dim>
				</port>
			</output>
		</layer>
		<layer id="179" name="aten::mul/Multiply_23" type="Convolution" version="opset1">
			<data strides="1, 1" dilations="1, 1" pads_begin="1, 1" pads_end="1, 1" auto_pad="explicit" />
			<input>
				<port id="0" precision="FP32">
					<dim>-1</dim>
					<dim>64</dim>
					<dim>-1</dim>
					<dim>-1</dim>
				</port>
				<port id="1" precision="FP32">
					<dim>64</dim>
					<dim>64</dim>
					<dim>3</dim>
					<dim>3</dim>
				</port>
			</input>
			<output>
				<port id="2" precision="FP32" names="440">
					<dim>-1</dim>
					<dim>64</dim>
					<dim>-1</dim>
					<dim>-1</dim>
				</port>
			</output>
		</layer>
		<layer id="180" name="aten::add/Multiply_13_compressed" type="Const" version="opset1">
			<data element_type="f16" shape="1, 64, 1, 1" offset="249544" size="128" />
			<output>
				<port id="0" precision="FP16">
					<dim>1</dim>
					<dim>64</dim>
					<dim>1</dim>
					<dim>1</dim>
				</port>
			</output>
		</layer>
		<layer id="181" name="aten::add/Multiply_13" type="Convert" version="opset1">
			<data destination_type="f32" />
			<rt_info>
				<attribute name="decompression" version="0" />
			</rt_info>
			<input>
				<port id="0" precision="FP16">
					<dim>1</dim>
					<dim>64</dim>
					<dim>1</dim>
					<dim>1</dim>
				</port>
			</input>
			<output>
				<port id="1" precision="FP32">
					<dim>1</dim>
					<dim>64</dim>
					<dim>1</dim>
					<dim>1</dim>
				</port>
			</output>
		</layer>
		<layer id="182" name="aten::add/Add_13" type="Add" version="opset1">
			<data auto_broadcast="numpy" />
			<input>
				<port id="0" precision="FP32">
					<dim>-1</dim>
					<dim>64</dim>
					<dim>-1</dim>
					<dim>-1</dim>
				</port>
				<port id="1" precision="FP32">
					<dim>1</dim>
					<dim>64</dim>
					<dim>1</dim>
					<dim>1</dim>
				</port>
			</input>
			<output>
				<port id="2" precision="FP32" names="441_1">
					<dim>-1</dim>
					<dim>64</dim>
					<dim>-1</dim>
					<dim>-1</dim>
				</port>
			</output>
		</layer>
		<layer id="183" name="aten::relu_/Relu_10" type="ReLU" version="opset1">
			<input>
				<port id="0" precision="FP32">
					<dim>-1</dim>
					<dim>64</dim>
					<dim>-1</dim>
					<dim>-1</dim>
				</port>
			</input>
			<output>
				<port id="1" precision="FP32" names="441,input.159">
					<dim>-1</dim>
					<dim>64</dim>
					<dim>-1</dim>
					<dim>-1</dim>
				</port>
			</output>
		</layer>
		<layer id="184" name="aten::relu_/Relu_10/fq_output_0/input_low" type="Const" version="opset1">
			<data element_type="f32" shape="" offset="16800" size="4" />
			<output>
				<port id="0" precision="FP32" />
			</output>
		</layer>
		<layer id="185" name="aten::relu_/Relu_10/fq_output_0/input_high" type="Const" version="opset1">
			<data element_type="f32" shape="" offset="249672" size="4" />
			<output>
				<port id="0" precision="FP32" />
			</output>
		</layer>
		<layer id="186" name="aten::relu_/Relu_10/fq_output_0/output_low" type="Const" version="opset1">
			<data element_type="f32" shape="" offset="16800" size="4" />
			<output>
				<port id="0" precision="FP32" />
			</output>
		</layer>
		<layer id="187" name="aten::relu_/Relu_10/fq_output_0/output_high" type="Const" version="opset1">
			<data element_type="f32" shape="" offset="249672" size="4" />
			<output>
				<port id="0" precision="FP32" />
			</output>
		</layer>
		<layer id="188" name="aten::relu_/Relu_10/fq_output_0" type="FakeQuantize" version="opset1">
			<data levels="256" auto_broadcast="numpy" />
			<input>
				<port id="0" precision="FP32">
					<dim>-1</dim>
					<dim>64</dim>
					<dim>-1</dim>
					<dim>-1</dim>
				</port>
				<port id="1" precision="FP32" />
				<port id="2" precision="FP32" />
				<port id="3" precision="FP32" />
				<port id="4" precision="FP32" />
			</input>
			<output>
				<port id="5" precision="FP32">
					<dim>-1</dim>
					<dim>64</dim>
					<dim>-1</dim>
					<dim>-1</dim>
				</port>
			</output>
		</layer>
		<layer id="189" name="Constant_3317094" type="Const" version="opset1">
			<data element_type="i8" shape="256, 64, 1, 1" offset="249676" size="16384" />
			<output>
				<port id="0" precision="I8">
					<dim>256</dim>
					<dim>64</dim>
					<dim>1</dim>
					<dim>1</dim>
				</port>
			</output>
		</layer>
		<layer id="190" name="Convert_3317095" type="Convert" version="opset1">
			<data destination_type="f32" />
			<input>
				<port id="0" precision="I8">
					<dim>256</dim>
					<dim>64</dim>
					<dim>1</dim>
					<dim>1</dim>
				</port>
			</input>
			<output>
				<port id="1" precision="FP32">
					<dim>256</dim>
					<dim>64</dim>
					<dim>1</dim>
					<dim>1</dim>
				</port>
			</output>
		</layer>
		<layer id="191" name="Constant_3317096" type="Const" version="opset1">
			<data element_type="f32" shape="256, 1, 1, 1" offset="266060" size="1024" />
			<output>
				<port id="0" precision="FP32">
					<dim>256</dim>
					<dim>1</dim>
					<dim>1</dim>
					<dim>1</dim>
				</port>
			</output>
		</layer>
		<layer id="192" name="aten::mul/Multiply_25/fq_weights_1" type="Multiply" version="opset1">
			<data auto_broadcast="numpy" />
			<input>
				<port id="0" precision="FP32">
					<dim>256</dim>
					<dim>64</dim>
					<dim>1</dim>
					<dim>1</dim>
				</port>
				<port id="1" precision="FP32">
					<dim>256</dim>
					<dim>1</dim>
					<dim>1</dim>
					<dim>1</dim>
				</port>
			</input>
			<output>
				<port id="2" precision="FP32">
					<dim>256</dim>
					<dim>64</dim>
					<dim>1</dim>
					<dim>1</dim>
				</port>
			</output>
		</layer>
		<layer id="193" name="aten::mul/Multiply_25" type="Convolution" version="opset1">
			<data strides="1, 1" dilations="1, 1" pads_begin="0, 0" pads_end="0, 0" auto_pad="explicit" />
			<input>
				<port id="0" precision="FP32">
					<dim>-1</dim>
					<dim>64</dim>
					<dim>-1</dim>
					<dim>-1</dim>
				</port>
				<port id="1" precision="FP32">
					<dim>256</dim>
					<dim>64</dim>
					<dim>1</dim>
					<dim>1</dim>
				</port>
			</input>
			<output>
				<port id="2" precision="FP32" names="469">
					<dim>-1</dim>
					<dim>256</dim>
					<dim>-1</dim>
					<dim>-1</dim>
				</port>
			</output>
		</layer>
		<layer id="194" name="aten::add/Multiply_14_compressed" type="Const" version="opset1">
			<data element_type="f16" shape="1, 256, 1, 1" offset="267084" size="512" />
			<output>
				<port id="0" precision="FP16">
					<dim>1</dim>
					<dim>256</dim>
					<dim>1</dim>
					<dim>1</dim>
				</port>
			</output>
		</layer>
		<layer id="195" name="aten::add/Multiply_14" type="Convert" version="opset1">
			<data destination_type="f32" />
			<rt_info>
				<attribute name="decompression" version="0" />
			</rt_info>
			<input>
				<port id="0" precision="FP16">
					<dim>1</dim>
					<dim>256</dim>
					<dim>1</dim>
					<dim>1</dim>
				</port>
			</input>
			<output>
				<port id="1" precision="FP32">
					<dim>1</dim>
					<dim>256</dim>
					<dim>1</dim>
					<dim>1</dim>
				</port>
			</output>
		</layer>
		<layer id="196" name="aten::add/Add_14" type="Add" version="opset1">
			<data auto_broadcast="numpy" />
			<input>
				<port id="0" precision="FP32">
					<dim>-1</dim>
					<dim>256</dim>
					<dim>-1</dim>
					<dim>-1</dim>
				</port>
				<port id="1" precision="FP32">
					<dim>1</dim>
					<dim>256</dim>
					<dim>1</dim>
					<dim>1</dim>
				</port>
			</input>
			<output>
				<port id="2" precision="FP32" names="470,out.7">
					<dim>-1</dim>
					<dim>256</dim>
					<dim>-1</dim>
					<dim>-1</dim>
				</port>
			</output>
		</layer>
		<layer id="197" name="aten::add/Add_14/fq_output_0/input_low" type="Const" version="opset1">
			<data element_type="f32" shape="" offset="267596" size="4" />
			<output>
				<port id="0" precision="FP32" />
			</output>
		</layer>
		<layer id="198" name="aten::add/Add_14/fq_output_0/input_high" type="Const" version="opset1">
			<data element_type="f32" shape="" offset="267600" size="4" />
			<output>
				<port id="0" precision="FP32" />
			</output>
		</layer>
		<layer id="199" name="aten::add/Add_14/fq_output_0/output_low" type="Const" version="opset1">
			<data element_type="f32" shape="" offset="267596" size="4" />
			<output>
				<port id="0" precision="FP32" />
			</output>
		</layer>
		<layer id="200" name="aten::add/Add_14/fq_output_0/output_high" type="Const" version="opset1">
			<data element_type="f32" shape="" offset="267600" size="4" />
			<output>
				<port id="0" precision="FP32" />
			</output>
		</layer>
		<layer id="201" name="aten::add/Add_14/fq_output_0" type="FakeQuantize" version="opset1">
			<data levels="256" auto_broadcast="numpy" />
			<input>
				<port id="0" precision="FP32">
					<dim>-1</dim>
					<dim>256</dim>
					<dim>-1</dim>
					<dim>-1</dim>
				</port>
				<port id="1" precision="FP32" />
				<port id="2" precision="FP32" />
				<port id="3" precision="FP32" />
				<port id="4" precision="FP32" />
			</input>
			<output>
				<port id="5" precision="FP32">
					<dim>-1</dim>
					<dim>256</dim>
					<dim>-1</dim>
					<dim>-1</dim>
				</port>
			</output>
		</layer>
		<layer id="202" name="aten::add/Add_15" type="Add" version="opset1">
			<data auto_broadcast="numpy" />
			<input>
				<port id="0" precision="FP32">
					<dim>-1</dim>
					<dim>256</dim>
					<dim>-1</dim>
					<dim>-1</dim>
				</port>
				<port id="1" precision="FP32">
					<dim>-1</dim>
					<dim>256</dim>
					<dim>-1</dim>
					<dim>-1</dim>
				</port>
			</input>
			<output>
				<port id="2" precision="FP32" names="471_1">
					<dim>-1</dim>
					<dim>256</dim>
					<dim>-1</dim>
					<dim>-1</dim>
				</port>
			</output>
		</layer>
		<layer id="203" name="aten::relu_/Relu_11" type="ReLU" version="opset1">
			<input>
				<port id="0" precision="FP32">
					<dim>-1</dim>
					<dim>256</dim>
					<dim>-1</dim>
					<dim>-1</dim>
				</port>
			</input>
			<output>
				<port id="1" precision="FP32" names="471,input.161">
					<dim>-1</dim>
					<dim>256</dim>
					<dim>-1</dim>
					<dim>-1</dim>
				</port>
			</output>
		</layer>
		<layer id="204" name="aten::relu_/Relu_11/fq_output_0/input_low" type="Const" version="opset1">
			<data element_type="f32" shape="" offset="16800" size="4" />
			<output>
				<port id="0" precision="FP32" />
			</output>
		</layer>
		<layer id="205" name="aten::relu_/Relu_11/fq_output_0/input_high" type="Const" version="opset1">
			<data element_type="f32" shape="" offset="267604" size="4" />
			<output>
				<port id="0" precision="FP32" />
			</output>
		</layer>
		<layer id="206" name="aten::relu_/Relu_11/fq_output_0/output_low" type="Const" version="opset1">
			<data element_type="f32" shape="" offset="16800" size="4" />
			<output>
				<port id="0" precision="FP32" />
			</output>
		</layer>
		<layer id="207" name="aten::relu_/Relu_11/fq_output_0/output_high" type="Const" version="opset1">
			<data element_type="f32" shape="" offset="267604" size="4" />
			<output>
				<port id="0" precision="FP32" />
			</output>
		</layer>
		<layer id="208" name="aten::relu_/Relu_11/fq_output_0" type="FakeQuantize" version="opset1">
			<data levels="256" auto_broadcast="numpy" />
			<input>
				<port id="0" precision="FP32">
					<dim>-1</dim>
					<dim>256</dim>
					<dim>-1</dim>
					<dim>-1</dim>
				</port>
				<port id="1" precision="FP32" />
				<port id="2" precision="FP32" />
				<port id="3" precision="FP32" />
				<port id="4" precision="FP32" />
			</input>
			<output>
				<port id="5" precision="FP32">
					<dim>-1</dim>
					<dim>256</dim>
					<dim>-1</dim>
					<dim>-1</dim>
				</port>
			</output>
		</layer>
		<layer id="209" name="Constant_3317099" type="Const" version="opset1">
			<data element_type="i8" shape="128, 256, 1, 1" offset="267608" size="32768" />
			<output>
				<port id="0" precision="I8">
					<dim>128</dim>
					<dim>256</dim>
					<dim>1</dim>
					<dim>1</dim>
				</port>
			</output>
		</layer>
		<layer id="210" name="Convert_3317100" type="Convert" version="opset1">
			<data destination_type="f32" />
			<input>
				<port id="0" precision="I8">
					<dim>128</dim>
					<dim>256</dim>
					<dim>1</dim>
					<dim>1</dim>
				</port>
			</input>
			<output>
				<port id="1" precision="FP32">
					<dim>128</dim>
					<dim>256</dim>
					<dim>1</dim>
					<dim>1</dim>
				</port>
			</output>
		</layer>
		<layer id="211" name="Constant_3317101" type="Const" version="opset1">
			<data element_type="f32" shape="128, 1, 1, 1" offset="300376" size="512" />
			<output>
				<port id="0" precision="FP32">
					<dim>128</dim>
					<dim>1</dim>
					<dim>1</dim>
					<dim>1</dim>
				</port>
			</output>
		</layer>
		<layer id="212" name="aten::mul/Multiply_27/fq_weights_1" type="Multiply" version="opset1">
			<data auto_broadcast="numpy" />
			<input>
				<port id="0" precision="FP32">
					<dim>128</dim>
					<dim>256</dim>
					<dim>1</dim>
					<dim>1</dim>
				</port>
				<port id="1" precision="FP32">
					<dim>128</dim>
					<dim>1</dim>
					<dim>1</dim>
					<dim>1</dim>
				</port>
			</input>
			<output>
				<port id="2" precision="FP32">
					<dim>128</dim>
					<dim>256</dim>
					<dim>1</dim>
					<dim>1</dim>
				</port>
			</output>
		</layer>
		<layer id="213" name="aten::mul/Multiply_27" type="Convolution" version="opset1">
			<data strides="1, 1" dilations="1, 1" pads_begin="0, 0" pads_end="0, 0" auto_pad="explicit" />
			<input>
				<port id="0" precision="FP32">
					<dim>-1</dim>
					<dim>256</dim>
					<dim>-1</dim>
					<dim>-1</dim>
				</port>
				<port id="1" precision="FP32">
					<dim>128</dim>
					<dim>256</dim>
					<dim>1</dim>
					<dim>1</dim>
				</port>
			</input>
			<output>
				<port id="2" precision="FP32" names="512">
					<dim>-1</dim>
					<dim>128</dim>
					<dim>-1</dim>
					<dim>-1</dim>
				</port>
			</output>
		</layer>
		<layer id="214" name="aten::add/Multiply_16_compressed" type="Const" version="opset1">
			<data element_type="f16" shape="1, 128, 1, 1" offset="300888" size="256" />
			<output>
				<port id="0" precision="FP16">
					<dim>1</dim>
					<dim>128</dim>
					<dim>1</dim>
					<dim>1</dim>
				</port>
			</output>
		</layer>
		<layer id="215" name="aten::add/Multiply_16" type="Convert" version="opset1">
			<data destination_type="f32" />
			<rt_info>
				<attribute name="decompression" version="0" />
			</rt_info>
			<input>
				<port id="0" precision="FP16">
					<dim>1</dim>
					<dim>128</dim>
					<dim>1</dim>
					<dim>1</dim>
				</port>
			</input>
			<output>
				<port id="1" precision="FP32">
					<dim>1</dim>
					<dim>128</dim>
					<dim>1</dim>
					<dim>1</dim>
				</port>
			</output>
		</layer>
		<layer id="216" name="aten::add/Add_16" type="Add" version="opset1">
			<data auto_broadcast="numpy" />
			<input>
				<port id="0" precision="FP32">
					<dim>-1</dim>
					<dim>128</dim>
					<dim>-1</dim>
					<dim>-1</dim>
				</port>
				<port id="1" precision="FP32">
					<dim>1</dim>
					<dim>128</dim>
					<dim>1</dim>
					<dim>1</dim>
				</port>
			</input>
			<output>
				<port id="2" precision="FP32" names="513_1">
					<dim>-1</dim>
					<dim>128</dim>
					<dim>-1</dim>
					<dim>-1</dim>
				</port>
			</output>
		</layer>
		<layer id="217" name="aten::relu_/Relu_12" type="ReLU" version="opset1">
			<input>
				<port id="0" precision="FP32">
					<dim>-1</dim>
					<dim>128</dim>
					<dim>-1</dim>
					<dim>-1</dim>
				</port>
			</input>
			<output>
				<port id="1" precision="FP32" names="513,input.173">
					<dim>-1</dim>
					<dim>128</dim>
					<dim>-1</dim>
					<dim>-1</dim>
				</port>
			</output>
		</layer>
		<layer id="218" name="aten::relu_/Relu_12/fq_output_0/input_low" type="Const" version="opset1">
			<data element_type="f32" shape="" offset="16800" size="4" />
			<output>
				<port id="0" precision="FP32" />
			</output>
		</layer>
		<layer id="219" name="aten::relu_/Relu_12/fq_output_0/input_high" type="Const" version="opset1">
			<data element_type="f32" shape="" offset="301144" size="4" />
			<output>
				<port id="0" precision="FP32" />
			</output>
		</layer>
		<layer id="220" name="aten::relu_/Relu_12/fq_output_0/output_low" type="Const" version="opset1">
			<data element_type="f32" shape="" offset="16800" size="4" />
			<output>
				<port id="0" precision="FP32" />
			</output>
		</layer>
		<layer id="221" name="aten::relu_/Relu_12/fq_output_0/output_high" type="Const" version="opset1">
			<data element_type="f32" shape="" offset="301144" size="4" />
			<output>
				<port id="0" precision="FP32" />
			</output>
		</layer>
		<layer id="222" name="aten::relu_/Relu_12/fq_output_0" type="FakeQuantize" version="opset1">
			<data levels="256" auto_broadcast="numpy" />
			<input>
				<port id="0" precision="FP32">
					<dim>-1</dim>
					<dim>128</dim>
					<dim>-1</dim>
					<dim>-1</dim>
				</port>
				<port id="1" precision="FP32" />
				<port id="2" precision="FP32" />
				<port id="3" precision="FP32" />
				<port id="4" precision="FP32" />
			</input>
			<output>
				<port id="5" precision="FP32">
					<dim>-1</dim>
					<dim>128</dim>
					<dim>-1</dim>
					<dim>-1</dim>
				</port>
			</output>
		</layer>
		<layer id="223" name="Constant_3317104" type="Const" version="opset1">
			<data element_type="i8" shape="128, 128, 3, 3" offset="301148" size="147456" />
			<output>
				<port id="0" precision="I8">
					<dim>128</dim>
					<dim>128</dim>
					<dim>3</dim>
					<dim>3</dim>
				</port>
			</output>
		</layer>
		<layer id="224" name="Convert_3317105" type="Convert" version="opset1">
			<data destination_type="f32" />
			<input>
				<port id="0" precision="I8">
					<dim>128</dim>
					<dim>128</dim>
					<dim>3</dim>
					<dim>3</dim>
				</port>
			</input>
			<output>
				<port id="1" precision="FP32">
					<dim>128</dim>
					<dim>128</dim>
					<dim>3</dim>
					<dim>3</dim>
				</port>
			</output>
		</layer>
		<layer id="225" name="Constant_3317106" type="Const" version="opset1">
			<data element_type="f32" shape="128, 1, 1, 1" offset="448604" size="512" />
			<output>
				<port id="0" precision="FP32">
					<dim>128</dim>
					<dim>1</dim>
					<dim>1</dim>
					<dim>1</dim>
				</port>
			</output>
		</layer>
		<layer id="226" name="aten::mul/Multiply_29/fq_weights_1" type="Multiply" version="opset1">
			<data auto_broadcast="numpy" />
			<input>
				<port id="0" precision="FP32">
					<dim>128</dim>
					<dim>128</dim>
					<dim>3</dim>
					<dim>3</dim>
				</port>
				<port id="1" precision="FP32">
					<dim>128</dim>
					<dim>1</dim>
					<dim>1</dim>
					<dim>1</dim>
				</port>
			</input>
			<output>
				<port id="2" precision="FP32">
					<dim>128</dim>
					<dim>128</dim>
					<dim>3</dim>
					<dim>3</dim>
				</port>
			</output>
		</layer>
		<layer id="227" name="aten::mul/Multiply_29" type="Convolution" version="opset1">
			<data strides="2, 2" dilations="1, 1" pads_begin="1, 1" pads_end="1, 1" auto_pad="explicit" />
			<input>
				<port id="0" precision="FP32">
					<dim>-1</dim>
					<dim>128</dim>
					<dim>-1</dim>
					<dim>-1</dim>
				</port>
				<port id="1" precision="FP32">
					<dim>128</dim>
					<dim>128</dim>
					<dim>3</dim>
					<dim>3</dim>
				</port>
			</input>
			<output>
				<port id="2" precision="FP32" names="541">
					<dim>-1</dim>
					<dim>128</dim>
					<dim>-1</dim>
					<dim>-1</dim>
				</port>
			</output>
		</layer>
		<layer id="228" name="aten::add/Multiply_17_compressed" type="Const" version="opset1">
			<data element_type="f16" shape="1, 128, 1, 1" offset="449116" size="256" />
			<output>
				<port id="0" precision="FP16">
					<dim>1</dim>
					<dim>128</dim>
					<dim>1</dim>
					<dim>1</dim>
				</port>
			</output>
		</layer>
		<layer id="229" name="aten::add/Multiply_17" type="Convert" version="opset1">
			<data destination_type="f32" />
			<rt_info>
				<attribute name="decompression" version="0" />
			</rt_info>
			<input>
				<port id="0" precision="FP16">
					<dim>1</dim>
					<dim>128</dim>
					<dim>1</dim>
					<dim>1</dim>
				</port>
			</input>
			<output>
				<port id="1" precision="FP32">
					<dim>1</dim>
					<dim>128</dim>
					<dim>1</dim>
					<dim>1</dim>
				</port>
			</output>
		</layer>
		<layer id="230" name="aten::add/Add_17" type="Add" version="opset1">
			<data auto_broadcast="numpy" />
			<input>
				<port id="0" precision="FP32">
					<dim>-1</dim>
					<dim>128</dim>
					<dim>-1</dim>
					<dim>-1</dim>
				</port>
				<port id="1" precision="FP32">
					<dim>1</dim>
					<dim>128</dim>
					<dim>1</dim>
					<dim>1</dim>
				</port>
			</input>
			<output>
				<port id="2" precision="FP32" names="542_1">
					<dim>-1</dim>
					<dim>128</dim>
					<dim>-1</dim>
					<dim>-1</dim>
				</port>
			</output>
		</layer>
		<layer id="231" name="aten::relu_/Relu_13" type="ReLU" version="opset1">
			<input>
				<port id="0" precision="FP32">
					<dim>-1</dim>
					<dim>128</dim>
					<dim>-1</dim>
					<dim>-1</dim>
				</port>
			</input>
			<output>
				<port id="1" precision="FP32" names="542,input.171">
					<dim>-1</dim>
					<dim>128</dim>
					<dim>-1</dim>
					<dim>-1</dim>
				</port>
			</output>
		</layer>
		<layer id="232" name="aten::relu_/Relu_13/fq_output_0/input_low" type="Const" version="opset1">
			<data element_type="f32" shape="" offset="16800" size="4" />
			<output>
				<port id="0" precision="FP32" />
			</output>
		</layer>
		<layer id="233" name="aten::relu_/Relu_13/fq_output_0/input_high" type="Const" version="opset1">
			<data element_type="f32" shape="" offset="449372" size="4" />
			<output>
				<port id="0" precision="FP32" />
			</output>
		</layer>
		<layer id="234" name="aten::relu_/Relu_13/fq_output_0/output_low" type="Const" version="opset1">
			<data element_type="f32" shape="" offset="16800" size="4" />
			<output>
				<port id="0" precision="FP32" />
			</output>
		</layer>
		<layer id="235" name="aten::relu_/Relu_13/fq_output_0/output_high" type="Const" version="opset1">
			<data element_type="f32" shape="" offset="449372" size="4" />
			<output>
				<port id="0" precision="FP32" />
			</output>
		</layer>
		<layer id="236" name="aten::relu_/Relu_13/fq_output_0" type="FakeQuantize" version="opset1">
			<data levels="256" auto_broadcast="numpy" />
			<input>
				<port id="0" precision="FP32">
					<dim>-1</dim>
					<dim>128</dim>
					<dim>-1</dim>
					<dim>-1</dim>
				</port>
				<port id="1" precision="FP32" />
				<port id="2" precision="FP32" />
				<port id="3" precision="FP32" />
				<port id="4" precision="FP32" />
			</input>
			<output>
				<port id="5" precision="FP32">
					<dim>-1</dim>
					<dim>128</dim>
					<dim>-1</dim>
					<dim>-1</dim>
				</port>
			</output>
		</layer>
		<layer id="237" name="Constant_3317109" type="Const" version="opset1">
			<data element_type="i8" shape="512, 128, 1, 1" offset="449376" size="65536" />
			<output>
				<port id="0" precision="I8">
					<dim>512</dim>
					<dim>128</dim>
					<dim>1</dim>
					<dim>1</dim>
				</port>
			</output>
		</layer>
		<layer id="238" name="Convert_3317110" type="Convert" version="opset1">
			<data destination_type="f32" />
			<input>
				<port id="0" precision="I8">
					<dim>512</dim>
					<dim>128</dim>
					<dim>1</dim>
					<dim>1</dim>
				</port>
			</input>
			<output>
				<port id="1" precision="FP32">
					<dim>512</dim>
					<dim>128</dim>
					<dim>1</dim>
					<dim>1</dim>
				</port>
			</output>
		</layer>
		<layer id="239" name="Constant_3317111" type="Const" version="opset1">
			<data element_type="f32" shape="512, 1, 1, 1" offset="514912" size="2048" />
			<output>
				<port id="0" precision="FP32">
					<dim>512</dim>
					<dim>1</dim>
					<dim>1</dim>
					<dim>1</dim>
				</port>
			</output>
		</layer>
		<layer id="240" name="aten::mul/Multiply_31/fq_weights_1" type="Multiply" version="opset1">
			<data auto_broadcast="numpy" />
			<input>
				<port id="0" precision="FP32">
					<dim>512</dim>
					<dim>128</dim>
					<dim>1</dim>
					<dim>1</dim>
				</port>
				<port id="1" precision="FP32">
					<dim>512</dim>
					<dim>1</dim>
					<dim>1</dim>
					<dim>1</dim>
				</port>
			</input>
			<output>
				<port id="2" precision="FP32">
					<dim>512</dim>
					<dim>128</dim>
					<dim>1</dim>
					<dim>1</dim>
				</port>
			</output>
		</layer>
		<layer id="241" name="aten::mul/Multiply_31" type="Convolution" version="opset1">
			<data strides="1, 1" dilations="1, 1" pads_begin="0, 0" pads_end="0, 0" auto_pad="explicit" />
			<input>
				<port id="0" precision="FP32">
					<dim>-1</dim>
					<dim>128</dim>
					<dim>-1</dim>
					<dim>-1</dim>
				</port>
				<port id="1" precision="FP32">
					<dim>512</dim>
					<dim>128</dim>
					<dim>1</dim>
					<dim>1</dim>
				</port>
			</input>
			<output>
				<port id="2" precision="FP32" names="570">
					<dim>-1</dim>
					<dim>512</dim>
					<dim>-1</dim>
					<dim>-1</dim>
				</port>
			</output>
		</layer>
		<layer id="242" name="aten::add/Multiply_18_compressed" type="Const" version="opset1">
			<data element_type="f16" shape="1, 512, 1, 1" offset="516960" size="1024" />
			<output>
				<port id="0" precision="FP16">
					<dim>1</dim>
					<dim>512</dim>
					<dim>1</dim>
					<dim>1</dim>
				</port>
			</output>
		</layer>
		<layer id="243" name="aten::add/Multiply_18" type="Convert" version="opset1">
			<data destination_type="f32" />
			<rt_info>
				<attribute name="decompression" version="0" />
			</rt_info>
			<input>
				<port id="0" precision="FP16">
					<dim>1</dim>
					<dim>512</dim>
					<dim>1</dim>
					<dim>1</dim>
				</port>
			</input>
			<output>
				<port id="1" precision="FP32">
					<dim>1</dim>
					<dim>512</dim>
					<dim>1</dim>
					<dim>1</dim>
				</port>
			</output>
		</layer>
		<layer id="244" name="aten::add/Add_18" type="Add" version="opset1">
			<data auto_broadcast="numpy" />
			<input>
				<port id="0" precision="FP32">
					<dim>-1</dim>
					<dim>512</dim>
					<dim>-1</dim>
					<dim>-1</dim>
				</port>
				<port id="1" precision="FP32">
					<dim>1</dim>
					<dim>512</dim>
					<dim>1</dim>
					<dim>1</dim>
				</port>
			</input>
			<output>
				<port id="2" precision="FP32" names="571,out.9">
					<dim>-1</dim>
					<dim>512</dim>
					<dim>-1</dim>
					<dim>-1</dim>
				</port>
			</output>
		</layer>
		<layer id="245" name="aten::add/Add_18/fq_output_0/input_low" type="Const" version="opset1">
			<data element_type="f32" shape="" offset="517984" size="4" />
			<output>
				<port id="0" precision="FP32" />
			</output>
		</layer>
		<layer id="246" name="aten::add/Add_18/fq_output_0/input_high" type="Const" version="opset1">
			<data element_type="f32" shape="" offset="517988" size="4" />
			<output>
				<port id="0" precision="FP32" />
			</output>
		</layer>
		<layer id="247" name="aten::add/Add_18/fq_output_0/output_low" type="Const" version="opset1">
			<data element_type="f32" shape="" offset="517984" size="4" />
			<output>
				<port id="0" precision="FP32" />
			</output>
		</layer>
		<layer id="248" name="aten::add/Add_18/fq_output_0/output_high" type="Const" version="opset1">
			<data element_type="f32" shape="" offset="517988" size="4" />
			<output>
				<port id="0" precision="FP32" />
			</output>
		</layer>
		<layer id="249" name="aten::add/Add_18/fq_output_0" type="FakeQuantize" version="opset1">
			<data levels="256" auto_broadcast="numpy" />
			<input>
				<port id="0" precision="FP32">
					<dim>-1</dim>
					<dim>512</dim>
					<dim>-1</dim>
					<dim>-1</dim>
				</port>
				<port id="1" precision="FP32" />
				<port id="2" precision="FP32" />
				<port id="3" precision="FP32" />
				<port id="4" precision="FP32" />
			</input>
			<output>
				<port id="5" precision="FP32">
					<dim>-1</dim>
					<dim>512</dim>
					<dim>-1</dim>
					<dim>-1</dim>
				</port>
			</output>
		</layer>
		<layer id="250" name="aten::avg_pool2d/AvgPool" type="AvgPool" version="opset14">
			<data kernel="2, 2" strides="2, 2" pads_begin="0, 0" pads_end="0, 0" exclude-pad="false" auto_pad="explicit" rounding_type="ceil_torch" />
			<input>
				<port id="0" precision="FP32">
					<dim>-1</dim>
					<dim>256</dim>
					<dim>-1</dim>
					<dim>-1</dim>
				</port>
			</input>
			<output>
				<port id="1" precision="FP32" names="577,input.169">
					<dim>-1</dim>
					<dim>256</dim>
					<dim>-1</dim>
					<dim>-1</dim>
				</port>
			</output>
		</layer>
		<layer id="251" name="aten::avg_pool2d/AvgPool/fq_output_0/input_low" type="Const" version="opset1">
			<data element_type="f32" shape="" offset="16800" size="4" />
			<output>
				<port id="0" precision="FP32" />
			</output>
		</layer>
		<layer id="252" name="aten::avg_pool2d/AvgPool/fq_output_0/input_high" type="Const" version="opset1">
			<data element_type="f32" shape="" offset="517992" size="4" />
			<output>
				<port id="0" precision="FP32" />
			</output>
		</layer>
		<layer id="253" name="aten::avg_pool2d/AvgPool/fq_output_0/output_low" type="Const" version="opset1">
			<data element_type="f32" shape="" offset="16800" size="4" />
			<output>
				<port id="0" precision="FP32" />
			</output>
		</layer>
		<layer id="254" name="aten::avg_pool2d/AvgPool/fq_output_0/output_high" type="Const" version="opset1">
			<data element_type="f32" shape="" offset="517992" size="4" />
			<output>
				<port id="0" precision="FP32" />
			</output>
		</layer>
		<layer id="255" name="aten::avg_pool2d/AvgPool/fq_output_0" type="FakeQuantize" version="opset1">
			<data levels="256" auto_broadcast="numpy" />
			<input>
				<port id="0" precision="FP32">
					<dim>-1</dim>
					<dim>256</dim>
					<dim>-1</dim>
					<dim>-1</dim>
				</port>
				<port id="1" precision="FP32" />
				<port id="2" precision="FP32" />
				<port id="3" precision="FP32" />
				<port id="4" precision="FP32" />
			</input>
			<output>
				<port id="5" precision="FP32">
					<dim>-1</dim>
					<dim>256</dim>
					<dim>-1</dim>
					<dim>-1</dim>
				</port>
			</output>
		</layer>
		<layer id="256" name="Constant_3317114" type="Const" version="opset1">
			<data element_type="i8" shape="512, 256, 1, 1" offset="517996" size="131072" />
			<output>
				<port id="0" precision="I8">
					<dim>512</dim>
					<dim>256</dim>
					<dim>1</dim>
					<dim>1</dim>
				</port>
			</output>
		</layer>
		<layer id="257" name="Convert_3317115" type="Convert" version="opset1">
			<data destination_type="f32" />
			<input>
				<port id="0" precision="I8">
					<dim>512</dim>
					<dim>256</dim>
					<dim>1</dim>
					<dim>1</dim>
				</port>
			</input>
			<output>
				<port id="1" precision="FP32">
					<dim>512</dim>
					<dim>256</dim>
					<dim>1</dim>
					<dim>1</dim>
				</port>
			</output>
		</layer>
		<layer id="258" name="Constant_3317116" type="Const" version="opset1">
			<data element_type="f32" shape="512, 1, 1, 1" offset="649068" size="2048" />
			<output>
				<port id="0" precision="FP32">
					<dim>512</dim>
					<dim>1</dim>
					<dim>1</dim>
					<dim>1</dim>
				</port>
			</output>
		</layer>
		<layer id="259" name="aten::mul/Multiply_33/fq_weights_1" type="Multiply" version="opset1">
			<data auto_broadcast="numpy" />
			<input>
				<port id="0" precision="FP32">
					<dim>512</dim>
					<dim>256</dim>
					<dim>1</dim>
					<dim>1</dim>
				</port>
				<port id="1" precision="FP32">
					<dim>512</dim>
					<dim>1</dim>
					<dim>1</dim>
					<dim>1</dim>
				</port>
			</input>
			<output>
				<port id="2" precision="FP32">
					<dim>512</dim>
					<dim>256</dim>
					<dim>1</dim>
					<dim>1</dim>
				</port>
			</output>
		</layer>
		<layer id="260" name="aten::mul/Multiply_33" type="Convolution" version="opset1">
			<data strides="1, 1" dilations="1, 1" pads_begin="0, 0" pads_end="0, 0" auto_pad="explicit" />
			<input>
				<port id="0" precision="FP32">
					<dim>-1</dim>
					<dim>256</dim>
					<dim>-1</dim>
					<dim>-1</dim>
				</port>
				<port id="1" precision="FP32">
					<dim>512</dim>
					<dim>256</dim>
					<dim>1</dim>
					<dim>1</dim>
				</port>
			</input>
			<output>
				<port id="2" precision="FP32" names="604">
					<dim>-1</dim>
					<dim>512</dim>
					<dim>-1</dim>
					<dim>-1</dim>
				</port>
			</output>
		</layer>
		<layer id="261" name="aten::add/Multiply_19_compressed" type="Const" version="opset1">
			<data element_type="f16" shape="1, 512, 1, 1" offset="651116" size="1024" />
			<output>
				<port id="0" precision="FP16">
					<dim>1</dim>
					<dim>512</dim>
					<dim>1</dim>
					<dim>1</dim>
				</port>
			</output>
		</layer>
		<layer id="262" name="aten::add/Multiply_19" type="Convert" version="opset1">
			<data destination_type="f32" />
			<rt_info>
				<attribute name="decompression" version="0" />
			</rt_info>
			<input>
				<port id="0" precision="FP16">
					<dim>1</dim>
					<dim>512</dim>
					<dim>1</dim>
					<dim>1</dim>
				</port>
			</input>
			<output>
				<port id="1" precision="FP32">
					<dim>1</dim>
					<dim>512</dim>
					<dim>1</dim>
					<dim>1</dim>
				</port>
			</output>
		</layer>
		<layer id="263" name="aten::add/Add_19" type="Add" version="opset1">
			<data auto_broadcast="numpy" />
			<input>
				<port id="0" precision="FP32">
					<dim>-1</dim>
					<dim>512</dim>
					<dim>-1</dim>
					<dim>-1</dim>
				</port>
				<port id="1" precision="FP32">
					<dim>1</dim>
					<dim>512</dim>
					<dim>1</dim>
					<dim>1</dim>
				</port>
			</input>
			<output>
				<port id="2" precision="FP32" names="605,short.9">
					<dim>-1</dim>
					<dim>512</dim>
					<dim>-1</dim>
					<dim>-1</dim>
				</port>
			</output>
		</layer>
		<layer id="264" name="aten::add/Add_19/fq_output_0/input_low" type="Const" version="opset1">
			<data element_type="f32" shape="" offset="652140" size="4" />
			<output>
				<port id="0" precision="FP32" />
			</output>
		</layer>
		<layer id="265" name="aten::add/Add_19/fq_output_0/input_high" type="Const" version="opset1">
			<data element_type="f32" shape="" offset="652144" size="4" />
			<output>
				<port id="0" precision="FP32" />
			</output>
		</layer>
		<layer id="266" name="aten::add/Add_19/fq_output_0/output_low" type="Const" version="opset1">
			<data element_type="f32" shape="" offset="652140" size="4" />
			<output>
				<port id="0" precision="FP32" />
			</output>
		</layer>
		<layer id="267" name="aten::add/Add_19/fq_output_0/output_high" type="Const" version="opset1">
			<data element_type="f32" shape="" offset="652144" size="4" />
			<output>
				<port id="0" precision="FP32" />
			</output>
		</layer>
		<layer id="268" name="aten::add/Add_19/fq_output_0" type="FakeQuantize" version="opset1">
			<data levels="256" auto_broadcast="numpy" />
			<input>
				<port id="0" precision="FP32">
					<dim>-1</dim>
					<dim>512</dim>
					<dim>-1</dim>
					<dim>-1</dim>
				</port>
				<port id="1" precision="FP32" />
				<port id="2" precision="FP32" />
				<port id="3" precision="FP32" />
				<port id="4" precision="FP32" />
			</input>
			<output>
				<port id="5" precision="FP32">
					<dim>-1</dim>
					<dim>512</dim>
					<dim>-1</dim>
					<dim>-1</dim>
				</port>
			</output>
		</layer>
		<layer id="269" name="aten::add/Add_20" type="Add" version="opset1">
			<data auto_broadcast="numpy" />
			<input>
				<port id="0" precision="FP32">
					<dim>-1</dim>
					<dim>512</dim>
					<dim>-1</dim>
					<dim>-1</dim>
				</port>
				<port id="1" precision="FP32">
					<dim>-1</dim>
					<dim>512</dim>
					<dim>-1</dim>
					<dim>-1</dim>
				</port>
			</input>
			<output>
				<port id="2" precision="FP32" names="606_1">
					<dim>-1</dim>
					<dim>512</dim>
					<dim>-1</dim>
					<dim>-1</dim>
				</port>
			</output>
		</layer>
		<layer id="270" name="aten::relu_/Relu_14" type="ReLU" version="opset1">
			<input>
				<port id="0" precision="FP32">
					<dim>-1</dim>
					<dim>512</dim>
					<dim>-1</dim>
					<dim>-1</dim>
				</port>
			</input>
			<output>
				<port id="1" precision="FP32" names="606,input.181">
					<dim>-1</dim>
					<dim>512</dim>
					<dim>-1</dim>
					<dim>-1</dim>
				</port>
			</output>
		</layer>
		<layer id="271" name="aten::relu_/Relu_14/fq_output_0/input_low" type="Const" version="opset1">
			<data element_type="f32" shape="" offset="16800" size="4" />
			<output>
				<port id="0" precision="FP32" />
			</output>
		</layer>
		<layer id="272" name="aten::relu_/Relu_14/fq_output_0/input_high" type="Const" version="opset1">
			<data element_type="f32" shape="" offset="652148" size="4" />
			<output>
				<port id="0" precision="FP32" />
			</output>
		</layer>
		<layer id="273" name="aten::relu_/Relu_14/fq_output_0/output_low" type="Const" version="opset1">
			<data element_type="f32" shape="" offset="16800" size="4" />
			<output>
				<port id="0" precision="FP32" />
			</output>
		</layer>
		<layer id="274" name="aten::relu_/Relu_14/fq_output_0/output_high" type="Const" version="opset1">
			<data element_type="f32" shape="" offset="652148" size="4" />
			<output>
				<port id="0" precision="FP32" />
			</output>
		</layer>
		<layer id="275" name="aten::relu_/Relu_14/fq_output_0" type="FakeQuantize" version="opset1">
			<data levels="256" auto_broadcast="numpy" />
			<input>
				<port id="0" precision="FP32">
					<dim>-1</dim>
					<dim>512</dim>
					<dim>-1</dim>
					<dim>-1</dim>
				</port>
				<port id="1" precision="FP32" />
				<port id="2" precision="FP32" />
				<port id="3" precision="FP32" />
				<port id="4" precision="FP32" />
			</input>
			<output>
				<port id="5" precision="FP32">
					<dim>-1</dim>
					<dim>512</dim>
					<dim>-1</dim>
					<dim>-1</dim>
				</port>
			</output>
		</layer>
		<layer id="276" name="Constant_3317119" type="Const" version="opset1">
			<data element_type="i8" shape="128, 512, 1, 1" offset="652152" size="65536" />
			<output>
				<port id="0" precision="I8">
					<dim>128</dim>
					<dim>512</dim>
					<dim>1</dim>
					<dim>1</dim>
				</port>
			</output>
		</layer>
		<layer id="277" name="Convert_3317120" type="Convert" version="opset1">
			<data destination_type="f32" />
			<input>
				<port id="0" precision="I8">
					<dim>128</dim>
					<dim>512</dim>
					<dim>1</dim>
					<dim>1</dim>
				</port>
			</input>
			<output>
				<port id="1" precision="FP32">
					<dim>128</dim>
					<dim>512</dim>
					<dim>1</dim>
					<dim>1</dim>
				</port>
			</output>
		</layer>
		<layer id="278" name="Constant_3317121" type="Const" version="opset1">
			<data element_type="f32" shape="128, 1, 1, 1" offset="717688" size="512" />
			<output>
				<port id="0" precision="FP32">
					<dim>128</dim>
					<dim>1</dim>
					<dim>1</dim>
					<dim>1</dim>
				</port>
			</output>
		</layer>
		<layer id="279" name="aten::mul/Multiply_35/fq_weights_1" type="Multiply" version="opset1">
			<data auto_broadcast="numpy" />
			<input>
				<port id="0" precision="FP32">
					<dim>128</dim>
					<dim>512</dim>
					<dim>1</dim>
					<dim>1</dim>
				</port>
				<port id="1" precision="FP32">
					<dim>128</dim>
					<dim>1</dim>
					<dim>1</dim>
					<dim>1</dim>
				</port>
			</input>
			<output>
				<port id="2" precision="FP32">
					<dim>128</dim>
					<dim>512</dim>
					<dim>1</dim>
					<dim>1</dim>
				</port>
			</output>
		</layer>
		<layer id="280" name="aten::mul/Multiply_35" type="Convolution" version="opset1">
			<data strides="1, 1" dilations="1, 1" pads_begin="0, 0" pads_end="0, 0" auto_pad="explicit" />
			<input>
				<port id="0" precision="FP32">
					<dim>-1</dim>
					<dim>512</dim>
					<dim>-1</dim>
					<dim>-1</dim>
				</port>
				<port id="1" precision="FP32">
					<dim>128</dim>
					<dim>512</dim>
					<dim>1</dim>
					<dim>1</dim>
				</port>
			</input>
			<output>
				<port id="2" precision="FP32" names="638">
					<dim>-1</dim>
					<dim>128</dim>
					<dim>-1</dim>
					<dim>-1</dim>
				</port>
			</output>
		</layer>
		<layer id="281" name="aten::add/Multiply_21_compressed" type="Const" version="opset1">
			<data element_type="f16" shape="1, 128, 1, 1" offset="718200" size="256" />
			<output>
				<port id="0" precision="FP16">
					<dim>1</dim>
					<dim>128</dim>
					<dim>1</dim>
					<dim>1</dim>
				</port>
			</output>
		</layer>
		<layer id="282" name="aten::add/Multiply_21" type="Convert" version="opset1">
			<data destination_type="f32" />
			<rt_info>
				<attribute name="decompression" version="0" />
			</rt_info>
			<input>
				<port id="0" precision="FP16">
					<dim>1</dim>
					<dim>128</dim>
					<dim>1</dim>
					<dim>1</dim>
				</port>
			</input>
			<output>
				<port id="1" precision="FP32">
					<dim>1</dim>
					<dim>128</dim>
					<dim>1</dim>
					<dim>1</dim>
				</port>
			</output>
		</layer>
		<layer id="283" name="aten::add/Add_21" type="Add" version="opset1">
			<data auto_broadcast="numpy" />
			<input>
				<port id="0" precision="FP32">
					<dim>-1</dim>
					<dim>128</dim>
					<dim>-1</dim>
					<dim>-1</dim>
				</port>
				<port id="1" precision="FP32">
					<dim>1</dim>
					<dim>128</dim>
					<dim>1</dim>
					<dim>1</dim>
				</port>
			</input>
			<output>
				<port id="2" precision="FP32" names="639_1">
					<dim>-1</dim>
					<dim>128</dim>
					<dim>-1</dim>
					<dim>-1</dim>
				</port>
			</output>
		</layer>
		<layer id="284" name="aten::relu_/Relu_15" type="ReLU" version="opset1">
			<input>
				<port id="0" precision="FP32">
					<dim>-1</dim>
					<dim>128</dim>
					<dim>-1</dim>
					<dim>-1</dim>
				</port>
			</input>
			<output>
				<port id="1" precision="FP32" names="639,input.179">
					<dim>-1</dim>
					<dim>128</dim>
					<dim>-1</dim>
					<dim>-1</dim>
				</port>
			</output>
		</layer>
		<layer id="285" name="aten::relu_/Relu_15/fq_output_0/input_low" type="Const" version="opset1">
			<data element_type="f32" shape="" offset="16800" size="4" />
			<output>
				<port id="0" precision="FP32" />
			</output>
		</layer>
		<layer id="286" name="aten::relu_/Relu_15/fq_output_0/input_high" type="Const" version="opset1">
			<data element_type="f32" shape="" offset="718456" size="4" />
			<output>
				<port id="0" precision="FP32" />
			</output>
		</layer>
		<layer id="287" name="aten::relu_/Relu_15/fq_output_0/output_low" type="Const" version="opset1">
			<data element_type="f32" shape="" offset="16800" size="4" />
			<output>
				<port id="0" precision="FP32" />
			</output>
		</layer>
		<layer id="288" name="aten::relu_/Relu_15/fq_output_0/output_high" type="Const" version="opset1">
			<data element_type="f32" shape="" offset="718456" size="4" />
			<output>
				<port id="0" precision="FP32" />
			</output>
		</layer>
		<layer id="289" name="aten::relu_/Relu_15/fq_output_0" type="FakeQuantize" version="opset1">
			<data levels="256" auto_broadcast="numpy" />
			<input>
				<port id="0" precision="FP32">
					<dim>-1</dim>
					<dim>128</dim>
					<dim>-1</dim>
					<dim>-1</dim>
				</port>
				<port id="1" precision="FP32" />
				<port id="2" precision="FP32" />
				<port id="3" precision="FP32" />
				<port id="4" precision="FP32" />
			</input>
			<output>
				<port id="5" precision="FP32">
					<dim>-1</dim>
					<dim>128</dim>
					<dim>-1</dim>
					<dim>-1</dim>
				</port>
			</output>
		</layer>
		<layer id="290" name="Constant_3317124" type="Const" version="opset1">
			<data element_type="i8" shape="128, 128, 3, 3" offset="718460" size="147456" />
			<output>
				<port id="0" precision="I8">
					<dim>128</dim>
					<dim>128</dim>
					<dim>3</dim>
					<dim>3</dim>
				</port>
			</output>
		</layer>
		<layer id="291" name="Convert_3317125" type="Convert" version="opset1">
			<data destination_type="f32" />
			<input>
				<port id="0" precision="I8">
					<dim>128</dim>
					<dim>128</dim>
					<dim>3</dim>
					<dim>3</dim>
				</port>
			</input>
			<output>
				<port id="1" precision="FP32">
					<dim>128</dim>
					<dim>128</dim>
					<dim>3</dim>
					<dim>3</dim>
				</port>
			</output>
		</layer>
		<layer id="292" name="Constant_3317126" type="Const" version="opset1">
			<data element_type="f32" shape="128, 1, 1, 1" offset="865916" size="512" />
			<output>
				<port id="0" precision="FP32">
					<dim>128</dim>
					<dim>1</dim>
					<dim>1</dim>
					<dim>1</dim>
				</port>
			</output>
		</layer>
		<layer id="293" name="aten::mul/Multiply_37/fq_weights_1" type="Multiply" version="opset1">
			<data auto_broadcast="numpy" />
			<input>
				<port id="0" precision="FP32">
					<dim>128</dim>
					<dim>128</dim>
					<dim>3</dim>
					<dim>3</dim>
				</port>
				<port id="1" precision="FP32">
					<dim>128</dim>
					<dim>1</dim>
					<dim>1</dim>
					<dim>1</dim>
				</port>
			</input>
			<output>
				<port id="2" precision="FP32">
					<dim>128</dim>
					<dim>128</dim>
					<dim>3</dim>
					<dim>3</dim>
				</port>
			</output>
		</layer>
		<layer id="294" name="aten::mul/Multiply_37" type="Convolution" version="opset1">
			<data strides="1, 1" dilations="1, 1" pads_begin="1, 1" pads_end="1, 1" auto_pad="explicit" />
			<input>
				<port id="0" precision="FP32">
					<dim>-1</dim>
					<dim>128</dim>
					<dim>-1</dim>
					<dim>-1</dim>
				</port>
				<port id="1" precision="FP32">
					<dim>128</dim>
					<dim>128</dim>
					<dim>3</dim>
					<dim>3</dim>
				</port>
			</input>
			<output>
				<port id="2" precision="FP32" names="667">
					<dim>-1</dim>
					<dim>128</dim>
					<dim>-1</dim>
					<dim>-1</dim>
				</port>
			</output>
		</layer>
		<layer id="295" name="aten::add/Multiply_22_compressed" type="Const" version="opset1">
			<data element_type="f16" shape="1, 128, 1, 1" offset="866428" size="256" />
			<output>
				<port id="0" precision="FP16">
					<dim>1</dim>
					<dim>128</dim>
					<dim>1</dim>
					<dim>1</dim>
				</port>
			</output>
		</layer>
		<layer id="296" name="aten::add/Multiply_22" type="Convert" version="opset1">
			<data destination_type="f32" />
			<rt_info>
				<attribute name="decompression" version="0" />
			</rt_info>
			<input>
				<port id="0" precision="FP16">
					<dim>1</dim>
					<dim>128</dim>
					<dim>1</dim>
					<dim>1</dim>
				</port>
			</input>
			<output>
				<port id="1" precision="FP32">
					<dim>1</dim>
					<dim>128</dim>
					<dim>1</dim>
					<dim>1</dim>
				</port>
			</output>
		</layer>
		<layer id="297" name="aten::add/Add_22" type="Add" version="opset1">
			<data auto_broadcast="numpy" />
			<input>
				<port id="0" precision="FP32">
					<dim>-1</dim>
					<dim>128</dim>
					<dim>-1</dim>
					<dim>-1</dim>
				</port>
				<port id="1" precision="FP32">
					<dim>1</dim>
					<dim>128</dim>
					<dim>1</dim>
					<dim>1</dim>
				</port>
			</input>
			<output>
				<port id="2" precision="FP32" names="668_1">
					<dim>-1</dim>
					<dim>128</dim>
					<dim>-1</dim>
					<dim>-1</dim>
				</port>
			</output>
		</layer>
		<layer id="298" name="aten::relu_/Relu_16" type="ReLU" version="opset1">
			<input>
				<port id="0" precision="FP32">
					<dim>-1</dim>
					<dim>128</dim>
					<dim>-1</dim>
					<dim>-1</dim>
				</port>
			</input>
			<output>
				<port id="1" precision="FP32" names="668,input.183">
					<dim>-1</dim>
					<dim>128</dim>
					<dim>-1</dim>
					<dim>-1</dim>
				</port>
			</output>
		</layer>
		<layer id="299" name="aten::relu_/Relu_16/fq_output_0/input_low" type="Const" version="opset1">
			<data element_type="f32" shape="" offset="16800" size="4" />
			<output>
				<port id="0" precision="FP32" />
			</output>
		</layer>
		<layer id="300" name="aten::relu_/Relu_16/fq_output_0/input_high" type="Const" version="opset1">
			<data element_type="f32" shape="" offset="866684" size="4" />
			<output>
				<port id="0" precision="FP32" />
			</output>
		</layer>
		<layer id="301" name="aten::relu_/Relu_16/fq_output_0/output_low" type="Const" version="opset1">
			<data element_type="f32" shape="" offset="16800" size="4" />
			<output>
				<port id="0" precision="FP32" />
			</output>
		</layer>
		<layer id="302" name="aten::relu_/Relu_16/fq_output_0/output_high" type="Const" version="opset1">
			<data element_type="f32" shape="" offset="866684" size="4" />
			<output>
				<port id="0" precision="FP32" />
			</output>
		</layer>
		<layer id="303" name="aten::relu_/Relu_16/fq_output_0" type="FakeQuantize" version="opset1">
			<data levels="256" auto_broadcast="numpy" />
			<input>
				<port id="0" precision="FP32">
					<dim>-1</dim>
					<dim>128</dim>
					<dim>-1</dim>
					<dim>-1</dim>
				</port>
				<port id="1" precision="FP32" />
				<port id="2" precision="FP32" />
				<port id="3" precision="FP32" />
				<port id="4" precision="FP32" />
			</input>
			<output>
				<port id="5" precision="FP32">
					<dim>-1</dim>
					<dim>128</dim>
					<dim>-1</dim>
					<dim>-1</dim>
				</port>
			</output>
		</layer>
		<layer id="304" name="Constant_3317129" type="Const" version="opset1">
			<data element_type="i8" shape="512, 128, 1, 1" offset="866688" size="65536" />
			<output>
				<port id="0" precision="I8">
					<dim>512</dim>
					<dim>128</dim>
					<dim>1</dim>
					<dim>1</dim>
				</port>
			</output>
		</layer>
		<layer id="305" name="Convert_3317130" type="Convert" version="opset1">
			<data destination_type="f32" />
			<input>
				<port id="0" precision="I8">
					<dim>512</dim>
					<dim>128</dim>
					<dim>1</dim>
					<dim>1</dim>
				</port>
			</input>
			<output>
				<port id="1" precision="FP32">
					<dim>512</dim>
					<dim>128</dim>
					<dim>1</dim>
					<dim>1</dim>
				</port>
			</output>
		</layer>
		<layer id="306" name="Constant_3317131" type="Const" version="opset1">
			<data element_type="f32" shape="512, 1, 1, 1" offset="932224" size="2048" />
			<output>
				<port id="0" precision="FP32">
					<dim>512</dim>
					<dim>1</dim>
					<dim>1</dim>
					<dim>1</dim>
				</port>
			</output>
		</layer>
		<layer id="307" name="aten::mul/Multiply_39/fq_weights_1" type="Multiply" version="opset1">
			<data auto_broadcast="numpy" />
			<input>
				<port id="0" precision="FP32">
					<dim>512</dim>
					<dim>128</dim>
					<dim>1</dim>
					<dim>1</dim>
				</port>
				<port id="1" precision="FP32">
					<dim>512</dim>
					<dim>1</dim>
					<dim>1</dim>
					<dim>1</dim>
				</port>
			</input>
			<output>
				<port id="2" precision="FP32">
					<dim>512</dim>
					<dim>128</dim>
					<dim>1</dim>
					<dim>1</dim>
				</port>
			</output>
		</layer>
		<layer id="308" name="aten::mul/Multiply_39" type="Convolution" version="opset1">
			<data strides="1, 1" dilations="1, 1" pads_begin="0, 0" pads_end="0, 0" auto_pad="explicit" />
			<input>
				<port id="0" precision="FP32">
					<dim>-1</dim>
					<dim>128</dim>
					<dim>-1</dim>
					<dim>-1</dim>
				</port>
				<port id="1" precision="FP32">
					<dim>512</dim>
					<dim>128</dim>
					<dim>1</dim>
					<dim>1</dim>
				</port>
			</input>
			<output>
				<port id="2" precision="FP32" names="696">
					<dim>-1</dim>
					<dim>512</dim>
					<dim>-1</dim>
					<dim>-1</dim>
				</port>
			</output>
		</layer>
		<layer id="309" name="aten::add/Multiply_23_compressed" type="Const" version="opset1">
			<data element_type="f16" shape="1, 512, 1, 1" offset="934272" size="1024" />
			<output>
				<port id="0" precision="FP16">
					<dim>1</dim>
					<dim>512</dim>
					<dim>1</dim>
					<dim>1</dim>
				</port>
			</output>
		</layer>
		<layer id="310" name="aten::add/Multiply_23" type="Convert" version="opset1">
			<data destination_type="f32" />
			<rt_info>
				<attribute name="decompression" version="0" />
			</rt_info>
			<input>
				<port id="0" precision="FP16">
					<dim>1</dim>
					<dim>512</dim>
					<dim>1</dim>
					<dim>1</dim>
				</port>
			</input>
			<output>
				<port id="1" precision="FP32">
					<dim>1</dim>
					<dim>512</dim>
					<dim>1</dim>
					<dim>1</dim>
				</port>
			</output>
		</layer>
		<layer id="311" name="aten::add/Add_23" type="Add" version="opset1">
			<data auto_broadcast="numpy" />
			<input>
				<port id="0" precision="FP32">
					<dim>-1</dim>
					<dim>512</dim>
					<dim>-1</dim>
					<dim>-1</dim>
				</port>
				<port id="1" precision="FP32">
					<dim>1</dim>
					<dim>512</dim>
					<dim>1</dim>
					<dim>1</dim>
				</port>
			</input>
			<output>
				<port id="2" precision="FP32" names="697,out.11">
					<dim>-1</dim>
					<dim>512</dim>
					<dim>-1</dim>
					<dim>-1</dim>
				</port>
			</output>
		</layer>
		<layer id="312" name="aten::add/Add_23/fq_output_0/input_low" type="Const" version="opset1">
			<data element_type="f32" shape="" offset="935296" size="4" />
			<output>
				<port id="0" precision="FP32" />
			</output>
		</layer>
		<layer id="313" name="aten::add/Add_23/fq_output_0/input_high" type="Const" version="opset1">
			<data element_type="f32" shape="" offset="935300" size="4" />
			<output>
				<port id="0" precision="FP32" />
			</output>
		</layer>
		<layer id="314" name="aten::add/Add_23/fq_output_0/output_low" type="Const" version="opset1">
			<data element_type="f32" shape="" offset="935296" size="4" />
			<output>
				<port id="0" precision="FP32" />
			</output>
		</layer>
		<layer id="315" name="aten::add/Add_23/fq_output_0/output_high" type="Const" version="opset1">
			<data element_type="f32" shape="" offset="935300" size="4" />
			<output>
				<port id="0" precision="FP32" />
			</output>
		</layer>
		<layer id="316" name="aten::add/Add_23/fq_output_0" type="FakeQuantize" version="opset1">
			<data levels="256" auto_broadcast="numpy" />
			<input>
				<port id="0" precision="FP32">
					<dim>-1</dim>
					<dim>512</dim>
					<dim>-1</dim>
					<dim>-1</dim>
				</port>
				<port id="1" precision="FP32" />
				<port id="2" precision="FP32" />
				<port id="3" precision="FP32" />
				<port id="4" precision="FP32" />
			</input>
			<output>
				<port id="5" precision="FP32">
					<dim>-1</dim>
					<dim>512</dim>
					<dim>-1</dim>
					<dim>-1</dim>
				</port>
			</output>
		</layer>
		<layer id="317" name="aten::add/Add_24" type="Add" version="opset1">
			<data auto_broadcast="numpy" />
			<input>
				<port id="0" precision="FP32">
					<dim>-1</dim>
					<dim>512</dim>
					<dim>-1</dim>
					<dim>-1</dim>
				</port>
				<port id="1" precision="FP32">
					<dim>-1</dim>
					<dim>512</dim>
					<dim>-1</dim>
					<dim>-1</dim>
				</port>
			</input>
			<output>
				<port id="2" precision="FP32" names="698_1">
					<dim>-1</dim>
					<dim>512</dim>
					<dim>-1</dim>
					<dim>-1</dim>
				</port>
			</output>
		</layer>
		<layer id="318" name="aten::relu_/Relu_17" type="ReLU" version="opset1">
			<input>
				<port id="0" precision="FP32">
					<dim>-1</dim>
					<dim>512</dim>
					<dim>-1</dim>
					<dim>-1</dim>
				</port>
			</input>
			<output>
				<port id="1" precision="FP32" names="698,input.175">
					<dim>-1</dim>
					<dim>512</dim>
					<dim>-1</dim>
					<dim>-1</dim>
				</port>
			</output>
		</layer>
		<layer id="319" name="aten::relu_/Relu_17/fq_output_0/input_low" type="Const" version="opset1">
			<data element_type="f32" shape="" offset="16800" size="4" />
			<output>
				<port id="0" precision="FP32" />
			</output>
		</layer>
		<layer id="320" name="aten::relu_/Relu_17/fq_output_0/input_high" type="Const" version="opset1">
			<data element_type="f32" shape="" offset="935304" size="4" />
			<output>
				<port id="0" precision="FP32" />
			</output>
		</layer>
		<layer id="321" name="aten::relu_/Relu_17/fq_output_0/output_low" type="Const" version="opset1">
			<data element_type="f32" shape="" offset="16800" size="4" />
			<output>
				<port id="0" precision="FP32" />
			</output>
		</layer>
		<layer id="322" name="aten::relu_/Relu_17/fq_output_0/output_high" type="Const" version="opset1">
			<data element_type="f32" shape="" offset="935304" size="4" />
			<output>
				<port id="0" precision="FP32" />
			</output>
		</layer>
		<layer id="323" name="aten::relu_/Relu_17/fq_output_0" type="FakeQuantize" version="opset1">
			<data levels="256" auto_broadcast="numpy" />
			<input>
				<port id="0" precision="FP32">
					<dim>-1</dim>
					<dim>512</dim>
					<dim>-1</dim>
					<dim>-1</dim>
				</port>
				<port id="1" precision="FP32" />
				<port id="2" precision="FP32" />
				<port id="3" precision="FP32" />
				<port id="4" precision="FP32" />
			</input>
			<output>
				<port id="5" precision="FP32">
					<dim>-1</dim>
					<dim>512</dim>
					<dim>-1</dim>
					<dim>-1</dim>
				</port>
			</output>
		</layer>
		<layer id="324" name="Constant_3317134" type="Const" version="opset1">
			<data element_type="i8" shape="128, 512, 1, 1" offset="935308" size="65536" />
			<output>
				<port id="0" precision="I8">
					<dim>128</dim>
					<dim>512</dim>
					<dim>1</dim>
					<dim>1</dim>
				</port>
			</output>
		</layer>
		<layer id="325" name="Convert_3317135" type="Convert" version="opset1">
			<data destination_type="f32" />
			<input>
				<port id="0" precision="I8">
					<dim>128</dim>
					<dim>512</dim>
					<dim>1</dim>
					<dim>1</dim>
				</port>
			</input>
			<output>
				<port id="1" precision="FP32">
					<dim>128</dim>
					<dim>512</dim>
					<dim>1</dim>
					<dim>1</dim>
				</port>
			</output>
		</layer>
		<layer id="326" name="Constant_3317136" type="Const" version="opset1">
			<data element_type="f32" shape="128, 1, 1, 1" offset="1000844" size="512" />
			<output>
				<port id="0" precision="FP32">
					<dim>128</dim>
					<dim>1</dim>
					<dim>1</dim>
					<dim>1</dim>
				</port>
			</output>
		</layer>
		<layer id="327" name="aten::mul/Multiply_41/fq_weights_1" type="Multiply" version="opset1">
			<data auto_broadcast="numpy" />
			<input>
				<port id="0" precision="FP32">
					<dim>128</dim>
					<dim>512</dim>
					<dim>1</dim>
					<dim>1</dim>
				</port>
				<port id="1" precision="FP32">
					<dim>128</dim>
					<dim>1</dim>
					<dim>1</dim>
					<dim>1</dim>
				</port>
			</input>
			<output>
				<port id="2" precision="FP32">
					<dim>128</dim>
					<dim>512</dim>
					<dim>1</dim>
					<dim>1</dim>
				</port>
			</output>
		</layer>
		<layer id="328" name="aten::mul/Multiply_41" type="Convolution" version="opset1">
			<data strides="1, 1" dilations="1, 1" pads_begin="0, 0" pads_end="0, 0" auto_pad="explicit" />
			<input>
				<port id="0" precision="FP32">
					<dim>-1</dim>
					<dim>512</dim>
					<dim>-1</dim>
					<dim>-1</dim>
				</port>
				<port id="1" precision="FP32">
					<dim>128</dim>
					<dim>512</dim>
					<dim>1</dim>
					<dim>1</dim>
				</port>
			</input>
			<output>
				<port id="2" precision="FP32" names="730">
					<dim>-1</dim>
					<dim>128</dim>
					<dim>-1</dim>
					<dim>-1</dim>
				</port>
			</output>
		</layer>
		<layer id="329" name="aten::add/Multiply_25_compressed" type="Const" version="opset1">
			<data element_type="f16" shape="1, 128, 1, 1" offset="1001356" size="256" />
			<output>
				<port id="0" precision="FP16">
					<dim>1</dim>
					<dim>128</dim>
					<dim>1</dim>
					<dim>1</dim>
				</port>
			</output>
		</layer>
		<layer id="330" name="aten::add/Multiply_25" type="Convert" version="opset1">
			<data destination_type="f32" />
			<rt_info>
				<attribute name="decompression" version="0" />
			</rt_info>
			<input>
				<port id="0" precision="FP16">
					<dim>1</dim>
					<dim>128</dim>
					<dim>1</dim>
					<dim>1</dim>
				</port>
			</input>
			<output>
				<port id="1" precision="FP32">
					<dim>1</dim>
					<dim>128</dim>
					<dim>1</dim>
					<dim>1</dim>
				</port>
			</output>
		</layer>
		<layer id="331" name="aten::add/Add_25" type="Add" version="opset1">
			<data auto_broadcast="numpy" />
			<input>
				<port id="0" precision="FP32">
					<dim>-1</dim>
					<dim>128</dim>
					<dim>-1</dim>
					<dim>-1</dim>
				</port>
				<port id="1" precision="FP32">
					<dim>1</dim>
					<dim>128</dim>
					<dim>1</dim>
					<dim>1</dim>
				</port>
			</input>
			<output>
				<port id="2" precision="FP32" names="731_1">
					<dim>-1</dim>
					<dim>128</dim>
					<dim>-1</dim>
					<dim>-1</dim>
				</port>
			</output>
		</layer>
		<layer id="332" name="aten::relu_/Relu_18" type="ReLU" version="opset1">
			<input>
				<port id="0" precision="FP32">
					<dim>-1</dim>
					<dim>128</dim>
					<dim>-1</dim>
					<dim>-1</dim>
				</port>
			</input>
			<output>
				<port id="1" precision="FP32" names="731,input.185">
					<dim>-1</dim>
					<dim>128</dim>
					<dim>-1</dim>
					<dim>-1</dim>
				</port>
			</output>
		</layer>
		<layer id="333" name="aten::relu_/Relu_18/fq_output_0/input_low" type="Const" version="opset1">
			<data element_type="f32" shape="" offset="16800" size="4" />
			<output>
				<port id="0" precision="FP32" />
			</output>
		</layer>
		<layer id="334" name="aten::relu_/Relu_18/fq_output_0/input_high" type="Const" version="opset1">
			<data element_type="f32" shape="" offset="1001612" size="4" />
			<output>
				<port id="0" precision="FP32" />
			</output>
		</layer>
		<layer id="335" name="aten::relu_/Relu_18/fq_output_0/output_low" type="Const" version="opset1">
			<data element_type="f32" shape="" offset="16800" size="4" />
			<output>
				<port id="0" precision="FP32" />
			</output>
		</layer>
		<layer id="336" name="aten::relu_/Relu_18/fq_output_0/output_high" type="Const" version="opset1">
			<data element_type="f32" shape="" offset="1001612" size="4" />
			<output>
				<port id="0" precision="FP32" />
			</output>
		</layer>
		<layer id="337" name="aten::relu_/Relu_18/fq_output_0" type="FakeQuantize" version="opset1">
			<data levels="256" auto_broadcast="numpy" />
			<input>
				<port id="0" precision="FP32">
					<dim>-1</dim>
					<dim>128</dim>
					<dim>-1</dim>
					<dim>-1</dim>
				</port>
				<port id="1" precision="FP32" />
				<port id="2" precision="FP32" />
				<port id="3" precision="FP32" />
				<port id="4" precision="FP32" />
			</input>
			<output>
				<port id="5" precision="FP32">
					<dim>-1</dim>
					<dim>128</dim>
					<dim>-1</dim>
					<dim>-1</dim>
				</port>
			</output>
		</layer>
		<layer id="338" name="Constant_3317139" type="Const" version="opset1">
			<data element_type="i8" shape="128, 128, 3, 3" offset="1001616" size="147456" />
			<output>
				<port id="0" precision="I8">
					<dim>128</dim>
					<dim>128</dim>
					<dim>3</dim>
					<dim>3</dim>
				</port>
			</output>
		</layer>
		<layer id="339" name="Convert_3317140" type="Convert" version="opset1">
			<data destination_type="f32" />
			<input>
				<port id="0" precision="I8">
					<dim>128</dim>
					<dim>128</dim>
					<dim>3</dim>
					<dim>3</dim>
				</port>
			</input>
			<output>
				<port id="1" precision="FP32">
					<dim>128</dim>
					<dim>128</dim>
					<dim>3</dim>
					<dim>3</dim>
				</port>
			</output>
		</layer>
		<layer id="340" name="Constant_3317141" type="Const" version="opset1">
			<data element_type="f32" shape="128, 1, 1, 1" offset="1149072" size="512" />
			<output>
				<port id="0" precision="FP32">
					<dim>128</dim>
					<dim>1</dim>
					<dim>1</dim>
					<dim>1</dim>
				</port>
			</output>
		</layer>
		<layer id="341" name="aten::mul/Multiply_43/fq_weights_1" type="Multiply" version="opset1">
			<data auto_broadcast="numpy" />
			<input>
				<port id="0" precision="FP32">
					<dim>128</dim>
					<dim>128</dim>
					<dim>3</dim>
					<dim>3</dim>
				</port>
				<port id="1" precision="FP32">
					<dim>128</dim>
					<dim>1</dim>
					<dim>1</dim>
					<dim>1</dim>
				</port>
			</input>
			<output>
				<port id="2" precision="FP32">
					<dim>128</dim>
					<dim>128</dim>
					<dim>3</dim>
					<dim>3</dim>
				</port>
			</output>
		</layer>
		<layer id="342" name="aten::mul/Multiply_43" type="Convolution" version="opset1">
			<data strides="1, 1" dilations="1, 1" pads_begin="1, 1" pads_end="1, 1" auto_pad="explicit" />
			<input>
				<port id="0" precision="FP32">
					<dim>-1</dim>
					<dim>128</dim>
					<dim>-1</dim>
					<dim>-1</dim>
				</port>
				<port id="1" precision="FP32">
					<dim>128</dim>
					<dim>128</dim>
					<dim>3</dim>
					<dim>3</dim>
				</port>
			</input>
			<output>
				<port id="2" precision="FP32" names="759">
					<dim>-1</dim>
					<dim>128</dim>
					<dim>-1</dim>
					<dim>-1</dim>
				</port>
			</output>
		</layer>
		<layer id="343" name="aten::add/Multiply_26_compressed" type="Const" version="opset1">
			<data element_type="f16" shape="1, 128, 1, 1" offset="1149584" size="256" />
			<output>
				<port id="0" precision="FP16">
					<dim>1</dim>
					<dim>128</dim>
					<dim>1</dim>
					<dim>1</dim>
				</port>
			</output>
		</layer>
		<layer id="344" name="aten::add/Multiply_26" type="Convert" version="opset1">
			<data destination_type="f32" />
			<rt_info>
				<attribute name="decompression" version="0" />
			</rt_info>
			<input>
				<port id="0" precision="FP16">
					<dim>1</dim>
					<dim>128</dim>
					<dim>1</dim>
					<dim>1</dim>
				</port>
			</input>
			<output>
				<port id="1" precision="FP32">
					<dim>1</dim>
					<dim>128</dim>
					<dim>1</dim>
					<dim>1</dim>
				</port>
			</output>
		</layer>
		<layer id="345" name="aten::add/Add_26" type="Add" version="opset1">
			<data auto_broadcast="numpy" />
			<input>
				<port id="0" precision="FP32">
					<dim>-1</dim>
					<dim>128</dim>
					<dim>-1</dim>
					<dim>-1</dim>
				</port>
				<port id="1" precision="FP32">
					<dim>1</dim>
					<dim>128</dim>
					<dim>1</dim>
					<dim>1</dim>
				</port>
			</input>
			<output>
				<port id="2" precision="FP32" names="760_1">
					<dim>-1</dim>
					<dim>128</dim>
					<dim>-1</dim>
					<dim>-1</dim>
				</port>
			</output>
		</layer>
		<layer id="346" name="aten::relu_/Relu_19" type="ReLU" version="opset1">
			<input>
				<port id="0" precision="FP32">
					<dim>-1</dim>
					<dim>128</dim>
					<dim>-1</dim>
					<dim>-1</dim>
				</port>
			</input>
			<output>
				<port id="1" precision="FP32" names="760,input.199">
					<dim>-1</dim>
					<dim>128</dim>
					<dim>-1</dim>
					<dim>-1</dim>
				</port>
			</output>
		</layer>
		<layer id="347" name="aten::relu_/Relu_19/fq_output_0/input_low" type="Const" version="opset1">
			<data element_type="f32" shape="" offset="16800" size="4" />
			<output>
				<port id="0" precision="FP32" />
			</output>
		</layer>
		<layer id="348" name="aten::relu_/Relu_19/fq_output_0/input_high" type="Const" version="opset1">
			<data element_type="f32" shape="" offset="1149840" size="4" />
			<output>
				<port id="0" precision="FP32" />
			</output>
		</layer>
		<layer id="349" name="aten::relu_/Relu_19/fq_output_0/output_low" type="Const" version="opset1">
			<data element_type="f32" shape="" offset="16800" size="4" />
			<output>
				<port id="0" precision="FP32" />
			</output>
		</layer>
		<layer id="350" name="aten::relu_/Relu_19/fq_output_0/output_high" type="Const" version="opset1">
			<data element_type="f32" shape="" offset="1149840" size="4" />
			<output>
				<port id="0" precision="FP32" />
			</output>
		</layer>
		<layer id="351" name="aten::relu_/Relu_19/fq_output_0" type="FakeQuantize" version="opset1">
			<data levels="256" auto_broadcast="numpy" />
			<input>
				<port id="0" precision="FP32">
					<dim>-1</dim>
					<dim>128</dim>
					<dim>-1</dim>
					<dim>-1</dim>
				</port>
				<port id="1" precision="FP32" />
				<port id="2" precision="FP32" />
				<port id="3" precision="FP32" />
				<port id="4" precision="FP32" />
			</input>
			<output>
				<port id="5" precision="FP32">
					<dim>-1</dim>
					<dim>128</dim>
					<dim>-1</dim>
					<dim>-1</dim>
				</port>
			</output>
		</layer>
		<layer id="352" name="Constant_3317144" type="Const" version="opset1">
			<data element_type="i8" shape="512, 128, 1, 1" offset="1149844" size="65536" />
			<output>
				<port id="0" precision="I8">
					<dim>512</dim>
					<dim>128</dim>
					<dim>1</dim>
					<dim>1</dim>
				</port>
			</output>
		</layer>
		<layer id="353" name="Convert_3317145" type="Convert" version="opset1">
			<data destination_type="f32" />
			<input>
				<port id="0" precision="I8">
					<dim>512</dim>
					<dim>128</dim>
					<dim>1</dim>
					<dim>1</dim>
				</port>
			</input>
			<output>
				<port id="1" precision="FP32">
					<dim>512</dim>
					<dim>128</dim>
					<dim>1</dim>
					<dim>1</dim>
				</port>
			</output>
		</layer>
		<layer id="354" name="Constant_3317146" type="Const" version="opset1">
			<data element_type="f32" shape="512, 1, 1, 1" offset="1215380" size="2048" />
			<output>
				<port id="0" precision="FP32">
					<dim>512</dim>
					<dim>1</dim>
					<dim>1</dim>
					<dim>1</dim>
				</port>
			</output>
		</layer>
		<layer id="355" name="aten::mul/Multiply_45/fq_weights_1" type="Multiply" version="opset1">
			<data auto_broadcast="numpy" />
			<input>
				<port id="0" precision="FP32">
					<dim>512</dim>
					<dim>128</dim>
					<dim>1</dim>
					<dim>1</dim>
				</port>
				<port id="1" precision="FP32">
					<dim>512</dim>
					<dim>1</dim>
					<dim>1</dim>
					<dim>1</dim>
				</port>
			</input>
			<output>
				<port id="2" precision="FP32">
					<dim>512</dim>
					<dim>128</dim>
					<dim>1</dim>
					<dim>1</dim>
				</port>
			</output>
		</layer>
		<layer id="356" name="aten::mul/Multiply_45" type="Convolution" version="opset1">
			<data strides="1, 1" dilations="1, 1" pads_begin="0, 0" pads_end="0, 0" auto_pad="explicit" />
			<input>
				<port id="0" precision="FP32">
					<dim>-1</dim>
					<dim>128</dim>
					<dim>-1</dim>
					<dim>-1</dim>
				</port>
				<port id="1" precision="FP32">
					<dim>512</dim>
					<dim>128</dim>
					<dim>1</dim>
					<dim>1</dim>
				</port>
			</input>
			<output>
				<port id="2" precision="FP32" names="788">
					<dim>-1</dim>
					<dim>512</dim>
					<dim>-1</dim>
					<dim>-1</dim>
				</port>
			</output>
		</layer>
		<layer id="357" name="aten::add/Multiply_27_compressed" type="Const" version="opset1">
			<data element_type="f16" shape="1, 512, 1, 1" offset="1217428" size="1024" />
			<output>
				<port id="0" precision="FP16">
					<dim>1</dim>
					<dim>512</dim>
					<dim>1</dim>
					<dim>1</dim>
				</port>
			</output>
		</layer>
		<layer id="358" name="aten::add/Multiply_27" type="Convert" version="opset1">
			<data destination_type="f32" />
			<rt_info>
				<attribute name="decompression" version="0" />
			</rt_info>
			<input>
				<port id="0" precision="FP16">
					<dim>1</dim>
					<dim>512</dim>
					<dim>1</dim>
					<dim>1</dim>
				</port>
			</input>
			<output>
				<port id="1" precision="FP32">
					<dim>1</dim>
					<dim>512</dim>
					<dim>1</dim>
					<dim>1</dim>
				</port>
			</output>
		</layer>
		<layer id="359" name="aten::add/Add_27" type="Add" version="opset1">
			<data auto_broadcast="numpy" />
			<input>
				<port id="0" precision="FP32">
					<dim>-1</dim>
					<dim>512</dim>
					<dim>-1</dim>
					<dim>-1</dim>
				</port>
				<port id="1" precision="FP32">
					<dim>1</dim>
					<dim>512</dim>
					<dim>1</dim>
					<dim>1</dim>
				</port>
			</input>
			<output>
				<port id="2" precision="FP32" names="789,out.13">
					<dim>-1</dim>
					<dim>512</dim>
					<dim>-1</dim>
					<dim>-1</dim>
				</port>
			</output>
		</layer>
		<layer id="360" name="aten::add/Add_27/fq_output_0/input_low" type="Const" version="opset1">
			<data element_type="f32" shape="" offset="1218452" size="4" />
			<output>
				<port id="0" precision="FP32" />
			</output>
		</layer>
		<layer id="361" name="aten::add/Add_27/fq_output_0/input_high" type="Const" version="opset1">
			<data element_type="f32" shape="" offset="1218456" size="4" />
			<output>
				<port id="0" precision="FP32" />
			</output>
		</layer>
		<layer id="362" name="aten::add/Add_27/fq_output_0/output_low" type="Const" version="opset1">
			<data element_type="f32" shape="" offset="1218452" size="4" />
			<output>
				<port id="0" precision="FP32" />
			</output>
		</layer>
		<layer id="363" name="aten::add/Add_27/fq_output_0/output_high" type="Const" version="opset1">
			<data element_type="f32" shape="" offset="1218456" size="4" />
			<output>
				<port id="0" precision="FP32" />
			</output>
		</layer>
		<layer id="364" name="aten::add/Add_27/fq_output_0" type="FakeQuantize" version="opset1">
			<data levels="256" auto_broadcast="numpy" />
			<input>
				<port id="0" precision="FP32">
					<dim>-1</dim>
					<dim>512</dim>
					<dim>-1</dim>
					<dim>-1</dim>
				</port>
				<port id="1" precision="FP32" />
				<port id="2" precision="FP32" />
				<port id="3" precision="FP32" />
				<port id="4" precision="FP32" />
			</input>
			<output>
				<port id="5" precision="FP32">
					<dim>-1</dim>
					<dim>512</dim>
					<dim>-1</dim>
					<dim>-1</dim>
				</port>
			</output>
		</layer>
		<layer id="365" name="aten::add/Add_28" type="Add" version="opset1">
			<data auto_broadcast="numpy" />
			<input>
				<port id="0" precision="FP32">
					<dim>-1</dim>
					<dim>512</dim>
					<dim>-1</dim>
					<dim>-1</dim>
				</port>
				<port id="1" precision="FP32">
					<dim>-1</dim>
					<dim>512</dim>
					<dim>-1</dim>
					<dim>-1</dim>
				</port>
			</input>
			<output>
				<port id="2" precision="FP32" names="790_1">
					<dim>-1</dim>
					<dim>512</dim>
					<dim>-1</dim>
					<dim>-1</dim>
				</port>
			</output>
		</layer>
		<layer id="366" name="aten::relu_/Relu_20" type="ReLU" version="opset1">
			<input>
				<port id="0" precision="FP32">
					<dim>-1</dim>
					<dim>512</dim>
					<dim>-1</dim>
					<dim>-1</dim>
				</port>
			</input>
			<output>
				<port id="1" precision="FP32" names="790,input.177">
					<dim>-1</dim>
					<dim>512</dim>
					<dim>-1</dim>
					<dim>-1</dim>
				</port>
			</output>
		</layer>
		<layer id="367" name="aten::relu_/Relu_20/fq_output_0/input_low" type="Const" version="opset1">
			<data element_type="f32" shape="" offset="16800" size="4" />
			<output>
				<port id="0" precision="FP32" />
			</output>
		</layer>
		<layer id="368" name="aten::relu_/Relu_20/fq_output_0/input_high" type="Const" version="opset1">
			<data element_type="f32" shape="" offset="1218460" size="4" />
			<output>
				<port id="0" precision="FP32" />
			</output>
		</layer>
		<layer id="369" name="aten::relu_/Relu_20/fq_output_0/output_low" type="Const" version="opset1">
			<data element_type="f32" shape="" offset="16800" size="4" />
			<output>
				<port id="0" precision="FP32" />
			</output>
		</layer>
		<layer id="370" name="aten::relu_/Relu_20/fq_output_0/output_high" type="Const" version="opset1">
			<data element_type="f32" shape="" offset="1218460" size="4" />
			<output>
				<port id="0" precision="FP32" />
			</output>
		</layer>
		<layer id="371" name="aten::relu_/Relu_20/fq_output_0" type="FakeQuantize" version="opset1">
			<data levels="256" auto_broadcast="numpy" />
			<input>
				<port id="0" precision="FP32">
					<dim>-1</dim>
					<dim>512</dim>
					<dim>-1</dim>
					<dim>-1</dim>
				</port>
				<port id="1" precision="FP32" />
				<port id="2" precision="FP32" />
				<port id="3" precision="FP32" />
				<port id="4" precision="FP32" />
			</input>
			<output>
				<port id="5" precision="FP32">
					<dim>-1</dim>
					<dim>512</dim>
					<dim>-1</dim>
					<dim>-1</dim>
				</port>
			</output>
		</layer>
		<layer id="372" name="Constant_3317149" type="Const" version="opset1">
			<data element_type="i8" shape="128, 512, 1, 1" offset="1218464" size="65536" />
			<output>
				<port id="0" precision="I8">
					<dim>128</dim>
					<dim>512</dim>
					<dim>1</dim>
					<dim>1</dim>
				</port>
			</output>
		</layer>
		<layer id="373" name="Convert_3317150" type="Convert" version="opset1">
			<data destination_type="f32" />
			<input>
				<port id="0" precision="I8">
					<dim>128</dim>
					<dim>512</dim>
					<dim>1</dim>
					<dim>1</dim>
				</port>
			</input>
			<output>
				<port id="1" precision="FP32">
					<dim>128</dim>
					<dim>512</dim>
					<dim>1</dim>
					<dim>1</dim>
				</port>
			</output>
		</layer>
		<layer id="374" name="Constant_3317151" type="Const" version="opset1">
			<data element_type="f32" shape="128, 1, 1, 1" offset="1284000" size="512" />
			<output>
				<port id="0" precision="FP32">
					<dim>128</dim>
					<dim>1</dim>
					<dim>1</dim>
					<dim>1</dim>
				</port>
			</output>
		</layer>
		<layer id="375" name="aten::mul/Multiply_47/fq_weights_1" type="Multiply" version="opset1">
			<data auto_broadcast="numpy" />
			<input>
				<port id="0" precision="FP32">
					<dim>128</dim>
					<dim>512</dim>
					<dim>1</dim>
					<dim>1</dim>
				</port>
				<port id="1" precision="FP32">
					<dim>128</dim>
					<dim>1</dim>
					<dim>1</dim>
					<dim>1</dim>
				</port>
			</input>
			<output>
				<port id="2" precision="FP32">
					<dim>128</dim>
					<dim>512</dim>
					<dim>1</dim>
					<dim>1</dim>
				</port>
			</output>
		</layer>
		<layer id="376" name="aten::mul/Multiply_47" type="Convolution" version="opset1">
			<data strides="1, 1" dilations="1, 1" pads_begin="0, 0" pads_end="0, 0" auto_pad="explicit" />
			<input>
				<port id="0" precision="FP32">
					<dim>-1</dim>
					<dim>512</dim>
					<dim>-1</dim>
					<dim>-1</dim>
				</port>
				<port id="1" precision="FP32">
					<dim>128</dim>
					<dim>512</dim>
					<dim>1</dim>
					<dim>1</dim>
				</port>
			</input>
			<output>
				<port id="2" precision="FP32" names="822">
					<dim>-1</dim>
					<dim>128</dim>
					<dim>-1</dim>
					<dim>-1</dim>
				</port>
			</output>
		</layer>
		<layer id="377" name="aten::add/Multiply_29_compressed" type="Const" version="opset1">
			<data element_type="f16" shape="1, 128, 1, 1" offset="1284512" size="256" />
			<output>
				<port id="0" precision="FP16">
					<dim>1</dim>
					<dim>128</dim>
					<dim>1</dim>
					<dim>1</dim>
				</port>
			</output>
		</layer>
		<layer id="378" name="aten::add/Multiply_29" type="Convert" version="opset1">
			<data destination_type="f32" />
			<rt_info>
				<attribute name="decompression" version="0" />
			</rt_info>
			<input>
				<port id="0" precision="FP16">
					<dim>1</dim>
					<dim>128</dim>
					<dim>1</dim>
					<dim>1</dim>
				</port>
			</input>
			<output>
				<port id="1" precision="FP32">
					<dim>1</dim>
					<dim>128</dim>
					<dim>1</dim>
					<dim>1</dim>
				</port>
			</output>
		</layer>
		<layer id="379" name="aten::add/Add_29" type="Add" version="opset1">
			<data auto_broadcast="numpy" />
			<input>
				<port id="0" precision="FP32">
					<dim>-1</dim>
					<dim>128</dim>
					<dim>-1</dim>
					<dim>-1</dim>
				</port>
				<port id="1" precision="FP32">
					<dim>1</dim>
					<dim>128</dim>
					<dim>1</dim>
					<dim>1</dim>
				</port>
			</input>
			<output>
				<port id="2" precision="FP32" names="823_1">
					<dim>-1</dim>
					<dim>128</dim>
					<dim>-1</dim>
					<dim>-1</dim>
				</port>
			</output>
		</layer>
		<layer id="380" name="aten::relu_/Relu_21" type="ReLU" version="opset1">
			<input>
				<port id="0" precision="FP32">
					<dim>-1</dim>
					<dim>128</dim>
					<dim>-1</dim>
					<dim>-1</dim>
				</port>
			</input>
			<output>
				<port id="1" precision="FP32" names="823,input.187">
					<dim>-1</dim>
					<dim>128</dim>
					<dim>-1</dim>
					<dim>-1</dim>
				</port>
			</output>
		</layer>
		<layer id="381" name="aten::relu_/Relu_21/fq_output_0/input_low" type="Const" version="opset1">
			<data element_type="f32" shape="" offset="16800" size="4" />
			<output>
				<port id="0" precision="FP32" />
			</output>
		</layer>
		<layer id="382" name="aten::relu_/Relu_21/fq_output_0/input_high" type="Const" version="opset1">
			<data element_type="f32" shape="" offset="1284768" size="4" />
			<output>
				<port id="0" precision="FP32" />
			</output>
		</layer>
		<layer id="383" name="aten::relu_/Relu_21/fq_output_0/output_low" type="Const" version="opset1">
			<data element_type="f32" shape="" offset="16800" size="4" />
			<output>
				<port id="0" precision="FP32" />
			</output>
		</layer>
		<layer id="384" name="aten::relu_/Relu_21/fq_output_0/output_high" type="Const" version="opset1">
			<data element_type="f32" shape="" offset="1284768" size="4" />
			<output>
				<port id="0" precision="FP32" />
			</output>
		</layer>
		<layer id="385" name="aten::relu_/Relu_21/fq_output_0" type="FakeQuantize" version="opset1">
			<data levels="256" auto_broadcast="numpy" />
			<input>
				<port id="0" precision="FP32">
					<dim>-1</dim>
					<dim>128</dim>
					<dim>-1</dim>
					<dim>-1</dim>
				</port>
				<port id="1" precision="FP32" />
				<port id="2" precision="FP32" />
				<port id="3" precision="FP32" />
				<port id="4" precision="FP32" />
			</input>
			<output>
				<port id="5" precision="FP32">
					<dim>-1</dim>
					<dim>128</dim>
					<dim>-1</dim>
					<dim>-1</dim>
				</port>
			</output>
		</layer>
		<layer id="386" name="Constant_3317154" type="Const" version="opset1">
			<data element_type="i8" shape="128, 128, 3, 3" offset="1284772" size="147456" />
			<output>
				<port id="0" precision="I8">
					<dim>128</dim>
					<dim>128</dim>
					<dim>3</dim>
					<dim>3</dim>
				</port>
			</output>
		</layer>
		<layer id="387" name="Convert_3317155" type="Convert" version="opset1">
			<data destination_type="f32" />
			<input>
				<port id="0" precision="I8">
…
		<edge from-layer="4047" from-port="1" to-layer="4048" to-port="1" />
		<edge from-layer="4048" from-port="2" to-layer="4051" to-port="0" />
		<edge from-layer="4049" from-port="0" to-layer="4050" to-port="0" />
		<edge from-layer="4050" from-port="1" to-layer="4051" to-port="1" />
		<edge from-layer="4051" from-port="2" to-layer="4056" to-port="0" />
		<edge from-layer="4052" from-port="0" to-layer="4056" to-port="1" />
		<edge from-layer="4053" from-port="0" to-layer="4056" to-port="2" />
		<edge from-layer="4054" from-port="0" to-layer="4056" to-port="3" />
		<edge from-layer="4055" from-port="0" to-layer="4056" to-port="4" />
		<edge from-layer="4056" from-port="5" to-layer="4136" to-port="0" />
		<edge from-layer="4056" from-port="5" to-layer="4195" to-port="0" />
		<edge from-layer="4056" from-port="5" to-layer="4240" to-port="0" />
		<edge from-layer="4056" from-port="5" to-layer="4061" to-port="0" />
		<edge from-layer="4057" from-port="0" to-layer="4058" to-port="0" />
		<edge from-layer="4058" from-port="1" to-layer="4060" to-port="0" />
		<edge from-layer="4059" from-port="0" to-layer="4060" to-port="1" />
		<edge from-layer="4060" from-port="2" to-layer="4061" to-port="1" />
		<edge from-layer="4061" from-port="2" to-layer="4064" to-port="0" />
		<edge from-layer="4062" from-port="0" to-layer="4063" to-port="0" />
		<edge from-layer="4063" from-port="1" to-layer="4064" to-port="1" />
		<edge from-layer="4064" from-port="2" to-layer="4065" to-port="0" />
		<edge from-layer="4065" from-port="1" to-layer="4070" to-port="0" />
		<edge from-layer="4066" from-port="0" to-layer="4070" to-port="1" />
		<edge from-layer="4067" from-port="0" to-layer="4070" to-port="2" />
		<edge from-layer="4068" from-port="0" to-layer="4070" to-port="3" />
		<edge from-layer="4069" from-port="0" to-layer="4070" to-port="4" />
		<edge from-layer="4070" from-port="5" to-layer="4075" to-port="0" />
		<edge from-layer="4071" from-port="0" to-layer="4072" to-port="0" />
		<edge from-layer="4072" from-port="1" to-layer="4074" to-port="0" />
		<edge from-layer="4073" from-port="0" to-layer="4074" to-port="1" />
		<edge from-layer="4074" from-port="2" to-layer="4075" to-port="1" />
		<edge from-layer="4075" from-port="2" to-layer="4078" to-port="0" />
		<edge from-layer="4076" from-port="0" to-layer="4077" to-port="0" />
		<edge from-layer="4077" from-port="1" to-layer="4078" to-port="1" />
		<edge from-layer="4078" from-port="2" to-layer="4079" to-port="0" />
		<edge from-layer="4079" from-port="1" to-layer="4084" to-port="0" />
		<edge from-layer="4080" from-port="0" to-layer="4084" to-port="1" />
		<edge from-layer="4081" from-port="0" to-layer="4084" to-port="2" />
		<edge from-layer="4082" from-port="0" to-layer="4084" to-port="3" />
		<edge from-layer="4083" from-port="0" to-layer="4084" to-port="4" />
		<edge from-layer="4084" from-port="5" to-layer="4089" to-port="0" />
		<edge from-layer="4085" from-port="0" to-layer="4086" to-port="0" />
		<edge from-layer="4086" from-port="1" to-layer="4088" to-port="0" />
		<edge from-layer="4087" from-port="0" to-layer="4088" to-port="1" />
		<edge from-layer="4088" from-port="2" to-layer="4089" to-port="1" />
		<edge from-layer="4089" from-port="2" to-layer="4092" to-port="0" />
		<edge from-layer="4090" from-port="0" to-layer="4091" to-port="0" />
		<edge from-layer="4091" from-port="1" to-layer="4092" to-port="1" />
		<edge from-layer="4092" from-port="2" to-layer="4110" to-port="0" />
		<edge from-layer="4093" from-port="1" to-layer="4104" to-port="1" />
		<edge from-layer="4093" from-port="1" to-layer="4098" to-port="0" />
		<edge from-layer="4094" from-port="0" to-layer="4098" to-port="1" />
		<edge from-layer="4095" from-port="0" to-layer="4098" to-port="2" />
		<edge from-layer="4096" from-port="0" to-layer="4098" to-port="3" />
		<edge from-layer="4097" from-port="0" to-layer="4098" to-port="4" />
		<edge from-layer="4098" from-port="5" to-layer="4101" to-port="0" />
		<edge from-layer="4099" from-port="0" to-layer="4100" to-port="0" />
		<edge from-layer="4100" from-port="1" to-layer="4101" to-port="1" />
		<edge from-layer="4101" from-port="2" to-layer="4108" to-port="0" />
		<edge from-layer="4102" from-port="0" to-layer="4103" to-port="0" />
		<edge from-layer="4103" from-port="1" to-layer="4104" to-port="0" />
		<edge from-layer="4104" from-port="2" to-layer="4107" to-port="0" />
		<edge from-layer="4105" from-port="0" to-layer="4106" to-port="0" />
		<edge from-layer="4106" from-port="1" to-layer="4107" to-port="1" />
		<edge from-layer="4107" from-port="2" to-layer="4108" to-port="1" />
		<edge from-layer="4108" from-port="2" to-layer="4109" to-port="0" />
		<edge from-layer="4109" from-port="1" to-layer="4110" to-port="1" />
		<edge from-layer="4110" from-port="2" to-layer="4111" to-port="0" />
		<edge from-layer="4111" from-port="1" to-layer="4593" to-port="0" />
		<edge from-layer="4111" from-port="1" to-layer="4116" to-port="0" />
		<edge from-layer="4111" from-port="1" to-layer="4284" to-port="0" />
		<edge from-layer="4112" from-port="0" to-layer="4116" to-port="1" />
		<edge from-layer="4113" from-port="0" to-layer="4116" to-port="2" />
		<edge from-layer="4114" from-port="0" to-layer="4116" to-port="3" />
		<edge from-layer="4115" from-port="0" to-layer="4116" to-port="4" />
		<edge from-layer="4116" from-port="5" to-layer="4117" to-port="0" />
		<edge from-layer="4117" from-port="2" to-layer="4120" to-port="0" />
		<edge from-layer="4118" from-port="0" to-layer="4119" to-port="0" />
		<edge from-layer="4119" from-port="1" to-layer="4120" to-port="1" />
		<edge from-layer="4120" from-port="2" to-layer="4121" to-port="0" />
		<edge from-layer="4121" from-port="1" to-layer="4126" to-port="0" />
		<edge from-layer="4122" from-port="0" to-layer="4126" to-port="1" />
		<edge from-layer="4123" from-port="0" to-layer="4126" to-port="2" />
		<edge from-layer="4124" from-port="0" to-layer="4126" to-port="3" />
		<edge from-layer="4125" from-port="0" to-layer="4126" to-port="4" />
		<edge from-layer="4126" from-port="5" to-layer="4127" to-port="0" />
		<edge from-layer="4127" from-port="2" to-layer="4130" to-port="0" />
		<edge from-layer="4128" from-port="0" to-layer="4129" to-port="0" />
		<edge from-layer="4129" from-port="1" to-layer="4130" to-port="1" />
		<edge from-layer="4130" from-port="2" to-layer="4135" to-port="0" />
		<edge from-layer="4131" from-port="0" to-layer="4135" to-port="1" />
		<edge from-layer="4132" from-port="0" to-layer="4135" to-port="2" />
		<edge from-layer="4133" from-port="0" to-layer="4135" to-port="3" />
		<edge from-layer="4134" from-port="0" to-layer="4135" to-port="4" />
		<edge from-layer="4135" from-port="5" to-layer="4298" to-port="1" />
		<edge from-layer="4135" from-port="5" to-layer="4136" to-port="1" />
		<edge from-layer="4136" from-port="2" to-layer="4141" to-port="0" />
		<edge from-layer="4137" from-port="0" to-layer="4141" to-port="1" />
		<edge from-layer="4138" from-port="0" to-layer="4141" to-port="2" />
		<edge from-layer="4139" from-port="0" to-layer="4141" to-port="3" />
		<edge from-layer="4140" from-port="0" to-layer="4141" to-port="4" />
		<edge from-layer="4141" from-port="5" to-layer="4143" to-port="0" />
		<edge from-layer="4142" from-port="0" to-layer="4143" to-port="1" />
		<edge from-layer="4143" from-port="2" to-layer="4148" to-port="0" />
		<edge from-layer="4143" from-port="2" to-layer="4174" to-port="0" />
		<edge from-layer="4144" from-port="0" to-layer="4145" to-port="0" />
		<edge from-layer="4145" from-port="1" to-layer="4147" to-port="0" />
		<edge from-layer="4146" from-port="0" to-layer="4147" to-port="1" />
		<edge from-layer="4147" from-port="2" to-layer="4148" to-port="1" />
		<edge from-layer="4148" from-port="2" to-layer="4151" to-port="0" />
		<edge from-layer="4149" from-port="0" to-layer="4150" to-port="0" />
		<edge from-layer="4150" from-port="1" to-layer="4151" to-port="1" />
		<edge from-layer="4151" from-port="2" to-layer="4156" to-port="0" />
		<edge from-layer="4152" from-port="0" to-layer="4156" to-port="1" />
		<edge from-layer="4153" from-port="0" to-layer="4156" to-port="2" />
		<edge from-layer="4154" from-port="0" to-layer="4156" to-port="3" />
		<edge from-layer="4155" from-port="0" to-layer="4156" to-port="4" />
		<edge from-layer="4156" from-port="5" to-layer="4158" to-port="0" />
		<edge from-layer="4157" from-port="0" to-layer="4158" to-port="1" />
		<edge from-layer="4158" from-port="2" to-layer="4160" to-port="0" />
		<edge from-layer="4159" from-port="0" to-layer="4160" to-port="1" />
		<edge from-layer="4160" from-port="2" to-layer="4161" to-port="0" />
		<edge from-layer="4160" from-port="2" to-layer="4161" to-port="1" />
		<edge from-layer="4161" from-port="2" to-layer="4164" to-port="0" />
		<edge from-layer="4162" from-port="0" to-layer="4163" to-port="0" />
		<edge from-layer="4163" from-port="1" to-layer="4164" to-port="1" />
		<edge from-layer="4164" from-port="2" to-layer="4169" to-port="0" />
		<edge from-layer="4165" from-port="0" to-layer="4169" to-port="1" />
		<edge from-layer="4166" from-port="0" to-layer="4169" to-port="2" />
		<edge from-layer="4167" from-port="0" to-layer="4169" to-port="3" />
		<edge from-layer="4168" from-port="0" to-layer="4169" to-port="4" />
		<edge from-layer="4169" from-port="5" to-layer="4187" to-port="0" />
		<edge from-layer="4170" from-port="0" to-layer="4171" to-port="0" />
		<edge from-layer="4171" from-port="1" to-layer="4173" to-port="0" />
		<edge from-layer="4172" from-port="0" to-layer="4173" to-port="1" />
		<edge from-layer="4173" from-port="2" to-layer="4174" to-port="1" />
		<edge from-layer="4174" from-port="2" to-layer="4177" to-port="0" />
		<edge from-layer="4175" from-port="0" to-layer="4176" to-port="0" />
		<edge from-layer="4176" from-port="1" to-layer="4177" to-port="1" />
		<edge from-layer="4177" from-port="2" to-layer="4182" to-port="0" />
		<edge from-layer="4178" from-port="0" to-layer="4182" to-port="1" />
		<edge from-layer="4179" from-port="0" to-layer="4182" to-port="2" />
		<edge from-layer="4180" from-port="0" to-layer="4182" to-port="3" />
		<edge from-layer="4181" from-port="0" to-layer="4182" to-port="4" />
		<edge from-layer="4182" from-port="5" to-layer="4184" to-port="0" />
		<edge from-layer="4183" from-port="0" to-layer="4184" to-port="1" />
		<edge from-layer="4184" from-port="2" to-layer="4186" to-port="0" />
		<edge from-layer="4185" from-port="0" to-layer="4186" to-port="1" />
		<edge from-layer="4186" from-port="2" to-layer="4187" to-port="1" />
		<edge from-layer="4187" from-port="2" to-layer="4188" to-port="0" />
		<edge from-layer="4188" from-port="1" to-layer="4193" to-port="0" />
		<edge from-layer="4189" from-port="0" to-layer="4193" to-port="1" />
		<edge from-layer="4190" from-port="0" to-layer="4193" to-port="2" />
		<edge from-layer="4191" from-port="0" to-layer="4193" to-port="3" />
		<edge from-layer="4192" from-port="0" to-layer="4193" to-port="4" />
		<edge from-layer="4193" from-port="5" to-layer="4213" to-port="0" />
		<edge from-layer="4194" from-port="0" to-layer="4195" to-port="1" />
		<edge from-layer="4195" from-port="2" to-layer="4200" to-port="0" />
		<edge from-layer="4196" from-port="0" to-layer="4197" to-port="0" />
		<edge from-layer="4197" from-port="1" to-layer="4199" to-port="0" />
		<edge from-layer="4198" from-port="0" to-layer="4199" to-port="1" />
		<edge from-layer="4199" from-port="2" to-layer="4200" to-port="1" />
		<edge from-layer="4200" from-port="2" to-layer="4203" to-port="0" />
		<edge from-layer="4201" from-port="0" to-layer="4202" to-port="0" />
		<edge from-layer="4202" from-port="1" to-layer="4203" to-port="1" />
		<edge from-layer="4203" from-port="2" to-layer="4208" to-port="0" />
		<edge from-layer="4204" from-port="0" to-layer="4208" to-port="1" />
		<edge from-layer="4205" from-port="0" to-layer="4208" to-port="2" />
		<edge from-layer="4206" from-port="0" to-layer="4208" to-port="3" />
		<edge from-layer="4207" from-port="0" to-layer="4208" to-port="4" />
		<edge from-layer="4208" from-port="5" to-layer="4210" to-port="0" />
		<edge from-layer="4209" from-port="0" to-layer="4210" to-port="1" />
		<edge from-layer="4210" from-port="2" to-layer="4212" to-port="0" />
		<edge from-layer="4211" from-port="0" to-layer="4212" to-port="1" />
		<edge from-layer="4212" from-port="2" to-layer="4213" to-port="1" />
		<edge from-layer="4213" from-port="2" to-layer="4218" to-port="0" />
		<edge from-layer="4214" from-port="0" to-layer="4218" to-port="1" />
		<edge from-layer="4215" from-port="0" to-layer="4218" to-port="2" />
		<edge from-layer="4216" from-port="0" to-layer="4218" to-port="3" />
		<edge from-layer="4217" from-port="0" to-layer="4218" to-port="4" />
		<edge from-layer="4218" from-port="5" to-layer="4220" to-port="0" />
		<edge from-layer="4219" from-port="0" to-layer="4220" to-port="1" />
		<edge from-layer="4220" from-port="2" to-layer="4222" to-port="0" />
		<edge from-layer="4221" from-port="0" to-layer="4222" to-port="1" />
		<edge from-layer="4222" from-port="2" to-layer="4227" to-port="0" />
		<edge from-layer="4223" from-port="0" to-layer="4224" to-port="0" />
		<edge from-layer="4224" from-port="1" to-layer="4226" to-port="0" />
		<edge from-layer="4225" from-port="0" to-layer="4226" to-port="1" />
		<edge from-layer="4226" from-port="2" to-layer="4227" to-port="1" />
		<edge from-layer="4227" from-port="2" to-layer="4230" to-port="0" />
		<edge from-layer="4228" from-port="0" to-layer="4229" to-port="0" />
		<edge from-layer="4229" from-port="1" to-layer="4230" to-port="1" />
		<edge from-layer="4230" from-port="2" to-layer="4235" to-port="0" />
		<edge from-layer="4231" from-port="0" to-layer="4235" to-port="1" />
		<edge from-layer="4232" from-port="0" to-layer="4235" to-port="2" />
		<edge from-layer="4233" from-port="0" to-layer="4235" to-port="3" />
		<edge from-layer="4234" from-port="0" to-layer="4235" to-port="4" />
		<edge from-layer="4235" from-port="5" to-layer="4237" to-port="0" />
		<edge from-layer="4236" from-port="0" to-layer="4237" to-port="1" />
		<edge from-layer="4237" from-port="2" to-layer="4239" to-port="0" />
		<edge from-layer="4238" from-port="0" to-layer="4239" to-port="1" />
		<edge from-layer="4239" from-port="2" to-layer="4240" to-port="1" />
		<edge from-layer="4240" from-port="2" to-layer="4245" to-port="0" />
		<edge from-layer="4241" from-port="0" to-layer="4245" to-port="1" />
		<edge from-layer="4242" from-port="0" to-layer="4245" to-port="2" />
		<edge from-layer="4243" from-port="0" to-layer="4245" to-port="3" />
		<edge from-layer="4244" from-port="0" to-layer="4245" to-port="4" />
		<edge from-layer="4245" from-port="5" to-layer="4247" to-port="0" />
		<edge from-layer="4246" from-port="0" to-layer="4247" to-port="1" />
		<edge from-layer="4247" from-port="2" to-layer="4250" to-port="0" />
		<edge from-layer="4248" from-port="0" to-layer="4249" to-port="0" />
		<edge from-layer="4249" from-port="1" to-layer="4250" to-port="1" />
		<edge from-layer="4250" from-port="2" to-layer="4253" to-port="0" />
		<edge from-layer="4251" from-port="0" to-layer="4252" to-port="0" />
		<edge from-layer="4252" from-port="1" to-layer="4253" to-port="1" />
		<edge from-layer="4253" from-port="2" to-layer="4258" to-port="0" />
		<edge from-layer="4254" from-port="0" to-layer="4258" to-port="1" />
		<edge from-layer="4255" from-port="0" to-layer="4258" to-port="2" />
		<edge from-layer="4256" from-port="0" to-layer="4258" to-port="3" />
		<edge from-layer="4257" from-port="0" to-layer="4258" to-port="4" />
		<edge from-layer="4258" from-port="5" to-layer="4298" to-port="0" />
		<edge from-layer="4258" from-port="5" to-layer="4475" to-port="0" />
		<edge from-layer="4259" from-port="0" to-layer="4260" to-port="0" />
		<edge from-layer="4260" from-port="1" to-layer="4262" to-port="0" />
		<edge from-layer="4261" from-port="0" to-layer="4262" to-port="1" />
		<edge from-layer="4262" from-port="2" to-layer="4263" to-port="1" />
		<edge from-layer="4263" from-port="2" to-layer="4266" to-port="0" />
		<edge from-layer="4264" from-port="0" to-layer="4265" to-port="0" />
		<edge from-layer="4265" from-port="1" to-layer="4266" to-port="1" />
		<edge from-layer="4266" from-port="2" to-layer="4268" to-port="0" />
		<edge from-layer="4267" from-port="0" to-layer="4268" to-port="1" />
		<edge from-layer="4268" from-port="2" to-layer="4274" to-port="0" />
		<edge from-layer="4268" from-port="2" to-layer="4269" to-port="0" />
		<edge from-layer="4269" from-port="3" to-layer="4271" to-port="0" />
		<edge from-layer="4269" from-port="4" to-layer="4385" to-port="0" />
		<edge from-layer="4269" from-port="5" to-layer="4403" to-port="0" />
		<edge from-layer="4270" from-port="0" to-layer="4271" to-port="1" />
		<edge from-layer="4271" from-port="2" to-layer="4273" to-port="0" />
		<edge from-layer="4272" from-port="0" to-layer="4273" to-port="1" />
		<edge from-layer="4273" from-port="2" to-layer="4283" to-port="0" />
		<edge from-layer="4274" from-port="1" to-layer="4281" to-port="0" />
		<edge from-layer="4274" from-port="1" to-layer="4277" to-port="0" />
		<edge from-layer="4275" from-port="0" to-layer="4277" to-port="1" />
		<edge from-layer="4276" from-port="0" to-layer="4277" to-port="2" />
		<edge from-layer="4277" from-port="3" to-layer="4278" to-port="1" />
		<edge from-layer="4278" from-port="2" to-layer="4406" to-port="0" />
		<edge from-layer="4278" from-port="2" to-layer="4388" to-port="0" />
		<edge from-layer="4278" from-port="2" to-layer="4282" to-port="0" />
		<edge from-layer="4279" from-port="0" to-layer="4281" to-port="1" />
		<edge from-layer="4280" from-port="0" to-layer="4281" to-port="2" />
		<edge from-layer="4281" from-port="3" to-layer="4282" to-port="1" />
		<edge from-layer="4281" from-port="3" to-layer="4388" to-port="1" />
		<edge from-layer="4281" from-port="3" to-layer="4406" to-port="1" />
		<edge from-layer="4282" from-port="4" to-layer="4283" to-port="1" />
		<edge from-layer="4283" from-port="2" to-layer="4377" to-port="0" />
		<edge from-layer="4284" from-port="2" to-layer="4285" to-port="0" />
		<edge from-layer="4285" from-port="2" to-layer="4286" to-port="0" />
		<edge from-layer="4286" from-port="2" to-layer="4331" to-port="0" />
		<edge from-layer="4286" from-port="2" to-layer="4291" to-port="0" />
		<edge from-layer="4287" from-port="0" to-layer="4291" to-port="1" />
		<edge from-layer="4288" from-port="0" to-layer="4291" to-port="2" />
		<edge from-layer="4289" from-port="0" to-layer="4291" to-port="3" />
		<edge from-layer="4290" from-port="0" to-layer="4291" to-port="4" />
		<edge from-layer="4291" from-port="5" to-layer="4296" to-port="0" />
		<edge from-layer="4292" from-port="0" to-layer="4296" to-port="1" />
		<edge from-layer="4293" from-port="0" to-layer="4296" to-port="2" />
		<edge from-layer="4294" from-port="0" to-layer="4296" to-port="3" />
		<edge from-layer="4295" from-port="0" to-layer="4296" to-port="4" />
		<edge from-layer="4296" from-port="5" to-layer="4297" to-port="1" />
		<edge from-layer="4296" from-port="5" to-layer="4297" to-port="0" />
		<edge from-layer="4297" from-port="2" to-layer="4353" to-port="0" />
		<edge from-layer="4298" from-port="2" to-layer="4303" to-port="0" />
		<edge from-layer="4299" from-port="0" to-layer="4303" to-port="1" />
		<edge from-layer="4300" from-port="0" to-layer="4303" to-port="2" />
		<edge from-layer="4301" from-port="0" to-layer="4303" to-port="3" />
		<edge from-layer="4302" from-port="0" to-layer="4303" to-port="4" />
		<edge from-layer="4303" from-port="5" to-layer="4308" to-port="0" />
		<edge from-layer="4303" from-port="5" to-layer="4428" to-port="0" />
		<edge from-layer="4304" from-port="0" to-layer="4305" to-port="0" />
		<edge from-layer="4305" from-port="1" to-layer="4307" to-port="0" />
		<edge from-layer="4306" from-port="0" to-layer="4307" to-port="1" />
		<edge from-layer="4307" from-port="2" to-layer="4308" to-port="1" />
		<edge from-layer="4308" from-port="2" to-layer="4311" to-port="0" />
		<edge from-layer="4309" from-port="0" to-layer="4310" to-port="0" />
		<edge from-layer="4310" from-port="1" to-layer="4311" to-port="1" />
		<edge from-layer="4311" from-port="2" to-layer="4316" to-port="0" />
		<edge from-layer="4312" from-port="0" to-layer="4316" to-port="1" />
		<edge from-layer="4313" from-port="0" to-layer="4316" to-port="2" />
		<edge from-layer="4314" from-port="0" to-layer="4316" to-port="3" />
		<edge from-layer="4315" from-port="0" to-layer="4316" to-port="4" />
		<edge from-layer="4316" from-port="5" to-layer="4318" to-port="0" />
		<edge from-layer="4317" from-port="0" to-layer="4318" to-port="1" />
		<edge from-layer="4318" from-port="2" to-layer="4321" to-port="0" />
		<edge from-layer="4319" from-port="0" to-layer="4320" to-port="0" />
		<edge from-layer="4320" from-port="1" to-layer="4321" to-port="1" />
		<edge from-layer="4321" from-port="2" to-layer="4326" to-port="0" />
		<edge from-layer="4322" from-port="0" to-layer="4326" to-port="1" />
		<edge from-layer="4323" from-port="0" to-layer="4326" to-port="2" />
		<edge from-layer="4324" from-port="0" to-layer="4326" to-port="3" />
		<edge from-layer="4325" from-port="0" to-layer="4326" to-port="4" />
		<edge from-layer="4326" from-port="5" to-layer="4337" to-port="0" />
		<edge from-layer="4327" from-port="0" to-layer="4331" to-port="1" />
		<edge from-layer="4328" from-port="0" to-layer="4331" to-port="2" />
		<edge from-layer="4329" from-port="0" to-layer="4331" to-port="3" />
		<edge from-layer="4330" from-port="0" to-layer="4331" to-port="4" />
		<edge from-layer="4331" from-port="5" to-layer="4336" to-port="0" />
		<edge from-layer="4332" from-port="0" to-layer="4336" to-port="1" />
		<edge from-layer="4333" from-port="0" to-layer="4336" to-port="2" />
		<edge from-layer="4334" from-port="0" to-layer="4336" to-port="3" />
		<edge from-layer="4335" from-port="0" to-layer="4336" to-port="4" />
		<edge from-layer="4336" from-port="5" to-layer="4337" to-port="1" />
		<edge from-layer="4337" from-port="2" to-layer="4342" to-port="0" />
		<edge from-layer="4338" from-port="0" to-layer="4342" to-port="1" />
		<edge from-layer="4339" from-port="0" to-layer="4342" to-port="2" />
		<edge from-layer="4340" from-port="0" to-layer="4342" to-port="3" />
		<edge from-layer="4341" from-port="0" to-layer="4342" to-port="4" />
		<edge from-layer="4342" from-port="5" to-layer="4343" to-port="1" />
		<edge from-layer="4342" from-port="5" to-layer="4343" to-port="0" />
		<edge from-layer="4343" from-port="2" to-layer="4346" to-port="0" />
		<edge from-layer="4344" from-port="0" to-layer="4345" to-port="0" />
		<edge from-layer="4345" from-port="1" to-layer="4346" to-port="1" />
		<edge from-layer="4346" from-port="2" to-layer="4351" to-port="0" />
		<edge from-layer="4347" from-port="0" to-layer="4351" to-port="1" />
		<edge from-layer="4348" from-port="0" to-layer="4351" to-port="2" />
		<edge from-layer="4349" from-port="0" to-layer="4351" to-port="3" />
		<edge from-layer="4350" from-port="0" to-layer="4351" to-port="4" />
		<edge from-layer="4351" from-port="5" to-layer="4352" to-port="0" />
		<edge from-layer="4351" from-port="5" to-layer="4352" to-port="1" />
		<edge from-layer="4352" from-port="2" to-layer="4353" to-port="1" />
		<edge from-layer="4353" from-port="2" to-layer="4358" to-port="0" />
		<edge from-layer="4354" from-port="0" to-layer="4358" to-port="1" />
		<edge from-layer="4355" from-port="0" to-layer="4358" to-port="2" />
		<edge from-layer="4356" from-port="0" to-layer="4358" to-port="3" />
		<edge from-layer="4357" from-port="0" to-layer="4358" to-port="4" />
		<edge from-layer="4358" from-port="5" to-layer="4359" to-port="1" />
		<edge from-layer="4358" from-port="5" to-layer="4359" to-port="0" />
		<edge from-layer="4359" from-port="2" to-layer="4362" to-port="0" />
		<edge from-layer="4360" from-port="0" to-layer="4361" to-port="0" />
		<edge from-layer="4361" from-port="1" to-layer="4362" to-port="1" />
		<edge from-layer="4362" from-port="2" to-layer="4367" to-port="0" />
		<edge from-layer="4363" from-port="0" to-layer="4367" to-port="1" />
		<edge from-layer="4364" from-port="0" to-layer="4367" to-port="2" />
		<edge from-layer="4365" from-port="0" to-layer="4367" to-port="3" />
		<edge from-layer="4366" from-port="0" to-layer="4367" to-port="4" />
		<edge from-layer="4367" from-port="5" to-layer="4368" to-port="0" />
		<edge from-layer="4367" from-port="5" to-layer="4368" to-port="1" />
		<edge from-layer="4368" from-port="2" to-layer="4371" to-port="0" />
		<edge from-layer="4369" from-port="0" to-layer="4370" to-port="0" />
		<edge from-layer="4370" from-port="1" to-layer="4371" to-port="1" />
		<edge from-layer="4371" from-port="2" to-layer="4390" to-port="0" />
		<edge from-layer="4371" from-port="2" to-layer="4372" to-port="0" />
		<edge from-layer="4371" from-port="2" to-layer="4408" to-port="0" />
		<edge from-layer="4372" from-port="3" to-layer="4374" to-port="0" />
		<edge from-layer="4373" from-port="0" to-layer="4374" to-port="1" />
		<edge from-layer="4374" from-port="2" to-layer="4376" to-port="0" />
		<edge from-layer="4375" from-port="0" to-layer="4376" to-port="1" />
		<edge from-layer="4376" from-port="2" to-layer="4377" to-port="1" />
		<edge from-layer="4377" from-port="2" to-layer="4382" to-port="0" />
		<edge from-layer="4378" from-port="0" to-layer="4382" to-port="1" />
		<edge from-layer="4379" from-port="0" to-layer="4382" to-port="2" />
		<edge from-layer="4380" from-port="0" to-layer="4382" to-port="3" />
		<edge from-layer="4381" from-port="0" to-layer="4382" to-port="4" />
		<edge from-layer="4382" from-port="5" to-layer="4383" to-port="0" />
		<edge from-layer="4383" from-port="2" to-layer="4420" to-port="0" />
		<edge from-layer="4384" from-port="0" to-layer="4385" to-port="1" />
		<edge from-layer="4385" from-port="2" to-layer="4387" to-port="0" />
		<edge from-layer="4386" from-port="0" to-layer="4387" to-port="1" />
		<edge from-layer="4387" from-port="2" to-layer="4389" to-port="0" />
		<edge from-layer="4388" from-port="4" to-layer="4389" to-port="1" />
		<edge from-layer="4389" from-port="2" to-layer="4395" to-port="0" />
		<edge from-layer="4390" from-port="3" to-layer="4392" to-port="0" />
		<edge from-layer="4391" from-port="0" to-layer="4392" to-port="1" />
		<edge from-layer="4392" from-port="2" to-layer="4394" to-port="0" />
		<edge from-layer="4393" from-port="0" to-layer="4394" to-port="1" />
		<edge from-layer="4394" from-port="2" to-layer="4395" to-port="1" />
		<edge from-layer="4395" from-port="2" to-layer="4400" to-port="0" />
		<edge from-layer="4396" from-port="0" to-layer="4400" to-port="1" />
		<edge from-layer="4397" from-port="0" to-layer="4400" to-port="2" />
		<edge from-layer="4398" from-port="0" to-layer="4400" to-port="3" />
		<edge from-layer="4399" from-port="0" to-layer="4400" to-port="4" />
		<edge from-layer="4400" from-port="5" to-layer="4401" to-port="0" />
		<edge from-layer="4401" from-port="2" to-layer="4420" to-port="1" />
		<edge from-layer="4402" from-port="0" to-layer="4403" to-port="1" />
		<edge from-layer="4403" from-port="2" to-layer="4405" to-port="0" />
		<edge from-layer="4404" from-port="0" to-layer="4405" to-port="1" />
		<edge from-layer="4405" from-port="2" to-layer="4407" to-port="0" />
		<edge from-layer="4406" from-port="4" to-layer="4407" to-port="1" />
		<edge from-layer="4407" from-port="2" to-layer="4413" to-port="0" />
		<edge from-layer="4408" from-port="3" to-layer="4410" to-port="0" />
		<edge from-layer="4409" from-port="0" to-layer="4410" to-port="1" />
		<edge from-layer="4410" from-port="2" to-layer="4412" to-port="0" />
		<edge from-layer="4411" from-port="0" to-layer="4412" to-port="1" />
		<edge from-layer="4412" from-port="2" to-layer="4413" to-port="1" />
		<edge from-layer="4413" from-port="2" to-layer="4418" to-port="0" />
		<edge from-layer="4414" from-port="0" to-layer="4418" to-port="1" />
		<edge from-layer="4415" from-port="0" to-layer="4418" to-port="2" />
		<edge from-layer="4416" from-port="0" to-layer="4418" to-port="3" />
		<edge from-layer="4417" from-port="0" to-layer="4418" to-port="4" />
		<edge from-layer="4418" from-port="5" to-layer="4419" to-port="0" />
		<edge from-layer="4419" from-port="2" to-layer="4420" to-port="2" />
		<edge from-layer="4420" from-port="3" to-layer="4422" to-port="0" />
		<edge from-layer="4421" from-port="0" to-layer="4422" to-port="1" />
		<edge from-layer="4422" from-port="2" to-layer="4423" to-port="1" />
		<edge from-layer="4422" from-port="2" to-layer="4423" to-port="0" />
		<edge from-layer="4423" from-port="2" to-layer="4447" to-port="0" />
		<edge from-layer="4424" from-port="0" to-layer="4425" to-port="0" />
		<edge from-layer="4425" from-port="1" to-layer="4427" to-port="0" />
		<edge from-layer="4426" from-port="0" to-layer="4427" to-port="1" />
		<edge from-layer="4427" from-port="2" to-layer="4428" to-port="1" />
		<edge from-layer="4428" from-port="2" to-layer="4431" to-port="0" />
		<edge from-layer="4429" from-port="0" to-layer="4430" to-port="0" />
		<edge from-layer="4430" from-port="1" to-layer="4431" to-port="1" />
		<edge from-layer="4431" from-port="2" to-layer="4433" to-port="0" />
		<edge from-layer="4432" from-port="0" to-layer="4433" to-port="1" />
		<edge from-layer="4433" from-port="2" to-layer="4434" to-port="0" />
		<edge from-layer="4434" from-port="1" to-layer="4439" to-port="0" />
		<edge from-layer="4435" from-port="0" to-layer="4439" to-port="1" />
		<edge from-layer="4436" from-port="0" to-layer="4439" to-port="2" />
		<edge from-layer="4437" from-port="0" to-layer="4439" to-port="3" />
		<edge from-layer="4438" from-port="0" to-layer="4439" to-port="4" />
		<edge from-layer="4439" from-port="5" to-layer="4441" to-port="0" />
		<edge from-layer="4440" from-port="0" to-layer="4441" to-port="1" />
		<edge from-layer="4441" from-port="2" to-layer="4443" to-port="0" />
		<edge from-layer="4442" from-port="0" to-layer="4443" to-port="1" />
		<edge from-layer="4443" from-port="2" to-layer="4445" to-port="0" />
		<edge from-layer="4444" from-port="0" to-layer="4445" to-port="1" />
		<edge from-layer="4445" from-port="2" to-layer="4446" to-port="0" />
		<edge from-layer="4445" from-port="2" to-layer="4446" to-port="1" />
		<edge from-layer="4446" from-port="2" to-layer="4447" to-port="1" />
		<edge from-layer="4447" from-port="2" to-layer="4452" to-port="0" />
		<edge from-layer="4448" from-port="0" to-layer="4452" to-port="1" />
		<edge from-layer="4449" from-port="0" to-layer="4452" to-port="2" />
		<edge from-layer="4450" from-port="0" to-layer="4452" to-port="3" />
		<edge from-layer="4451" from-port="0" to-layer="4452" to-port="4" />
		<edge from-layer="4452" from-port="5" to-layer="4454" to-port="0" />
		<edge from-layer="4453" from-port="0" to-layer="4454" to-port="1" />
		<edge from-layer="4454" from-port="2" to-layer="4459" to-port="0" />
		<edge from-layer="4455" from-port="0" to-layer="4459" to-port="1" />
		<edge from-layer="4456" from-port="0" to-layer="4459" to-port="2" />
		<edge from-layer="4457" from-port="0" to-layer="4459" to-port="3" />
		<edge from-layer="4458" from-port="0" to-layer="4459" to-port="4" />
		<edge from-layer="4459" from-port="5" to-layer="4461" to-port="0" />
		<edge from-layer="4460" from-port="0" to-layer="4461" to-port="1" />
		<edge from-layer="4461" from-port="2" to-layer="4466" to-port="0" />
		<edge from-layer="4462" from-port="0" to-layer="4463" to-port="0" />
		<edge from-layer="4463" from-port="1" to-layer="4465" to-port="0" />
		<edge from-layer="4464" from-port="0" to-layer="4465" to-port="1" />
		<edge from-layer="4465" from-port="2" to-layer="4466" to-port="1" />
		<edge from-layer="4466" from-port="2" to-layer="4469" to-port="0" />
		<edge from-layer="4467" from-port="0" to-layer="4468" to-port="0" />
		<edge from-layer="4468" from-port="1" to-layer="4469" to-port="1" />
		<edge from-layer="4469" from-port="2" to-layer="4474" to-port="0" />
		<edge from-layer="4470" from-port="0" to-layer="4474" to-port="1" />
		<edge from-layer="4471" from-port="0" to-layer="4474" to-port="2" />
		<edge from-layer="4472" from-port="0" to-layer="4474" to-port="3" />
		<edge from-layer="4473" from-port="0" to-layer="4474" to-port="4" />
		<edge from-layer="4474" from-port="5" to-layer="4475" to-port="1" />
		<edge from-layer="4475" from-port="2" to-layer="4480" to-port="0" />
		<edge from-layer="4476" from-port="0" to-layer="4480" to-port="1" />
		<edge from-layer="4477" from-port="0" to-layer="4480" to-port="2" />
		<edge from-layer="4478" from-port="0" to-layer="4480" to-port="3" />
		<edge from-layer="4479" from-port="0" to-layer="4480" to-port="4" />
		<edge from-layer="4480" from-port="5" to-layer="4482" to-port="0" />
		<edge from-layer="4481" from-port="0" to-layer="4482" to-port="1" />
		<edge from-layer="4482" from-port="2" to-layer="4485" to-port="0" />
		<edge from-layer="4483" from-port="0" to-layer="4484" to-port="0" />
		<edge from-layer="4484" from-port="1" to-layer="4485" to-port="1" />
		<edge from-layer="4485" from-port="2" to-layer="4488" to-port="0" />
		<edge from-layer="4486" from-port="0" to-layer="4487" to-port="0" />
		<edge from-layer="4487" from-port="1" to-layer="4488" to-port="1" />
		<edge from-layer="4488" from-port="2" to-layer="4493" to-port="0" />
		<edge from-layer="4489" from-port="0" to-layer="4493" to-port="1" />
		<edge from-layer="4490" from-port="0" to-layer="4493" to-port="2" />
		<edge from-layer="4491" from-port="0" to-layer="4493" to-port="3" />
		<edge from-layer="4492" from-port="0" to-layer="4493" to-port="4" />
		<edge from-layer="4493" from-port="5" to-layer="4521" to-port="0" />
		<edge from-layer="4493" from-port="5" to-layer="4498" to-port="0" />
		<edge from-layer="4494" from-port="0" to-layer="4495" to-port="0" />
		<edge from-layer="4495" from-port="1" to-layer="4497" to-port="0" />
		<edge from-layer="4496" from-port="0" to-layer="4497" to-port="1" />
		<edge from-layer="4497" from-port="2" to-layer="4498" to-port="1" />
		<edge from-layer="4498" from-port="2" to-layer="4501" to-port="0" />
		<edge from-layer="4499" from-port="0" to-layer="4500" to-port="0" />
		<edge from-layer="4500" from-port="1" to-layer="4501" to-port="1" />
		<edge from-layer="4501" from-port="2" to-layer="4502" to-port="0" />
		<edge from-layer="4502" from-port="1" to-layer="4507" to-port="0" />
		<edge from-layer="4503" from-port="0" to-layer="4507" to-port="1" />
		<edge from-layer="4504" from-port="0" to-layer="4507" to-port="2" />
		<edge from-layer="4505" from-port="0" to-layer="4507" to-port="3" />
		<edge from-layer="4506" from-port="0" to-layer="4507" to-port="4" />
		<edge from-layer="4507" from-port="5" to-layer="4512" to-port="0" />
		<edge from-layer="4508" from-port="0" to-layer="4509" to-port="0" />
		<edge from-layer="4509" from-port="1" to-layer="4511" to-port="0" />
		<edge from-layer="4510" from-port="0" to-layer="4511" to-port="1" />
		<edge from-layer="4511" from-port="2" to-layer="4512" to-port="1" />
		<edge from-layer="4512" from-port="2" to-layer="4515" to-port="0" />
		<edge from-layer="4513" from-port="0" to-layer="4514" to-port="0" />
		<edge from-layer="4514" from-port="1" to-layer="4515" to-port="1" />
		<edge from-layer="4515" from-port="2" to-layer="4520" to-port="0" />
		<edge from-layer="4516" from-port="0" to-layer="4520" to-port="1" />
		<edge from-layer="4517" from-port="0" to-layer="4520" to-port="2" />
		<edge from-layer="4518" from-port="0" to-layer="4520" to-port="3" />
		<edge from-layer="4519" from-port="0" to-layer="4520" to-port="4" />
		<edge from-layer="4520" from-port="5" to-layer="4521" to-port="1" />
		<edge from-layer="4521" from-port="2" to-layer="4526" to-port="0" />
		<edge from-layer="4522" from-port="0" to-layer="4526" to-port="1" />
		<edge from-layer="4523" from-port="0" to-layer="4526" to-port="2" />
		<edge from-layer="4524" from-port="0" to-layer="4526" to-port="3" />
		<edge from-layer="4525" from-port="0" to-layer="4526" to-port="4" />
		<edge from-layer="4526" from-port="5" to-layer="4528" to-port="0" />
		<edge from-layer="4527" from-port="0" to-layer="4528" to-port="1" />
		<edge from-layer="4528" from-port="2" to-layer="4531" to-port="0" />
		<edge from-layer="4529" from-port="0" to-layer="4530" to-port="0" />
		<edge from-layer="4530" from-port="1" to-layer="4531" to-port="1" />
		<edge from-layer="4531" from-port="2" to-layer="4534" to-port="0" />
		<edge from-layer="4532" from-port="0" to-layer="4533" to-port="0" />
		<edge from-layer="4533" from-port="1" to-layer="4534" to-port="1" />
		<edge from-layer="4534" from-port="2" to-layer="4539" to-port="0" />
		<edge from-layer="4535" from-port="0" to-layer="4539" to-port="1" />
		<edge from-layer="4536" from-port="0" to-layer="4539" to-port="2" />
		<edge from-layer="4537" from-port="0" to-layer="4539" to-port="3" />
		<edge from-layer="4538" from-port="0" to-layer="4539" to-port="4" />
		<edge from-layer="4539" from-port="5" to-layer="4561" to-port="0" />
		<edge from-layer="4539" from-port="5" to-layer="4544" to-port="0" />
		<edge from-layer="4540" from-port="0" to-layer="4541" to-port="0" />
		<edge from-layer="4541" from-port="1" to-layer="4543" to-port="0" />
		<edge from-layer="4542" from-port="0" to-layer="4543" to-port="1" />
		<edge from-layer="4543" from-port="2" to-layer="4544" to-port="1" />
		<edge from-layer="4544" from-port="2" to-layer="4547" to-port="0" />
		<edge from-layer="4545" from-port="0" to-layer="4546" to-port="0" />
		<edge from-layer="4546" from-port="1" to-layer="4547" to-port="1" />
		<edge from-layer="4547" from-port="2" to-layer="4550" to-port="0" />
		<edge from-layer="4548" from-port="0" to-layer="4549" to-port="0" />
		<edge from-layer="4549" from-port="1" to-layer="4550" to-port="1" />
		<edge from-layer="4550" from-port="2" to-layer="4551" to-port="0" />
		<edge from-layer="4551" from-port="1" to-layer="4553" to-port="0" />
		<edge from-layer="4552" from-port="0" to-layer="4553" to-port="1" />
		<edge from-layer="4553" from-port="2" to-layer="4555" to-port="0" />
		<edge from-layer="4554" from-port="0" to-layer="4555" to-port="1" />
		<edge from-layer="4555" from-port="2" to-layer="4556" to-port="0" />
		<edge from-layer="4555" from-port="3" to-layer="4685" to-port="0" />
		<edge from-layer="4555" from-port="3" to-layer="4671" to-port="0" />
		<edge from-layer="4557" from-port="0" to-layer="4558" to-port="0" />
		<edge from-layer="4558" from-port="1" to-layer="4560" to-port="0" />
		<edge from-layer="4559" from-port="0" to-layer="4560" to-port="1" />
		<edge from-layer="4560" from-port="2" to-layer="4561" to-port="1" />
		<edge from-layer="4561" from-port="2" to-layer="4564" to-port="0" />
		<edge from-layer="4562" from-port="0" to-layer="4563" to-port="0" />
		<edge from-layer="4563" from-port="1" to-layer="4564" to-port="1" />
		<edge from-layer="4564" from-port="2" to-layer="4565" to-port="0" />
		<edge from-layer="4565" from-port="1" to-layer="4570" to-port="0" />
		<edge from-layer="4566" from-port="0" to-layer="4570" to-port="1" />
		<edge from-layer="4567" from-port="0" to-layer="4570" to-port="2" />
		<edge from-layer="4568" from-port="0" to-layer="4570" to-port="3" />
		<edge from-layer="4569" from-port="0" to-layer="4570" to-port="4" />
		<edge from-layer="4570" from-port="5" to-layer="4575" to-port="0" />
		<edge from-layer="4571" from-port="0" to-layer="4572" to-port="0" />
		<edge from-layer="4572" from-port="1" to-layer="4574" to-port="0" />
		<edge from-layer="4573" from-port="0" to-layer="4574" to-port="1" />
		<edge from-layer="4574" from-port="2" to-layer="4575" to-port="1" />
		<edge from-layer="4575" from-port="2" to-layer="4578" to-port="0" />
		<edge from-layer="4576" from-port="0" to-layer="4577" to-port="0" />
		<edge from-layer="4577" from-port="1" to-layer="4578" to-port="1" />
		<edge from-layer="4578" from-port="2" to-layer="4579" to-port="0" />
		<edge from-layer="4579" from-port="1" to-layer="4584" to-port="0" />
		<edge from-layer="4580" from-port="0" to-layer="4584" to-port="1" />
		<edge from-layer="4581" from-port="0" to-layer="4584" to-port="2" />
		<edge from-layer="4582" from-port="0" to-layer="4584" to-port="3" />
		<edge from-layer="4583" from-port="0" to-layer="4584" to-port="4" />
		<edge from-layer="4584" from-port="5" to-layer="4589" to-port="0" />
		<edge from-layer="4585" from-port="0" to-layer="4586" to-port="0" />
		<edge from-layer="4586" from-port="1" to-layer="4588" to-port="0" />
		<edge from-layer="4587" from-port="0" to-layer="4588" to-port="1" />
		<edge from-layer="4588" from-port="2" to-layer="4589" to-port="1" />
		<edge from-layer="4589" from-port="2" to-layer="4592" to-port="0" />
		<edge from-layer="4590" from-port="0" to-layer="4591" to-port="0" />
		<edge from-layer="4591" from-port="1" to-layer="4592" to-port="1" />
		<edge from-layer="4592" from-port="2" to-layer="4610" to-port="0" />
		<edge from-layer="4593" from-port="1" to-layer="4604" to-port="1" />
		<edge from-layer="4593" from-port="1" to-layer="4598" to-port="0" />
		<edge from-layer="4594" from-port="0" to-layer="4598" to-port="1" />
		<edge from-layer="4595" from-port="0" to-layer="4598" to-port="2" />
		<edge from-layer="4596" from-port="0" to-layer="4598" to-port="3" />
		<edge from-layer="4597" from-port="0" to-layer="4598" to-port="4" />
		<edge from-layer="4598" from-port="5" to-layer="4601" to-port="0" />
		<edge from-layer="4599" from-port="0" to-layer="4600" to-port="0" />
		<edge from-layer="4600" from-port="1" to-layer="4601" to-port="1" />
		<edge from-layer="4601" from-port="2" to-layer="4608" to-port="0" />
		<edge from-layer="4602" from-port="0" to-layer="4603" to-port="0" />
		<edge from-layer="4603" from-port="1" to-layer="4604" to-port="0" />
		<edge from-layer="4604" from-port="2" to-layer="4607" to-port="0" />
		<edge from-layer="4605" from-port="0" to-layer="4606" to-port="0" />
		<edge from-layer="4606" from-port="1" to-layer="4607" to-port="1" />
		<edge from-layer="4607" from-port="2" to-layer="4608" to-port="1" />
		<edge from-layer="4608" from-port="2" to-layer="4609" to-port="0" />
		<edge from-layer="4609" from-port="1" to-layer="4610" to-port="1" />
		<edge from-layer="4610" from-port="2" to-layer="4611" to-port="0" />
		<edge from-layer="4611" from-port="1" to-layer="4613" to-port="0" />
		<edge from-layer="4612" from-port="0" to-layer="4660" to-port="1" />
		<edge from-layer="4612" from-port="0" to-layer="4646" to-port="1" />
		<edge from-layer="4612" from-port="0" to-layer="4662" to-port="1" />
		<edge from-layer="4612" from-port="0" to-layer="4673" to-port="1" />
		<edge from-layer="4612" from-port="0" to-layer="4658" to-port="1" />
		<edge from-layer="4612" from-port="0" to-layer="4639" to-port="1" />
		<edge from-layer="4612" from-port="0" to-layer="4638" to-port="1" />
		<edge from-layer="4612" from-port="0" to-layer="4626" to-port="1" />
		<edge from-layer="4612" from-port="0" to-layer="4613" to-port="1" />
		<edge from-layer="4612" from-port="0" to-layer="4619" to-port="1" />
		<edge from-layer="4613" from-port="3" to-layer="4639" to-port="0" />
		<edge from-layer="4613" from-port="2" to-layer="4618" to-port="0" />
		<edge from-layer="4613" from-port="4" to-layer="4625" to-port="0" />
		<edge from-layer="4613" from-port="5" to-layer="4646" to-port="0" />
		<edge from-layer="4614" from-port="0" to-layer="4618" to-port="1" />
		<edge from-layer="4615" from-port="0" to-layer="4618" to-port="2" />
		<edge from-layer="4616" from-port="0" to-layer="4618" to-port="3" />
		<edge from-layer="4617" from-port="0" to-layer="4618" to-port="4" />
		<edge from-layer="4618" from-port="5" to-layer="4619" to-port="0" />
		<edge from-layer="4619" from-port="2" to-layer="4620" to-port="1" />
		<edge from-layer="4619" from-port="2" to-layer="4620" to-port="0" />
		<edge from-layer="4620" from-port="2" to-layer="4637" to-port="0" />
		<edge from-layer="4620" from-port="2" to-layer="4659" to-port="0" />
		<edge from-layer="4621" from-port="0" to-layer="4625" to-port="1" />
		<edge from-layer="4622" from-port="0" to-layer="4625" to-port="2" />
		<edge from-layer="4623" from-port="0" to-layer="4625" to-port="3" />
		<edge from-layer="4624" from-port="0" to-layer="4625" to-port="4" />
		<edge from-layer="4625" from-port="5" to-layer="4626" to-port="0" />
		<edge from-layer="4626" from-port="2" to-layer="4627" to-port="0" />
		<edge from-layer="4626" from-port="2" to-layer="4627" to-port="1" />
		<edge from-layer="4627" from-port="2" to-layer="4630" to-port="0" />
		<edge from-layer="4628" from-port="0" to-layer="4629" to-port="0" />
		<edge from-layer="4629" from-port="1" to-layer="4630" to-port="1" />
		<edge from-layer="4630" from-port="2" to-layer="4635" to-port="0" />
		<edge from-layer="4631" from-port="0" to-layer="4635" to-port="1" />
		<edge from-layer="4632" from-port="0" to-layer="4635" to-port="2" />
		<edge from-layer="4633" from-port="0" to-layer="4635" to-port="3" />
		<edge from-layer="4634" from-port="0" to-layer="4635" to-port="4" />
		<edge from-layer="4635" from-port="5" to-layer="4636" to-port="0" />
		<edge from-layer="4635" from-port="5" to-layer="4636" to-port="1" />
		<edge from-layer="4636" from-port="2" to-layer="4637" to-port="1" />
		<edge from-layer="4636" from-port="2" to-layer="4659" to-port="1" />
		<edge from-layer="4637" from-port="2" to-layer="4638" to-port="0" />
		<edge from-layer="4638" from-port="2" to-layer="4663" to-port="0" />
		<edge from-layer="4639" from-port="2" to-layer="4640" to-port="1" />
		<edge from-layer="4639" from-port="2" to-layer="4640" to-port="0" />
		<edge from-layer="4640" from-port="2" to-layer="4645" to-port="0" />
		<edge from-layer="4640" from-port="2" to-layer="4661" to-port="0" />
		<edge from-layer="4641" from-port="0" to-layer="4645" to-port="1" />
		<edge from-layer="4642" from-port="0" to-layer="4645" to-port="2" />
		<edge from-layer="4643" from-port="0" to-layer="4645" to-port="3" />
		<edge from-layer="4644" from-port="0" to-layer="4645" to-port="4" />
		<edge from-layer="4645" from-port="5" to-layer="4657" to-port="0" />
		<edge from-layer="4646" from-port="2" to-layer="4647" to-port="0" />
		<edge from-layer="4646" from-port="2" to-layer="4647" to-port="1" />
		<edge from-layer="4647" from-port="2" to-layer="4650" to-port="0" />
		<edge from-layer="4648" from-port="0" to-layer="4649" to-port="0" />
		<edge from-layer="4649" from-port="1" to-layer="4650" to-port="1" />
		<edge from-layer="4650" from-port="2" to-layer="4651" to-port="0" />
		<edge from-layer="4650" from-port="2" to-layer="4651" to-port="1" />
		<edge from-layer="4651" from-port="2" to-layer="4656" to-port="0" />
		<edge from-layer="4651" from-port="2" to-layer="4661" to-port="1" />
		<edge from-layer="4652" from-port="0" to-layer="4656" to-port="1" />
		<edge from-layer="4653" from-port="0" to-layer="4656" to-port="2" />
		<edge from-layer="4654" from-port="0" to-layer="4656" to-port="3" />
		<edge from-layer="4655" from-port="0" to-layer="4656" to-port="4" />
		<edge from-layer="4656" from-port="5" to-layer="4657" to-port="1" />
		<edge from-layer="4657" from-port="2" to-layer="4658" to-port="0" />
		<edge from-layer="4658" from-port="2" to-layer="4663" to-port="1" />
		<edge from-layer="4659" from-port="2" to-layer="4660" to-port="0" />
		<edge from-layer="4660" from-port="2" to-layer="4663" to-port="2" />
		<edge from-layer="4661" from-port="2" to-layer="4662" to-port="0" />
		<edge from-layer="4662" from-port="2" to-layer="4663" to-port="3" />
		<edge from-layer="4663" from-port="4" to-layer="4668" to-port="1" />
		<edge from-layer="4663" from-port="4" to-layer="4669" to-port="0" />
		<edge from-layer="4664" from-port="0" to-layer="4665" to-port="1" />
		<edge from-layer="4665" from-port="2" to-layer="4667" to-port="0" />
		<edge from-layer="4666" from-port="0" to-layer="4667" to-port="1" />
		<edge from-layer="4667" from-port="2" to-layer="4668" to-port="0" />
		<edge from-layer="4668" from-port="2" to-layer="4669" to-port="1" />
		<edge from-layer="4669" from-port="2" to-layer="4675" to-port="0" />
		<edge from-layer="4669" from-port="2" to-layer="4682" to-port="0" />
		<edge from-layer="4670" from-port="0" to-layer="4671" to-port="1" />
		<edge from-layer="4671" from-port="2" to-layer="4672" to-port="0" />
		<edge from-layer="4672" from-port="1" to-layer="4673" to-port="0" />
		<edge from-layer="4673" from-port="2" to-layer="4680" to-port="0" />
		<edge from-layer="4674" from-port="0" to-layer="4679" to-port="1" />
		<edge from-layer="4674" from-port="0" to-layer="4679" to-port="0" />
		<edge from-layer="4675" from-port="1" to-layer="4678" to-port="0" />
		<edge from-layer="4676" from-port="0" to-layer="4678" to-port="1" />
		<edge from-layer="4677" from-port="0" to-layer="4678" to-port="2" />
		<edge from-layer="4678" from-port="3" to-layer="4679" to-port="2" />
		<edge from-layer="4679" from-port="3" to-layer="4680" to-port="1" />
		<edge from-layer="4680" from-port="2" to-layer="4681" to-port="0" />
		<edge from-layer="4681" from-port="1" to-layer="4682" to-port="1" />
		<edge from-layer="4682" from-port="2" to-layer="4683" to-port="0" />
		<edge from-layer="4684" from-port="0" to-layer="4685" to-port="1" />
		<edge from-layer="4685" from-port="2" to-layer="4686" to-port="0" />
	</edges>
	<rt_info>
		<Runtime_version value="2024.4.0-16579-c3152d32c9c-releases/2024/4" />
		<conversion_parameters>
			<framework value="pytorch" />
			<is_python_object value="True" />
		</conversion_parameters>
		<nncf>
			<friendly_names_were_updated value="True" />
			<quantization>
				<advanced_parameters value="{}" />
				<fast_bias_correction value="False" />
				<ignored_scope value="None" />
				<model_type value="None" />
				<preset value="None" />
				<subset_size value="1000" />
				<target_device value="CPU" />
			</quantization>
		</nncf>
	</rt_info>
</net>
